results/checkpoints/mapzero_OH_TOR_DIAG_4x4.pth (torch, 58152 bytes, 25 tensors)

graph_embed_generation.gat_dfg.att_src f4 [1, 4, 32]
-0.12470128 0.12214987 -0.16101721 -0.012888687 -0.03979947 0.058445457 -0.25610575 0.080581054
-0.0052510016 -0.1275164 -0.06432503 -0.0650467 0.023416769 0.035192523 0.05991281 -0.03605799
-0.046143726 -0.10765348 0.20887668 0.15648916 0.36765498 0.076595224 0.019170623 -0.0789894
0.054653067 0.01228852 -0.058055297 0.07503076 -0.21279998 -0.090168655 -0.22562253 -0.009189954
-0.0038706297 0.13303353 -0.09965167 0.049702678 0.13380839 0.17453252 -0.047233105 0.2246981
-0.20206226 -0.01506223 0.13422349 -0.014549845 -0.16085145 0.16759916 0.3637801 -0.04376995
0.051452592 0.15056296 -0.17813593 0.19988763 -0.16541287 0.04578866 0.14216438 -0.0024898173
-0.035944235 -0.17940281 -0.3620157 0.042544372 0.22500776 -0.06719794 0.16251063 -0.08285032
0.18719678 -0.023043139 -0.041156374 0.019204026 0.056638185 0.12560655 0.07514535 -0.20391013
-0.03926142 -0.13873273 -0.028352547 -0.028324006 -0.24805921 0.06015758 0.11334919 0.043765422
0.10514726 0.021953167 0.061510116 -0.13484181 0.016928436 -0.07808803 0.23664771 0.15222667
0.006644276 0.033841282 0.060634673 -0.109642535 -0.029061053 -0.029865101 -0.0027389352 -0.0547937
0.23106463 0.34009403 -0.07865239 -0.027835324 0.12160698 -0.025925282 -0.23455015 0.0072636427
0.080199786 -0.16973214 0.044895932 -0.04805702 -0.060102537 -0.085699774 0.10188617 -0.0445332
-0.031025816 0.061798688 0.24327815 -0.05203801 0.037434217 -0.041779198 -0.107792094 0.06494453
0.031711146 0.045310024 0.08452056 -0.025906598 0.072277054 -0.25106314 0.35562673 -0.06890653
00000000: 6263 ffbd b629 fa3d b2e1 24be 122b 53bc
00000010: c504 23bd 8164 6f3d 4b20 83be ae07 a53d
00000020: 9810 acbb a993 02be d7bc 83bd 3437 85bd
00000030: 86d4 bf3c 0926 103d 2267 753d 8bb1 13bd
00000040: 3401 3dbd 6d79 dcbd c5e3 553e b23e 203e
00000050: 463d bc3e f5dd 9c3d b60b 9d3c 32c5 a1bd
00000060: e5db 5f3d ca55 493c 64cb 6dbd baa9 993d
00000070: 3de8 59be 58aa b8bd 9809 67be 7691 16bc
00000080: 64aa 7dbb f139 083e 2d16 ccbd 0995 4b3d
00000090: 1105 093e a7b8 323e 8077 41bd 4217 663e
000000a0: 69e9 4ebe 92c7 76bc e271 093e 7962 6ebc
000000b0: 3eb6 24be 1d9f 2b3e 6341 ba3e 1e48 33bd
000000c0: f4bf 523d 2d2d 1a3e 4469 36be 58af 4c3e
000000d0: fe61 29be e48c 3b3d 8a93 113e 342c 23bb
000000e0: 433a 13bd 5fb5 37be 1f5a b9be 0243 2e3d
000000f0: 6f68 663e 139f 89bd 3069 263e 6ead a9bd
00000100: 83b0 3f3e f7c4 bcbc 9693 28bd c351 9d3c
00000110: 71fd 673d 019f 003e cee5 993d d1cd 50be
00000120: 95d0 20bd f40f 0ebe 9a43 e8bc bf07 e8bc
00000130: 3c03 7ebe cb67 763d 9f23 e83d 5f43 333d
00000140: 7257 d73d 21d7 b33c 08f2 7b3d f913 0abe
00000150: 81ad 8a3c 9eec 9fbd c753 723e 4fe1 1b3e
00000160: 3ab8 d93b 289d 0a3d 105c 783d 448c e0bd
00000170: 7211 eebc a8a7 f4bc b57f 33bb 5c6f 60bd
00000180: 359c 6c3e ce20 ae3e 8114 a1bd e806 e4bc
00000190: 150d f93d 4261 d4bc ea2d 70be da03 ee3b
000001a0: c93f a43d 43ce 2dbe cce4 373d 70d7 44bd
000001b0: 142e 76bd 5d83 afbd b2a9 d03d 7268 36bd
000001c0: da29 febc 9f20 7d3d e81d 793e cf25 55bd
000001d0: 9f54 193d aa20 2bbd 1ac2 dcbd a301 853d
000001e0: 8ce3 013d 0197 393d 1e19 ad3d 133a d4bc
000001f0: fe05 943d 598b 80be b514 b63e de1e 8dbd

graph_embed_generation.gat_dfg.att_dst f4 [1, 4, 32]
0.056018814 0.17582226 -0.0016158614 0.031016976 -0.06024264 0.11652346 0.12909766 -0.16006625
0.057716507 0.22522655 0.083716914 -0.18065968 0.062836714 0.080982715 0.053327575 -0.24088514
0.09460833 -0.0006347421 0.0067839306 0.058412313 0.083007626 -0.09227732 -0.070848174 0.11401404
0.011416888 -0.14157161 -0.2197616 -0.016711263 -0.025165943 0.038870797 0.0050845155 0.13288233
0.06828254 -0.13941249 -0.02189651 0.11871528 -0.15895529 0.21174186 0.07038751 0.2164127
-0.035348374 -0.18664719 -0.05253696 -0.1284714 -0.13395113 0.060730375 -0.016142039 -0.039680656
-0.11937137 -0.08847591 -0.13518059 0.058120277 0.044056725 0.15855189 0.081675746 0.011796219
-0.20636769 0.19312091 -0.23634496 0.056627084 -0.21005583 0.037877686 0.15479559 -0.10453609
-0.034447778 0.06611541 0.037766192 0.07485609 0.16780469 0.04826934 0.060739037 0.11513877
-0.082873695 -0.2336841 0.09300325 -0.11301703 -0.15261915 0.15873468 -0.08841123 0.1426919
0.3379218 0.10291096 -0.22133459 -0.24942467 0.039303664 -0.034046624 0.09540383 0.004522482
0.08883394 0.10910029 -0.10168521 -0.018978914 0.11031757 0.17783055 -0.06580412 -0.05501142
0.10808163 -0.009258946 -0.18620858 0.12639205 0.013440954 0.106412016 -0.016129827 -0.22063997
-0.0047137877 -0.048948675 -0.014401513 -0.123746745 0.08839694 0.14782965 -0.22575456 0.19271204
-0.09509093 -0.28012666 0.09662354 0.01713039 0.08492471 0.19550018 -0.26247543 0.1702125
0.19785453 0.25867158 0.19817033 -0.07789106 0.098695636 -0.061290447 0.0023358553 -0.009427499
00000000: fc73 653d c00a 343e 50cb d3ba 5017 fe3c
00000010: fdc0 76bd daa3 ee3d 2d32 043e 68e8 23be
00000020: 2568 6c3d caa1 663e c673 ab3d dafe 38be
00000030: 89b0 803d 44da a53d 046e 5a3d 98aa 76be
00000040: 03c2 c13d d264 26ba bc4b de3b c041 6f3d
00000050: e7ff a93d e4fb bcbd d918 91bd 3180 e93d
00000060: e60d 3b3c 26f8 10be 2f09 61be 0fe6 88bc
00000070: cf28 cebc fc36 1f3d 029c a63b 4e12 083e
00000080: b7d7 8b3d 26c2 0ebe 4f60 b3bc ff20 f33d
00000090: 2dc5 22be dcd2 583e 5427 903d 4a9b 5d3e
000000a0: 75c9 10bd 7120 3fbe ff30 57bd 028e 03be
000000b0: 7c2a 09be 6ac0 783d 4f3c 84bc 2f88 22bd
000000c0: fa78 f4bd dc32 b5bd c86c 0abe 870f 6e3d
000000d0: d374 343d 6d5b 223e 9d45 a73d ee44 413c
000000e0: 0d52 53be 7dc1 453e 6a04 72be cdf1 673d
000000f0: e018 57be a225 1b3d bc82 1e3e 0417 d6bd
00000100: 1d19 0dbd 8467 873d b9b0 1a3d 264e 993d
00000110: fed4 2b3e 12b6 453d 7fc9 783d e0cd eb3d
00000120: afb9 a9bd e24a 6fbe 7d78 be3d 7975 e7bd
00000130: 3248 1cbe 588b 223e f210 b5bd d31d 123e
00000140: 1604 ad3e fbc2 d23d 89a5 62be 2e69 7fbe
00000150: e1fc 203d 7974 0bbd 1563 c33d 5431 943b
00000160: 92ee b53d f96f df3d 5640 d0bd ab79 9bbc
00000170: 2eee e13d 3619 363e 4fc4 86bd a853 61bd
00000180: e759 dd3d d6b2 17bc 76ad 3ebe eb6c 013e
00000190: 7237 5c3c 8bee d93d b322 84bc 72ef 61be
000001a0: 1e76 9abb 687e 48bd 53f4 6bbc ef6e fdbd
000001b0: 7409 b53d a860 173e 342c 67be 4e56 453e
000001c0: 09bf c2bd c36c 8fbe 90e2 c53d 0855 8c3c
000001d0: 02ed ad3d 3331 483e 2e63 86be 304c 2e3e
000001e0: 619a 4a3e 9a70 843e 2aed 4a3e 5985 9fbd
000001f0: f020 ca3d b10b 7bbd 2615 193b cc75 1abc

graph_embed_generation.gat_dfg.bias f4 [32]
-0.022020604 -0.022661552 0.0043626544 0.0035050355 -0.030731978 -0.028439907 0.0050335554 0.0006128072
0.0133608105 -0.009073019 0.019032534 -0.015342108 0.014223494 0.01494501 -0.036513362 0.0027162596
0.019892262 -0.029357657 -0.016596416 -0.0034807771 0.013355155 0.021528319 -0.0023531513 -0.0048819054
0.0068879025 -0.0044322424 0.016964493 0.0074923085 -0.012225885 0.025292726 0.0016192365 -0.020039905
00000000: 8e64 b4bc b8a4 b9bc 99f4 8e3b bdb4 653b
00000010: a1c1 fbbc cffa e8bc 86f0 a43b cca4 203a
00000020: 4de7 5a3c 00a7 14bc 1eea 9b3c 775d 7bbc
00000030: a809 693c eadb 743c 098f 15bd 4603 323b
00000040: 19f5 a23c 787f f0bc 35f5 87bc c01d 64bb
00000050: 94cf 5a3c 285c b03c 5437 1abb 64f8 9fbb
00000060: eab3 e13b 583c 91bb 1ff9 8a3c 0a82 f53b
00000070: 144f 48bc b132 cf3c 903c d43a ba2a a4bc

graph_embed_generation.gat_dfg.lin.weight f4 [128, 10]
-0.008747211 0.25263172 -0.060733136 0.19242267 0.07292415 -0.21322535 -0.21880193 0.046748202
-0.15099923 0.034430757 -0.03704252 0.3435095 0.15032141 -0.034167368 0.04704653 0.043754894
0.071832426 -0.03432914 -0.2501953 0.030700808 0.09078165 -0.3082827 0.20448172 -0.13511416
-0.15629353 -0.1276094 0.10669634 0.0777434 0.10467482 0.10968097 0.07676745 -0.094689
-0.22112143 -0.052008267 0.2215525 -0.26392645 -0.014191689 0.0029565373 0.057968847 -0.028557155
0.116105795 0.008748817 -0.1149695 -7.714972e-05 -0.06659332 0.056144096 0.06585782 -0.07516613
-0.08625856 -0.05920739 0.061441623 0.09776446 -0.1556227 -0.21061625 0.32986844 -0.0856504
0.076848984 -0.0054310914 -0.06434432 -0.15546903 -0.18442416 -0.1035791 0.21545832 0.16506322
-0.026994642 -0.060165063 0.049684655 0.019717302 0.24454029 0.15707606 0.05537739 -0.15708941
0.012337911 0.13253336 -0.055653088 -0.20830294 -0.037365977 0.09098359 0.20930102 -0.055157773
0.20279835 0.06624168 -0.1924715 -0.15190566 -0.2557102 0.16308974 -0.15344714 -0.11176435
-0.13036849 0.15654667 0.068941355 -0.076772526 0.088612966 -0.18042606 0.10614185 0.09989783
-0.18262976 -0.016032279 0.24041292 0.043413483 -0.15598989 -0.041685615 0.054274198 -0.050011273
-0.0716132 -0.032056216 -0.106172755 -0.14959083 0.19071838 0.009550186 -0.09379277 0.026701633
-0.13216083 0.29547495 -0.052697245 -0.109666415 0.066567436 0.009549626 -0.07579453 -0.12854102
-0.19882941 0.099669114 -0.08058721 0.33906865 -0.16192003 0.08293812 -0.0049409885 -0.06395912
0.020269757 0.20840144 0.012707225 0.1730641 -0.09337934 0.06305977 0.004381829 -0.028965276
-0.048023995 -0.13253863 -0.16212028 0.117683426 0.022589229 0.02677506 0.0043589193 -0.078329384
0.0047579883 -0.18470363 0.041682918 0.10904175 0.011834239 0.011945621 -0.17062202 0.07102444
-0.25681043 0.11764989 -0.005808149 0.028260505 -0.026062632 -0.10567058 0.09175478 0.10666805
0.2056116 -0.047468025 0.2041288 -0.056931626 0.065101944 -0.0045724497 -0.04152962 -0.05343649
-0.120118275 -0.0025359031 0.14044015 0.049930416 -0.012829327 0.034049265 0.0064290212 0.023145942
-0.025490593 0.062387787 -0.123436354 -0.018988574 -0.1807311 0.21159443 0.103648335 0.030213952
0.027401272 -0.05203009 0.088598974 0.087656945 -0.012270225 0.110149 0.03160393 0.07478021
-0.16155133 -0.0099070445 -0.04836649 0.3428822 -0.1050705 -0.026407616 0.032762844 -0.13436955
0.02167598 0.10113546 -0.0955476 0.043981656 -0.07432464 0.006453536 0.15077324 0.16360955
0.20461121 -0.058423024 0.079828486 0.18687575 0.0132219 -0.047990825 -0.18416855 0.007493322
0.23698577 -0.07059927 -0.044403628 -0.09325314 0.02511189 -0.14141712 -0.06874213 -0.046152744
-0.11004922 0.04135082 0.18476051 0.1733307 0.12501906 -0.16667755 0.076811254 -0.14354692
-0.03940482 -0.06445144 0.033417355 0.1523933 -0.04172728 0.14308536 0.1235739 0.0865138
0.030652303 0.045946315 0.15006392 0.027217679 -0.13279666 0.15263042 0.041359115 0.16755538
-0.01393061 -0.03599472 0.0022453773 -0.062816575 0.114386074 -0.117821 0.1095734 0.06390864
00000000: 7650 0fbc f258 813e 4fc3 78bd 730a 453e
00000010: 4259 953d bf57 5abe 9d0d 60be 0b7b 3f3d
00000020: 8b9f 1abe 4407 0d3d e6b9 17bd 7ae0 af3e
00000030: dbed 193e 15f3 0bbd ddb3 403d 5538 333d
00000040: e11c 933d b69c 0cbd 9919 80be 4380 fb3c
00000050: bbeb b93d 3bd7 9dbe a863 513e 5e5b 0abe
00000060: 690b 20be 0aac 02be 9c83 da3d ef37 9f3d
00000070: c15f d63d 6ba0 e03d 4138 9d3d 4eec c1bd
00000080: a86d 62be 9f06 55bd a9de 623e 5e21 87be
00000090: 4284 68bc 77c2 413b be70 6d3d b2f0 e9bc
000000a0: e0c8 ed3d 3357 0f3c 2175 ebbd 71cb a1b8
000000b0: 1462 88bd 5af7 653d 77e0 863d b3f0 99bd
000000c0: 54a8 b0bd 7383 72bd 36aa 7b3d bc38 c83d
000000d0: 8f5b 1fbe c9ab 57be 84e4 a83e 7a69 afbd
000000e0: 0063 9d3d 4cf7 b1bb f4c6 83bd 4633 1fbe
000000f0: b0d9 3cbe 4721 d4bd 1ba1 5c3e 5506 293e
00000100: de23 ddbc a46f 76bd 2382 4b3d 2e86 a13c
00000110: c568 7a3e 8cd8 203e 67d3 623d 0cdc 20be
00000120: f324 4a3c d3b6 073e 7ef4 63bd 5e4d 55be
00000130: 110d 19bd 9b55 ba3d 0253 563e 1eed 61bd
00000140: 5faa 4f3e b8a9 873d 4017 45be 288d 1bbe
00000150: 73ec 82be ff00 273e 3f21 1dbe b5e4 e4bd
00000160: 517f 05be c54d 203e 2031 8d3d ea3a 9dbd
00000170: b77a b53d 9cc1 38be e660 d93d 3c97 cc3d
00000180: 4c03 3bbe 2056 83bc ce2e 763e 56d2 313d
00000190: d0bb 1fbe 89be 2abd 9f4e 5e3d 9fd8 4cbd
000001a0: f1a9 92bd 614d 03bd 1a71 d9bd 572e 19be
000001b0: ae4b 433e 6278 1c3c 6c16 c0bd 62bd da3c
000001c0: 2b55 07be 7e48 973e 11d9 57bd c998 e0bd
000001d0: 8254 883d 0976 1c3c 2a3a 9bbd 42a0 03be
000001e0: f099 4bbe 521f cc3d e80a a5bd 689a ad3e
000001f0: 5dce 25be 76db a93d 04e8 a1bb 00fd 82bd
00000200: c30c a63c 3067 553e f731 503c b737 313e
00000210: ab3d bfbd 7b25 813d 7295 8f3b 9648 edbc
00000220: cfb4 44bd 35b8 07be dc02 26be 0204 f13d
00000230: 0c0d b93c 5f57 db3c 44d5 8e3b 286b a0bd
00000240: e6e8 9b3b f322 3dbe b5bb 2a3d 4851 df3d
00000250: 65e4 413c 91b7 433c 8ab7 2ebe 4375 913d
00000260: a87c 83be 6df2 f03d 4952 bebb 9382 e73c
00000270: 4d81 d5bc d169 d8bd eee9 bb3d c774 da3d
00000280: d98b 523e d56d 42bd 2407 513e 2331 69bd
00000290: 2b54 853d 7dd4 95bb f61a 2abd 39e0 5abd
000002a0: 9200 f6bd 6531 26bb 8bcf 0f3e d683 4c3d
000002b0: 1932 52bc 3e77 0b3d 8aaa d23b 8f9c bd3c
000002c0: a6d1 d0bc 568a 7f3d 33cc fcbd ed8d 9bbc
000002d0: 9311 39be 36ac 583e 9445 d43d 4083 f73c
000002e0: a278 e03c 811d 55bd 6173 b53d 7c85 b33d
000002f0: 0e09 49bc cd95 e13d 1f73 013d 5e26 993d
00000300: b66d 25be 2851 22bc f11b 46bd 418e af3e
00000310: 342f d7bd c954 d8bc 5532 063d 2c98 09be
00000320: d391 b13c 1c20 cf3d 76ae c3bd 1c26 343d
00000330: 8437 98bd 2f78 d33b 4d64 1a3e 4389 273e
00000340: 9a85 513e fb4c 6fbd 1e7d a33d 5b5c 3f3e
00000350: aba0 583c 0792 44bd ae96 3cbe 8a8a f53b
00000360: 66ac 723e 5a96 90bd 94e0 35bd 81fb bebd
00000370: 73b7 cd3c a6cf 10be adc8 8cbd a90a 3dbd
00000380: 7c61 e1bd 7a5f 293d dc31 3d3e 9a7d 313e
00000390: ff04 003e 85ad 2abe 384f 9d3d f7fd 12be
000003a0: f366 21bd 1eff 83bd a3e0 083d fd0c 1c3e
000003b0: 39ea 2abd f884 123e 5014 fd3d 262e b13d
000003c0: 8a1a fb3c 3432 3c3d 5baa 193e 9cf7 de3c
000003d0: d9fb 07be 264b 1c3e 2d68 293d a393 2b3e
000003e0: 373d 64bc 336f 13bd 2e27 133b faa5 80bd
000003f0: 3f43 ea3d 234c f1bd 0568 e03d 88e2 823d

graph_embed_generation.gat_cgra.att_src f4 [1, 4, 32]
0.07490589 -0.13742584 0.010731055 0.05068113 -0.16280594 0.08774985 0.11644634 -0.052335624
0.052791107 -0.053168844 0.15576014 -0.067755245 0.31195837 -0.004242723 -0.06532556 -0.01784766
-0.06773847 -0.09266874 -0.09445379 0.047323294 -0.007009949 0.07515887 0.016316852 0.057326656
0.17484954 -0.039711606 0.051861428 0.09113664 0.025560064 0.18266499 -0.115578495 0.16545413
-0.13862085 -0.29039422 -0.18194525 0.17028345 0.03219267 0.21290241 -0.07684104 0.095551886
-0.053824227 0.17191333 -0.05154251 0.025095312 -0.11469466 0.16462241 0.10381563 0.14487033
-0.062401854 -0.034652546 0.13306001 0.23408198 0.10355505 -0.14591524 -0.16406818 -0.13687113
-0.35192376 0.0920406 0.05377747 0.03564252 -0.052256677 -0.15346876 0.21122731 -0.12508468
0.0031519176 -0.008557718 -0.14331093 -0.06716954 -0.21528439 -0.28177664 -0.009379483 0.10797097
0.08712112 0.05652467 0.17875709 0.04558434 0.0070337295 0.049973235 0.07981288 0.0558346
0.23393837 0.13191965 0.01670273 0.07552498 0.09408298 -0.10275349 -0.040390808 0.004111683
0.11046575 -0.09356953 -0.039894104 0.32332858 -0.07120899 0.086107254 -0.12740718 -0.1666459
-0.028767698 0.0121196 -0.20485805 -0.1410787 -0.3303281 0.048332274 0.15945974 0.04101458
-0.3083121 -0.012432569 0.14132874 -0.18443659 0.105564766 -0.08469951 0.10547051 0.06566932
0.01015421 -0.118404135 0.085482016 0.038056806 -0.03477998 -0.05714853 -0.14115794 0.07870091
0.09851013 0.055261854 0.07786394 0.027288761 -0.1724766 -0.14595477 0.1729429 -0.10808787
00000000: 4268 993d 5cb9 0cbe 4fd1 2f3c 0497 4f3d
00000010: 9ab6 26be 31b6 b33d 6b7b ee3d e15d 56bd
00000020: 7d3b 583d 93c7 59bd 967f 1f3e 43c3 8abd
00000030: 02b9 9f3e 8a06 8bbb 68c9 85bd 4235 92bc
00000040: 78ba 8abd 1cc9 bdbd fd70 c1bd 12d6 413d
00000050: b7b3 e5bb e5ec 993d ebaa 853c 5bcf 6a3d
00000060: c20b 333e a3a8 22bd a66c 543d d9a5 ba3d
00000070: 5763 d13c 880c 3b3e 6bb4 ecbd cf6c 293e
00000080: a0f2 0dbe 8dae 94be db4f 3abe c95e 2e3e
00000090: 76dc 033d 1703 5a3e d65e 9dbd b5b0 c33d
000000a0: cb76 5cbd 0c0a 303e 3d1e 53bd af94 cd3c
000000b0: 09e5 eabd c792 283e 4a9d d43d e358 143e
000000c0: 1699 7fbd d4ef 0dbd e240 083e 30b3 6f3e
000000d0: ac14 d43d ce6a 15be 7d01 28be f227 0cbe
000000e0: 5a2f b4be c87f bc3d c445 5c3d e4fd 113d
000000f0: 190b 56bd ea26 1dbe f94b 583e 3316 00be
00000100: 6790 4e3b ac35 0cbc 1ac0 12be 2f90 89bd
00000110: 8373 5cbe 0745 90be 67ac 19bc e21f dd3d
00000120: 8f6c b23d 6a86 673d 190c 373e a5b6 3a3d
00000130: 337b e63b bcb0 4c3d ef74 a33d d2b2 643d
00000140: 8a8d 6f3e f215 073e 2ad4 883c d7ac 9a3d
00000150: 94ae c03d 6c70 d2bd d570 25bd 4cbb 863b
00000160: de3b e23d 62a1 bfbd 0068 23bd 538b a53e
00000170: 05d6 91bd 0059 b03d 0777 02be 39a5 2abe
00000180: 3caa ebbc 4991 463c 4fc6 51be ef76 10be
00000190: c420 a9be 10f8 453d 6a49 233e e7fe 273d
000001a0: 15db 9dbe f9b1 4bbc 7bb8 103e f2dc 3cbe
000001b0: 5732 d83d f076 adbd ec00 d83d a37d 863d
000001c0: d85d 263c de7d f2bd 3211 af3d 74e1 1b3d
000001d0: 7475 0ebd 9414 6abd b58b 10be f12d a13d
000001e0: aebf c93d 415a 623d 2177 9f3d ae8c df3c
000001f0: b59d 30be 2b75 15be f217 313e 2c5d ddbd

graph_embed_generation.gat_cgra.att_dst f4 [1, 4, 32]
-0.123747125 -0.24743186 -0.025536317 -0.008632787 0.18489821 0.009577657 -0.2202693 0.020419158
-0.21388076 -0.12116203 0.091249034 -0.123277545 0.41346112 -0.10426235 0.17415212 -0.06314351
-0.012039349 -0.24653174 0.09916106 0.034739908 -0.14286228 -0.039416835 -0.28131527 0.034429967
-0.035947282 0.13356993 -0.0027507693 -0.12730385 0.24653779 -0.042000625 -0.10346015 0.095858745
-0.03457633 0.10859584 0.12836157 -0.16509493 -0.078904495 0.023003587 -0.009889888 0.1282531
-0.18705834 -0.2096696 0.11938005 -0.054856718 -0.04965425 0.08663271 -0.105029814 0.016670346
-0.090600975 -0.16799064 -0.0021370407 0.24086654 0.07620768 0.14912413 -0.077313796 -0.16686903
-0.15926577 0.013776308 0.15539588 0.11394252 0.046531945 0.08929525 0.073590815 -0.09108697
-0.18557401 0.0074205613 0.009488755 0.027048342 0.14583729 0.010642156 -0.027365657 0.23932405
0.08973509 0.1530394 -0.021551404 -0.021298712 0.025367837 0.12699294 -0.09108228 0.013336933
-0.09443228 -0.20795389 0.017224178 -0.04430309 -0.019966297 -0.16255315 0.07224661 0.12537672
-0.078215115 0.26730728 0.08493282 -0.16405267 0.10910082 -0.16265056 -0.15199937 -0.056224488
-0.056544624 -0.037795424 0.2728437 -0.02446026 -0.12099069 -0.092851266 0.046138257 -0.040508147
-0.14316137 0.009613073 0.02264769 0.018751081 0.20128787 -0.042794645 0.20379834 0.16913354
-0.07210448 -0.1856494 -0.13183704 -0.018390747 0.24483442 0.024936676 0.12182462 0.055782903
0.0563775 -0.10605144 -0.016310373 -0.1439958 -0.052055713 0.1383882 0.013222177 0.041337978
00000000: 226f fdbd c75e 7dbe 8a31 d1bc 8870 0dbc
00000010: f555 3d3e 9beb 1c3c 468e 61be 1446 a73c
00000020: 8f03 5bbe cc23 f8bd c6e0 ba3d f078 fcbd
00000030: 2db1 d33e 8087 d5bd ef54 323e 6251 81bd
00000040: b140 45bc d172 7cbe f414 cb3d 6f4b 0e3d
00000050: 7d4a 12be 8c73 21bd 8e08 90be 7006 0d3d
00000060: 753d 13bd 8ec6 083e 4046 34bb f15b 02be
00000070: 6774 7c3e d908 2cbd eae2 d3bd 9751 c43d
00000080: e99f 0dbd 7f67 de3d 3771 033e a50e 29be
00000090: ae98 a1bd 0572 bc3c 3209 22bc c854 033e
000000a0: 398c 3fbe a1b3 56be 877d f43d 70b1 60bd
000000b0: 4162 4bbd 7e6c b13d df19 d7bd 4090 883c
000000c0: 018d b9bd bd05 2cbe 980d 0cbb b8a5 763e
000000d0: c612 9c3d ffb3 183e b256 9ebd b7df 2abe
000000e0: 9116 23be 06b6 613c 1920 1f3e b25a e93d
000000f0: 4898 3e3d 6ee0 b63d c8b6 963d ce8b babd
00000100: 1d07 3ebe 2e28 f33b b976 1b3c 7c94 dd3c
00000110: 5f56 153e 705c 2e3c f12d e0bc 5d11 753e
00000120: 08c7 b73d 5cb6 1c3e 928c b0bc a37a aebc
00000130: 36d0 cf3c 700a 023e 5989 babd 2783 5a3c
00000140: b665 c1bd ddf1 54be b819 8d3c 2877 35bd
00000150: 5c90 a3bc 5574 26be 08f6 933d c162 003e
00000160: 3f2f a0bd 80dc 883e 42f1 ad3d 6cfd 27be
00000170: 4070 df3d de8d 26be b9a5 1bbe a64b 66bd
00000180: 569b 67bd 60cf 1abd 2bb2 8b3e e260 c8bc
00000190: f8c9 f7bd ce28 bebd 78fb 3c3d dfeb 25bd
000001a0: e598 12be 2780 1d3c a687 b93c de9b 993c
000001b0: 681e 4e3e 7049 2fbd 83b0 503e 5831 2d3e
000001c0: 83ab 93bd e01a 3ebe 4a00 07be 31a8 96bc
000001d0: e0b5 7a3e 0048 cc3c 307f f93d 9d7c 643d
000001e0: 18ec 663d 7f31 d9bd 559d 85bc a373 13be
000001f0: 5f38 55bd a3b5 0d3e d4a1 583c 0352 293d

graph_embed_generation.gat_cgra.bias f4 [32]
0.004961583 0.009814706 0.009706118 -0.008431433 -0.009991008 0.005406351 0.011574336 0.0072298646
-0.021783873 -0.009064424 0.018389124 -0.016148565 0.007571574 0.015427573 -0.0034268966 -0.0052990634
-0.0061374563 0.0013401932 0.009475127 -0.016182806 -0.00516722 0.003660217 0.021134777 -0.00551746
-0.004732192 -0.0027992248 0.005479999 0.0008785938 -0.00826201 -0.0037291367 0.006662912 0.011820998
00000000: c694 a23b dccd 203c 6906 1f3c fe23 0abc
00000010: 53b1 23bc c227 b13b 49a2 3d3c 80e8 ec3b
00000020: 1874 b2bc f382 14bc caa4 963c ff49 84bc
00000030: f71a f83b eec3 7c3c c995 60bb c4a3 adbb
00000040: b71c c9bb 6ca9 af3a 903d 1b3c ce91 84bc
00000050: c851 a9bb 40e0 6f3b d722 ad3c cfcb b4bb
00000060: 8110 9bbb 3373 37bb 9091 b33b 6f51 663a
00000070: 625d 07bc 8864 74bb 8f54 da3b dcac 413c

graph_embed_generation.gat_cgra.lin.weight f4 [128, 7]
0.07994147 0.13435951 0.06390606 0.059673507 -0.008628966 0.1925222 -0.08563272 -0.013763361
-0.21399009 0.08490593 -0.12333785 0.18049753 -0.20990157 -0.036683716 0.034512483 0.06645648
-0.059551 -0.0717457 -0.009646556 -0.059440833 0.04452042 -0.16778634 -0.15185083 -0.086501785
-0.1425673 0.10553863 0.1640354 0.049690552 0.07385801 -0.11320732 -0.07619706 -0.21857256
-0.07396674 -0.24787897 -0.11612738 0.24075975 -0.0387883 -0.028506557 -0.041580427 -0.06999549
0.0017996904 -0.027480926 0.18412423 0.07559459 0.046088148 -0.07535508 0.28999305 0.45237166
-0.08779682 0.07464841 -0.09683923 0.14977838 -0.0054772883 0.20696676 0.08489586 -0.06774261
0.20523073 -0.06459571 0.01105088 -0.078129925 0.08224308 -0.086902216 0.03964552 0.016739737
0.09047411 0.14817129 0.03821971 -0.08705263 -0.05256475 -0.12714508 0.04187866 -0.08119034
-0.07439455 0.22512968 -0.0204063 -0.02417019 0.051003966 -0.21995245 -0.00844248 0.06416835
-0.081155874 -0.016125163 -0.10243641 0.25904813 0.19719513 0.08280314 -0.13632548 -0.010077524
0.0134193385 -0.045155402 0.059116922 -0.08241807 0.110975526 0.24410321 -0.23966138 -0.14885204
0.23707636 0.15632173 0.14689283 -0.038886536 0.18624462 -0.19829099 0.083690986 -0.12784258
-0.17152125 -0.09649282 -0.24254833 -0.25572234 0.008106639 -0.13021272 -0.024211971 0.041731477
-0.11499923 0.023407126 -0.05954644 0.07834385 -0.095253624 0.18057434 -0.06756178 0.03235972
-0.026716322 -0.04692647 0.0012000145 -0.28438947 0.0981712 0.25609708 -0.23342398 0.058473222
0.017109543 -0.13785972 -0.12190262 0.02556894 -0.12377395 0.02047651 -0.19099091 -0.007671738
0.0350453 -0.09711163 0.026937757 0.097840406 0.08643742 -0.06350039 -0.19970773 0.13702339
-0.109141216 -0.0040891934 -0.09237972 0.3071273 0.30598268 -0.1622604 -0.16740233 0.065952994
0.06841548 0.10925624 -0.05425797 -0.07337222 -0.015680825 -0.2020722 -0.1785347 0.035553217
0.0006496131 0.007201075 0.20211862 0.12366986 -0.10075565 0.26714486 -0.114511244 0.05322834
-0.08593604 0.076538645 0.09037886 -0.06021745 0.00021982708 -0.020791983 0.022048725 -0.084715724
-0.06098278 -0.057704985 0.032793667 0.009029739 0.122930765 0.0030363887 0.17481166 0.11544216
-0.045773063 0.101672865 0.08770373 -0.13151628 -0.0958104 -0.054043133 0.017422715 0.019959865
0.13693358 -0.0031340872 -0.118037745 -0.046149544 -0.06762566 0.021679971 0.015379957 0.21324764
0.18204427 0.028981641 0.017454298 -0.0638853 -0.052381005 0.05473801 -0.045825936 0.09742288
-0.21522269 -0.15703216 0.11976054 -0.059829973 -0.056831837 -0.026516609 -0.07628905 -0.16314356
0.006925816 -0.14898907 -0.20589626 -0.094751045 -0.09060245 -0.028361268 0.113208815 -0.23435394
0.20944858 -0.07016976 0.07119199 0.00015507036 0.03709481 0.022882793 0.04132413 -0.05390532
0.18293948 0.10778209 0.087716624 -0.041977145 -0.036139347 -0.18129764 0.1428736 0.096995436
-0.04471989 0.07008776 -0.050594978 0.14100794 -0.19694617 0.14159529 -0.11976833 -0.14385417
0.10727502 -0.027057502 -0.048563004 0.103141084 0.015576976 -0.16571115 0.11816732 0.045265626
00000000: 5ab8 a33d 8a95 093e 2ee1 823d 356c 743d
00000010: 8260 0dbc 8a24 453e 3560 afbd b87f 61bc
00000020: 3820 5bbe 29e3 ad3d 8e98 fcbd 58d4 383e
00000030: 70f0 56be aa41 16bd f65c 0d3d 561a 883d
00000040: c0eb 73bd 69ef 92bd 970c 1ebc 3b78 73bd
00000050: 0b5b 363d 2fd0 2bbe c97e 1bbe d927 b1bd
00000060: 2afd 11be a324 d83d e5f8 273e 5288 4b3d
00000070: de42 973d 3dd9 e7bd 340d 9cbd 7cd1 5fbe
00000080: e07b 97bd fcd3 7dbe 31d4 edbd b989 763e
00000090: 7be0 1ebd 9586 e9bc 3d50 2abd cc59 8fbd
000000a0: 97e3 eb3a ae1f e1bc 108b 3c3e 56d1 9a3d
000000b0: edc6 3c3d c453 9abd f879 943e 429d e73e
000000c0: d2ce b3bd 44e1 983d a553 c6bd 815f 193e
000000d0: d37a b3bb 18ef 533e e1dd ad3d a3bc 8abd
000000e0: 0128 523e c14a 84bd c00e 353c 9502 a0bd
000000f0: 0f6f a83d caf9 b1bd 5763 223d c621 893c
00000100: 7d4a b93d 37ba 173e 458c 1c3d a648 b2bd
00000110: 234e 57bd 5232 02be f588 2b3d 1f47 a6bd
00000120: 2b5c 98bd 6588 663e 1d2b a7bc 9000 c6bc
00000130: 89e9 503d 373b 61be 5452 0abc b26a 833d
00000140: 0d35 a6bd eb18 84bc 2eca d1bd f5a1 843e
00000150: 85ed 493e b194 a93d e898 0bbe 331c 25bc
00000160: c9dc 5b3c dff4 38bd 9624 723d ceca a8bd
00000170: 2347 e33d 31f6 793e cb69 75be ab6c 18be
00000180: 25c4 723e ce12 203e 136b 163e 7d47 1fbd
00000190: e9b6 3e3e cb0c 4bbe 2e66 ab3d 2ae9 02be
000001a0: 44a3 2fbe 079e c5bd 975e 78be 0aee 82be
000001b0: b5d1 043c 7c56 05be 2f58 c6bc a0ee 2a3d
000001c0: b784 ebbd 4dc0 bf3c f8e6 73bd be72 a03d
000001d0: 5514 c3bd 7be8 383e d55d 8abd a08b 043d
000001e0: 30dc dabc f835 40bd ce49 9d3a 7f9b 91be
000001f0: fb0d c93d 281f 833e b206 6fbe 9e81 6f3d
00000200: 5029 8c3c 192b 0dbe 15a8 f9bd f475 d13c
00000210: 327d fdbd 5bbe a73c 1f93 43be 3463 fbbb
00000220: a98b 0f3d 76e2 c6bd 92ac dc3c 8d60 c83d
00000230: 1a06 b13d 7e0c 82bd 2f80 4cbe dc4f 0c3e
00000240: 6e85 dfbd a4fe 85bb 9431 bdbd ca3f 9d3e
00000250: c3a9 9c3e 9727 26be 846b 2bbe 5d12 873d
00000260: 6a1d 8c3d bcc1 df3d 9b3d 5ebd 2d44 96bd
00000270: 1375 80bc 04ec 4ebe cdd1 36be 40a0 113d
00000280: cc4a 2a3a fff6 eb3b 2ff8 4e3e a046 fd3d
00000290: fa58 cebd 36c7 883e df84 eabd f605 5a3d
000002a0: 3cff afbd 4bc0 9c3d 8d18 b93d 93a6 76bd
000002b0: 6281 6639 f353 aabc 879f b43c 707f adbd
000002c0: 14c9 79bd 105c 6cbd a752 063d 78f1 133c
000002d0: 20c3 fb3d 26fe 463b d401 333e f06c ec3d
000002e0: 897c 3bbd dd39 d03d 039e b33d 34ac 06be
000002f0: 3e38 c4bd 555c 5dbd 15ba 8e3c df82 a33c
00000300: 5138 0c3e 4265 4dbb c6bd f1bd 4e07 3dbd
00000310: 527f 8abd 329a b13c 37fc 7b3c 975d 5a3e
00000320: d069 3a3e e86a ed3c 51fc 8e3c 4cd6 82bd
00000330: 778d 56bd f734 603d fab3 3bbd a685 c73d
00000340: 5663 5cbe 0acd 20be 0445 f53d 4610 75bd
00000350: 80c8 68bd 5c39 d9bc 6f3d 9cbd 1b0f 27be
00000360: f5f1 e23b 9790 18be 78d6 52be d60c c2bd
00000370: c78d b9bd e455 e8bc 06da e73d 7bfa 6fbe
00000380: b079 563e 2ab5 8fbd 1bcd 913d 629a 2239
00000390: baf0 173d b274 bb3c 7e43 293d d3cb 5cbd
000003a0: 7d54 3b3e dbbc dc3d c6a4 b33d 3af0 2bbd
000003b0: da06 14bd 17a6 39be 754d 123e 8ba5 c63d
000003c0: 342c 37bd 2c8a 8f3d ae3c 4fbd 6364 103e
000003d0: 42ac 49be 5bfe 103e 1949 f5bd 824e 13be
000003e0: 01b3 db3d b2a7 ddbc 00ea 46bd a23b d33d
000003f0: 9336 7f3c 2fb0 29be b501 f23d 7368 393d

graph_embed_generation.fc_metadata.weight f4 [32, 10]
-0.03442868 0.060348094 -0.017832965 -0.16684753 0.15215749 -0.22149964 -0.05256031 -0.13235036
-0.32860425 0.021165099 -0.20235646 0.046724334 0.18943177 -0.068398006 0.57459724 -0.5660366
0.2761935 0.16318694 -0.21971592 0.4260245 0.072836444 0.20474935 0.12610301 -0.31477985
-0.3504173 -0.43865594 0.01476317 0.009558561 -0.061211593 -0.31727654 0.031404257 -0.18413208
0.18195619 0.06787454 -0.2875714 0.031429373 -0.3142708 0.15919615 -0.12560229 0.012260434
0.10359105 0.2287511 0.12820815 -0.22662449 0.031956017 0.4140779 0.5155428 0.14455369
-0.06114878 -0.5744922 -0.3110446 -0.13428304 0.0027844761 -0.45542055 -0.121589564 0.20842853
0.124323726 -0.3201261 -0.053447064 0.07679262 -0.12805039 -0.17967945 -0.08315741 -0.21350423
0.36339286 -0.049915683 0.077161536 0.16220173 -0.11698057 -0.20936911 0.24070355 -0.45165527
-0.23274799 0.19232087 0.23267682 -0.27722403 0.06672858 0.19430164 0.08257255 -0.26415262
0.01655268 -0.20068023 0.15039948 0.021886162 -0.11545025 0.020427203 -0.07170153 0.35525244
-0.6178698 -0.265241 0.04045582 -0.103458405 0.26421836 -0.12997907 0.34981048 0.07403331
0.15850176 0.07466194 0.0041142143 -0.27024263 0.16924879 -0.3076791 0.335841 0.09017408
0.34841314 -0.08071684 -0.10447226 0.16461496 0.52068174 0.121673755 -0.4000142 -0.041333653
0.6005816 -0.0037389172 -0.107731335 -0.1743191 0.117825925 0.13536505 -0.10960091 -0.14142102
-0.41773084 -0.33718538 -0.54738504 0.24458653 0.058637176 -0.23912396 -0.18992205 0.28814527
-0.25329712 -0.3971821 -0.20461926 0.20630075 -0.17261866 0.34337658 0.10670407 -0.036820125
0.3239915 0.20000133 0.086919695 0.0675665 0.049476467 0.41820082 -0.18096738 0.5284561
-0.13547188 0.07488143 0.26994526 0.53832513 -0.09662292 0.32622886 -0.2737786 0.22666626
-0.2877415 0.16581763 0.24002668 0.49070576 0.13744126 -0.18108529 -0.34005108 0.18986925
-0.3337569 0.2605856 0.09515907 -0.34897682 -0.014417363 0.0016422747 -0.099126615 0.58483714
-0.14016244 -0.067004666 -0.36531508 -0.27410284 0.027398419 0.1180934 -0.05095372 0.14250723
0.05461067 0.05046319 0.19509302 0.14159076 0.050296467 0.5624999 -0.32616606 -0.12629837
0.10288491 -0.4039217 -0.11563134 -0.12496393 -0.071061574 -0.24432771 -0.48602748 -0.18184635
-0.17496307 -0.05794131 -0.24017619 0.26711294 0.33118096 0.0683241 0.09803043 0.04660398
0.5133589 0.1658218 0.1380457 0.0883914 -0.10621774 -0.03181864 0.08794029 0.057513308
-0.35665792 0.1337056 -0.08568289 0.13739966 0.2226831 0.48592782 0.026611151 0.24647045
-0.0005557129 -0.036614735 0.14609419 -0.6769951 -0.050377272 0.03387779 -0.3675698 -0.34368125
-0.027060436 -0.16830996 0.45379218 -0.02267605 0.12660542 0.041698687 -0.01872644 -0.01872411
-0.08852864 -0.27711457 -0.04460981 0.068758816 0.20451753 0.20114328 0.29956117 -0.108959466
-0.07973692 0.02963577 0.10637609 0.025896437 -0.10233912 -0.23962826 0.08933393 0.2540357
0.4979138 -0.041896284 -0.105280764 0.0013965641 0.13454439 0.039237883 0.24826781 0.31314063
00000000: 1605 0dbd 902f 773d 7016 92bc 14da 2abe
00000010: 2ccf 1b3e cdd0 62be 7b49 57bd da86 07be
00000020: d13e a8be 6e62 ad3c 8836 4fbe 0462 3f3d
00000030: 67fa 413e 4114 8cbd ce18 133f c6e7 10bf
00000040: 3c69 8d3e 7a1a 273e 36fd 60be e21f da3e
00000050: 462b 953d d0a9 513e 2621 013e d32a a1be
00000060: e569 b3be 8397 e0be 39e1 713c 839b 1c3c
00000070: 02b9 7abd 1272 a2be c0a1 003d 1f8d 3cbe
00000080: b952 3a3e cf01 8b3d 8f3c 93be 16bc 003d
00000090: 1ae8 a0be 5104 233e e39d 00be fddf 483c
000000a0: 8b27 d43d ba3d 6a3e ff48 033e 4010 68be
000000b0: 50e4 023d 0502 d43e 9dfa 033f e205 143e
000000c0: 2577 7abd ec11 13bf 3d41 9fbe 7e81 09be
000000d0: c27b 363b e22c e9be f303 f9bd 4a6e 553e
000000e0: 709d fe3d 91e7 a3be 4feb 5abd 7345 9d3d
000000f0: a41f 03be e4fd 37be 6f4e aabd daa0 5abe
00000100: a10e ba3e 6374 4cbd de06 9e3d 3618 263e
00000110: 8293 efbd db64 56be fe7a 763e 5c3f e7be
00000120: 7d55 6ebe c3ef 443e d542 6e3e 4ff0 8dbe
00000130: fea8 883d 02f7 463e cc1b a93d 033f 87be
00000140: 7c99 873c 1e7f 4dbe 5202 1a3e 9c4a b33c
00000150: 2e71 ecbd f356 a73c 40d8 92bd a6e3 b53e
00000160: b72c 1ebf abcd 87be 00b5 253d 00e2 d3bd
00000170: a147 873e 3c19 05be 5c1a b33e c79e 973d
00000180: 494e 223e 5ce8 983d 88d0 863b 3e5d 8abe
00000190: 8e4f 2d3e 1d88 9dbe 5af3 ab3e 30ad b83d
000001a0: 3563 b23e df4e a5bd 8df5 d5bd d390 283e
000001b0: 664b 053f 1730 f93d a9ce ccbe 7a4d 29bd
000001c0: b7bf 193f 9f08 75bb 3fa2 dcbd b580 32be
000001d0: b84e f13d 239d 0a3e 7176 e0bd acd0 10be
000001e0: d1e0 d5be 90a3 acbe 6d21 0cbf e474 7a3e
000001f0: 892d 703d e9dc 74be ed7a 42be c787 933e
00000200: 29b0 81be 745b cbbe b687 51be 8140 533e
00000210: f2c2 30be 0ecf af3e aa87 da3d b3d0 16bd
00000220: 37e2 a53e 26cd 4c3e f402 b23d 4e60 8a3d
00000230: d6a7 4a3d 6b1e d63e 834f 39be e648 073f
00000240: 24b9 0abe 6f5b 993d 4436 8a3e adcf 093f
00000250: 3de2 c5bd 7807 a73e b52c 8cbe 331b 683e
00000260: db52 93be 19cc 293e 8ec9 753e c93d fb3e
00000270: 67bd 0c3e 6c6e 39be 2d1b aebe 166d 423e
00000280: 2fe2 aabe 7a6b 853e c2e2 c23d 17ad b2be
00000290: ce36 6cbc 9841 d73a e502 cbbd e3b7 153f
000002a0: be86 0fbe be39 89bd 940a bbbe 3557 8cbe
000002b0: a672 e03c f4da f13d d9b4 50bd 6aed 113e
000002c0: 70af 5f3d 7db2 4e3d 77c6 473e 2bfd 103e
000002d0: ab03 4e3d feff 0f3f 3dff a6be 5c54 01be
000002e0: 53b5 d23d d3ce cebe 20d0 ecbd 17ed ffbd
000002f0: bb88 91bd 0b31 7abe 98d8 f8be ee35 3abe
00000300: 8529 33be de53 6dbd bff0 75be 07c3 883e
00000310: 8d90 a93e 81ed 8b3d 2ec4 c83d d1e3 3e3d
00000320: 7d6b 033f 31cd 293e da5b 0d3e 8d06 b53d
00000330: b088 d9bd 4354 02bd 0a1a b43d 1393 6b3d
00000340: de9b b6be 1fea 083e 837a afbd 7fb2 0c3e
00000350: 0a07 643e 88cb f83e a1ff d93c c062 7c3e
00000360: 43ad 11ba 55f9 15bd b799 153e 8d4f 2dbf
00000370: 6658 4ebd 70c3 0a3d 1c32 bcbe fdf6 afbe
00000380: d9ad ddbc 7259 2cbe 7357 e83e 20c3 b9bc
00000390: daa4 013e 3ecc 2a3d 3168 99bc 4e63 99bc
000003a0: 814e b5bd f6e1 8dbe c7b8 36bd 6cd1 8c3d
000003b0: 0b6d 513e 81f8 4d3e 1560 993e 2426 dfbd
000003c0: 1c4d a3bd b7c6 f23c b5db d93d c424 d43c
000003d0: 2c97 d1bd 1c61 75be b5f4 b63d f810 823e
000003e0: 8fee fe3e 709b 2bbd 719d d7bd ea0c b73a
000003f0: 01c6 093e e7b7 203d eb39 7e3e f853 a03e

graph_embed_generation.fc_metadata.bias f4 [32]
-0.1994546 0.19712186 0.08739608 -0.10775278 -0.092920974 0.29401398 0.0833683 -0.22989616
-0.06719717 -0.2315687 -0.00656745 -0.14019679 0.08202233 0.07853997 -0.25664973 0.1487123
0.24328458 -0.0016847521 -0.12923965 0.14120533 0.26541907 -0.06205085 0.2602317 -0.037143745
-0.17337307 0.18671562 0.19148836 -0.24473427 0.05131045 0.14781788 0.0070772474 -0.20756494
00000000: d43d 4cbe 50da 493e b7fc b23d 7dad dcbd
00000010: 5a4d bebd 0089 963e 00bd aa3d e669 6bbe
00000020: ab9e 89bd 5820 6dbe c333 d7bb bf8f 0fbe
00000030: 53fb a73d 90d9 a03d 9867 83be 0a48 183e
00000040: 981f 793e e6d2 dcba 6657 04be 2198 103e
00000050: 02e5 873e 0829 7ebd 173d 853e 0a24 18bd
00000060: b688 31be 6132 3f3e 8615 443e 9f9b 7abe
00000070: e82a 523d 925d 173e 41e8 e73b e78b 54be

graph_embed_generation.mlp.0.weight f4 [32, 96]
0.08683747 -0.0738427 -0.2455953 -0.06650354 -0.07065521 -0.02879343 -0.15876552 -0.015918046
0.022944825 -0.37247747 -0.1526767 0.019235518 -0.0033083917 0.24622965 -0.06473972 0.00811157
0.025148883 0.025811838 0.061010044 -0.14031152 0.5101691 -0.06505867 0.065954894 0.29968047
0.1783568 -0.0025425002 0.1564407 0.15688378 0.056043983 -0.034373708 -0.05237093 0.04058503
0.016292512 -0.051106047 0.08352652 -0.19601317 -0.088418186 -0.19873224 -0.04163079 0.07061724
0.054294135 -0.1740906 0.057230935 -0.01727771 0.084455416 0.07082324 -0.120354675 -0.0877259
-0.09712514 0.07622407 -0.102159925 0.0056293113 -0.114109196 -0.04603323 0.040523216 -0.010261309
-0.32912514 -0.2796975 0.22315055 0.15984853 -0.26691958 -0.085909784 0.17857118 -0.042333614
0.05251658 0.22697055 -0.09910053 0.09578436 0.0921359 -0.01253431 0.22906671 -0.14434026
0.0018572765 -0.22460064 -0.11588859 0.11771228 -0.14179216 0.025318062 -0.095406 -0.0045400853
-0.19900854 -0.087910384 -0.06125596 0.07543546 0.06307626 0.43327588 -0.050291225 0.2107091
-0.07833177 0.23135492 -0.035118196 -0.092191 0.053342137 -0.13531086 -0.24778287 0.16901127
-0.015647277 0.101800375 0.1173567 -0.16704395 0.024988612 0.06873149 -0.023011142 -0.22349334
-0.14079224 0.030600153 0.19695538 -0.125554 -0.027023869 0.1720595 -0.06971674 -0.02298369
-0.09108024 -0.34994823 -0.2839959 0.20419048 0.12038177 0.108015016 -0.13458925 -0.15225446
0.06326384 -0.18970571 0.17235675 0.21912016 -0.11482795 0.021102794 -0.14850922 0.019375954
-0.03573119 0.18562098 -0.06675718 0.053971887 0.18732798 0.09423887 -0.0759282 -0.21275437
0.05299185 -0.11547699 -0.15810063 0.081062816 -0.2402934 0.07678224 -0.14813511 -0.10622265
0.047998212 -0.030251464 -0.007442803 -0.27518058 0.27838802 -0.18905927 -0.12650788 0.13863742
-0.11853989 0.008381226 0.20238854 -0.03961626 0.12200447 -0.2991277 -0.08418861 0.024245799
-0.24183428 -0.1528487 -0.089777686 -0.2534559 -0.06809535 -0.11279525 -0.04156823 -0.0881333
0.20601368 0.20185812 0.17000781 0.014072017 -0.10022837 0.03880384 -0.15067753 -0.19064851
-0.157988 0.106477894 -0.05058092 0.058239426 -0.09323433 0.12144583 -0.20481028 0.06254591
0.077103384 0.051487952 -0.1739246 0.2186678 0.13856408 0.12348711 0.12513046 0.06575114
-0.12156026 0.10882667 -0.040019024 -0.18564856 0.115434244 -0.007916572 0.18063629 -0.15989198
0.10887863 0.07235212 -0.27234077 0.0029822974 -0.01661076 0.20021054 -0.11023956 -0.02353372
0.09124475 0.11483742 -0.02006797 -0.06903607 -0.038328312 0.13735056 -0.28735194 -0.11068828
-0.15713635 -0.011911506 0.25207728 -0.32000124 0.11623321 0.17853943 -0.089772634 0.2222729
0.124434814 -0.13483384 0.025752898 -0.16270627 0.08609993 0.11139201 0.17052045 -0.1532
-0.060402464 -0.2835886 -0.18965086 -0.3661801 -0.07975565 -0.18597105 -0.10404853 0.07712211
-0.20959458 0.12916964 0.10903658 0.08414872 0.12073115 0.3004519 0.026265128 0.14200217
-0.110003635 -0.21967614 0.13441963 0.09138713 -0.06904718 0.037587345 -0.014125267 0.07845413
00000000: d8d7 b13d d73a 97bd 567d 7bbe 0233 88bd
00000010: aeb3 90bd 33e0 ebbc 6e93 22be 9066 82bc
00000020: c9f6 bb3c 5eb5 bebe 4857 1cbe ce93 9d3c
00000030: 9ad1 58bb a023 7c3e 4296 84bd 64e6 043c
00000040: 0805 ce3c 5973 d33c abe5 793d d3ad 0fbe
00000050: 719a 023f 7b3d 85bd 5c13 873d b86f 993e
00000060: 2aa3 363e 13a0 26bb fe31 203e 24a6 203e
00000070: 608e 653d 72cb 0cbd e682 56bd 7d3c 263d
00000080: e077 853c 9354 51bd f40f ab3d adb7 48be
00000090: 9814 b5bd 7780 4bbe 0c85 2abd c69f 903d
000000a0: 8763 5e3d ce44 32be fc6a 6a3d fc89 8dbc
000000b0: f6f6 ac3d c60b 913d 837c f6bd a3a9 b3bd
000000c0: 8ce9 c6bd 5d1b 9c3d 3939 d1bd 1676 b83b
000000d0: 15b2 e9bd 578d 3cbd acfb 253d 0d1f 28bc
000000e0: 1783 a8be 8334 8fbe 9481 643e 55af 233e
000000f0: afa9 88be 78f1 afbd 5ddb 363e 0366 2dbd
00000100: a01b 573d f86a 683e 38f5 cabd 972a c43d
00000110: bfb1 bc3d b55c 4dbc 7790 6a3e efcd 13be
00000120: dc6f f33a b6fd 65be ff56 edbd 2313 f13d
00000130: f731 11be d367 cf3c 3964 c3bd ffc4 94bb
00000140: e5c8 4bbe 5c0a b4bd 88e7 7abd e87d 9a3d
00000150: 202e 813d 56d6 dd3e 2cfe 4dbd 20c4 573e
00000160: 686c a0bd 4ee8 6c3e 19d8 0fbd a3ce bcbd
00000170: 497d 5a3d ee8e 0abe cbba 7dbe 4a11 2d3e
00000180: b82e 80bc b77c d03d b658 f03d 920d 2bbe
00000190: ebb4 cc3c 18c3 8c3d dd81 bcbc 70db 64be
000001a0: d72b 10be 2cad fa3c acae 493e 3a91 00be
000001b0: 2961 ddbc 5e30 303e a6c7 8ebd 4b48 bcbc
000001c0: 4788 babd 6a2c b3be e967 91be 4f17 513e
000001d0: b88a f63d fa36 dd3d c4d1 09be 98e8 1bbe
000001e0: 7990 813d 3742 42be 4a7e 303e 0961 603e
000001f0: eb2a ebbd c4df ac3c cd12 18be 52ba 9e3c
00000200: de5a 12bd 6d13 3e3e fdb7 88bd a011 5d3d
00000210: e8d2 3f3e 4f00 c13d 3e80 9bbd 48dc 59be
00000220: fb0d 593d 337f ecbd 22e5 21be 4304 a63d
00000230: 790f 76be 0240 9d3d bbb0 17be 438b d9bd
00000240: c699 443d ebd1 f7bc c2e2 f3bb 78e4 8cbe
00000250: e088 8e3e c198 41be 488b 01be f8f6 0d3e
00000260: 0bc5 f2bd 6951 093c f13e 4f3e a944 22bd
00000270: 7bdd f93d 4427 99be 146b acbd 209f c63c
00000280: 68a3 77be 5f84 1cbe 5ddd b7bd f9c4 81be
00000290: 9375 8bbd 3201 e7bd 7343 2abd 3b7f b4bd
000002a0: 40f5 523e e5b3 4e3e 8716 2e3e 518e 663c
000002b0: 8844 cdbd c6f0 1e3d 364b 1abe 5d39 43be
000002c0: 9bc7 21be 1511 da3d f02d 4fbd 778c 6e3d
000002d0: a4f1 bebd 97b8 f83d c9b9 51be 1218 803d
000002e0: 61e8 9d3d 08e5 523d 4a19 32be 74ea 5f3e
000002f0: bee3 0d3e cfe6 fc3d 3322 003e 89a8 863d
00000300: 96f4 f8bd 84e0 de3d fdea 23bd a81a 3ebe
00000310: ca68 ec3d 82b4 01bc b8f8 383e b9ba 23be
00000320: c2fb de3d 592d 943d 4070 8bbe a672 433b
00000330: 4a13 88bc fe03 4d3e 47c5 e1bd cac9 c0bc
00000340: 87de ba3d e22f eb3d 9565 a4bc c862 8dbd
00000350: 26fe 1cbd a0a5 0c3e cb1f 93be 89b0 e2bd
00000360: 5ae8 20be 7a28 43bc 4610 813e 34d7 a3be
00000370: ad0b ee3d 0ad3 363e b7da b7bd 829b 633e
00000380: aed7 fe3d e211 0abe bef7 d23c 799c 26be
00000390: 2955 b03d 7e21 e43d ea9c 2e3e 76e0 1cbe
000003a0: 9368 77bd 8632 91be d633 42be f57b bbbe
000003b0: ee56 a3bd 326f 3ebe 6517 d5bd 32f2 9d3d
000003c0: f69f 56be 0c45 043e 924e df3d 2a56 ac3d
000003d0: e541 f73d d5d4 993e f729 d73c 0469 113e
000003e0: 9649 e1bd c8f2 60be 4da5 093e 2d29 bb3d
000003f0: 9c68 8dbd 30f5 193d aa6d 67bc 8fac a03d

graph_embed_generation.mlp.0.bias f4 [32]
0.0020907142 -0.044064187 0.043404426 -0.09818401 -0.052678518 0.00030381847 -0.061414503 -0.010034957
-0.09285473 -0.008766146 0.040125273 -0.11523675 -0.06707645 -0.015469673 -0.06408966 0.01787284
-0.07480044 0.08940132 -0.08662616 -0.019218976 0.08267312 -0.011358222 0.08561577 0.0124391345
-0.06014104 -0.025553502 -0.017478134 -0.01670622 0.05618643 0.11101901 0.024266321 0.017250737
00000000: 5d04 093b a67c 34bd d7c8 313d b314 c9bd
00000010: 6ec5 57bd d349 9f39 c68d 7bbd a969 24bc
00000020: 9f2a bebd e29f 0fbc 665a 243d 3f01 ecbd
00000030: 615f 89bd 8374 7dbc 7141 83bd 106a 923c
00000040: f930 99bd 0a18 b73d 0e69 b1bd 1d71 9dbc
00000050: 8650 a93d d617 3abc 5257 af3d 83cd 4b3c
00000060: 7356 76bd 9455 d1bc 4e2e 8fbc 7cdb 88bc
00000070: be23 663d ef5d e33d 2aca c63c 6b51 8d3c

graph_embed_generation.mlp.1.weight f4 [32, 32]
0.27488473 0.2628275 0.5052201 0.220518 -0.1446894 0.11687826 -0.53328097 -0.35867524
-0.13412294 0.2362661 -0.31561208 0.14168638 -0.23697557 0.31930622 0.16622171 0.12677087
0.039553493 -0.22318378 -0.28810796 0.13138244 0.17191915 -0.030012498 -0.052037124 0.2663249
-0.34749842 -0.32830182 0.071076944 -0.29058614 -0.18974668 0.011516767 -0.031124383 0.25211337
0.23512308 -0.14249593 -0.3350274 -0.4288615 -0.069423355 0.31238073 0.33561355 -0.22449543
0.12256848 0.3798582 -0.07197313 -0.060234524 -0.46035528 0.16032144 0.24901661 -0.15918058
0.22080871 -0.15886852 -0.08472318 0.028689498 -0.28079903 -0.42229745 -0.37901324 -0.3812903
-0.08157767 0.034499664 -0.011743147 0.07206808 0.06046143 0.110917196 0.04066235 0.4223942
-0.2794139 -0.07308914 -0.1122443 0.16559392 -0.14571768 0.028062508 0.12063825 -0.083640225
0.29669422 -0.1810251 0.34035242 -0.20129323 -0.08869311 0.5099926 0.2695135 0.18236059
-0.38687772 0.07548928 0.06352454 -0.029485192 0.23479389 0.03653564 -0.19553441 0.049395
-0.120289266 -0.2776606 -0.33900928 0.54349816 -0.37356177 -0.3852959 0.35812077 -0.025482828
0.17764781 -0.38612738 -0.14035684 -0.102989905 -0.014349835 0.1498383 -0.24369486 0.15786631
-0.37956443 0.073499955 -0.45169336 0.53389883 0.10148815 -0.058916572 -0.00039032561 -0.109186426
0.037260998 0.37795708 0.13393955 -0.15733738 -0.21065867 0.22403775 -0.15879773 0.1495616
0.17238025 -0.3102089 -0.31700405 0.15620981 0.20784137 -0.31773305 0.46721998 0.1113092
0.030017843 0.23259553 0.057961755 -0.24266516 0.49959832 -0.1331924 0.22549444 -0.21235734
-0.24682444 -0.114059865 -0.06439726 -0.592715 -0.31780258 -0.20313233 -0.2399052 0.3824496
0.17381708 0.5859413 -0.194474 -0.15479465 -0.02390104 0.15876307 -0.09741159 0.11069186
-0.37062994 -0.16150664 -0.25362873 -0.16536278 0.042289257 -0.17410968 0.0962317 -0.1107851
0.11298569 0.12646358 0.40782607 -0.018318957 0.05852443 -0.2857713 0.07721431 0.16089408
-0.104006894 -0.19292584 0.096680515 0.24445729 0.030633794 0.06453004 0.086547144 -0.11204598
0.50277704 0.027529191 0.13432983 0.13944057 0.057343498 -0.7266697 -0.35113788 0.2504613
-0.058584105 0.2473388 0.1049243 0.15704238 -0.09848784 -0.11435859 0.39321437 -0.3951999
-0.027243635 0.023296285 0.20285879 -0.04599998 -0.19272314 -0.04097768 0.13319682 0.009928174
0.084729575 -0.15604885 -0.0562055 0.1358696 -0.038744144 0.20310868 0.14509788 -0.34878123
0.27930906 -0.005367456 -0.16122045 -0.48674494 0.14643663 0.18272936 0.49358618 0.03683598
-0.5931501 0.48342475 -0.20140208 0.17934208 0.32624918 -0.15753272 -0.023698231 0.3382185
0.14716844 0.34527352 -0.07268096 0.70477134 0.14193319 0.04601887 0.011820579 -0.16778763
-0.23064679 0.07466535 -0.19289133 -0.334369 0.24001811 -0.005897479 0.0055978256 0.05377671
-0.06620845 -0.093849085 -0.25047153 -0.12826946 -0.5382396 -0.12307049 -0.038979817 -0.022372518
0.18739401 0.17710565 0.13239303 0.72754854 0.28463575 0.08887844 0.12215999 0.05834156
00000000: b1bd 8c3e 5391 863e 1b56 013f 78cf 613e
00000010: 7529 14be df5d ef3d 1a85 08bf 48a4 b7be
00000020: 8657 09be beef 713e e897 a1be 3c16 113e
00000030: b9a9 72be 1b7c a33e 0636 2a3e 39d0 013e
00000040: d802 223d 4a8a 64be e382 93be 1e89 063e
00000050: 930b 303e c5dc f5bc e124 55bd bd5b 883e
00000060: 50eb b1be 2d17 a8be ca90 913d b5c7 94be
00000070: f44c 42be d2b0 3c3c 90f8 febc 0115 813e
00000080: 1bc4 703e 74ea 11be b688 abbe bc93 dbbe
00000090: d52d 8ebd 5ef0 9f3e 8ad5 ab3e 21e2 65be
000000a0: 2f05 fb3d c67c c23e a666 93bd 7ab8 76bd
000000b0: b0b3 ebbe 4e2b 243e 36fe 7e3e 3c00 23be
000000c0: ae1b 623e 6eae 22be 5983 adbd 3d06 eb3c
000000d0: e4c4 8fbe 5f37 d8be 060e c2be 7b38 c3be
000000e0: 3212 a7bd 854f 0d3d 5466 40bc 6e98 933d
000000f0: 68a6 773d 8e28 e33d 908d 263d 0d44 d83e
00000100: 570f 8fbe c2af 95bd 57e0 e5bd 7491 293e
00000110: 0437 15be 58e3 e53c 3011 f73d 914b abbd
00000120: 4ee8 973e a55e 39be ac42 ae3e d01f 4ebe
00000130: bca4 b5bd e08e 023f acfd 893e bcbc 3a3e
00000140: d614 c6be 209a 9a3d 2719 823d ee8a f1bc
00000150: cf6d 703e 65a6 153d 2c3a 48be 6952 4a3d
00000160: 385a f6bd 8829 8ebe a092 adbe b222 0b3f
00000170: 7d43 bfbe 8145 c5be 9b5b b73e 5dc1 d0bc
00000180: 4fe9 353e 7db2 c5be b4b9 0fbe 5fec d2bd
00000190: 921b 6bbc 366f 193e 258b 79be b5a7 213e
000001a0: 4556 c2be 2587 963d 5a44 e7be 98ad 083f
000001b0: 05d9 cf3d 8152 71bd 9ea4 ccb9 229d dfbd
000001c0: fd9e 183d 9783 c13e 7327 093e 0d1d 21be
000001d0: e8b6 57be 276a 653e df9b 22be ad26 193e
000001e0: 7384 303e b3d3 9ebe 5b4e a2be 77f5 1f3e
000001f0: 5ed4 543e e8ad a2be 7537 ef3e 14f6 e33d
00000200: fbe7 f53c 862d 6e3e 4e69 6d3d 377d 78be
00000210: 5acb ff3e 9763 08be 04e8 663e 3474 59be
00000220: 8cbf 7cbe 3898 e9bd b6e2 83bd 2cbc 17bf
00000230: 05b7 a2be ec01 50be b5a9 75be 6fd0 c33e
00000240: 1bfd 313e 4000 163f 3124 47be 7d82 1ebe
00000250: 1dcc c3bc c992 223e ba7f c7bd 6ab2 e23d
00000260: 35c3 bdbe ff61 25be a0db 81be dc54 29be
00000270: 8037 2d3d cf49 32be 2015 c53d 4ce3 e2bd
00000280: 0b65 e73d ab7f 013e 94ce d03e a311 96bc
00000290: 50b7 6f3d 9e50 92be 8922 9e3d 6bc1 243e
000002a0: 9101 d5bd 5a8e 45be 6f00 c63d 0353 7a3e
000002b0: b9f3 fa3c 5328 843d a13f b13d 5d78 e5bd
000002c0: ffb5 003f e684 e13c c28d 093e 82c9 0e3e
000002d0: 04e1 6a3d 0707 3abf 58c8 b3be 773c 803e
000002e0: e3f5 6fbd 6246 7d3e 8de2 d63d b8cf 203e
000002f0: feb3 c9bd d634 eabd 6553 c93e a457 cabe
00000300: 0b2e dfbc dad7 be3c 37ba 4f3e 7a6a 3cbd
00000310: 3759 45be 36d8 27bd bf64 083e c8a9 223c
00000320: b386 ad3d 45cb 1fbe bd37 66bd 6721 0b3e
00000330: 2eb2 1ebd b9fb 4f3e 8a94 143e 7493 b2be
00000340: 9901 8f3e 7ce1 afbb f916 25be a236 f9be
00000350: 7cf3 153e 681d 3b3e 54b7 fc3e 53e1 163d
00000360: afd8 17bf 7383 f73e 593c 4ebe 73a5 373e
00000370: 220a a73e 4250 21be cb22 c2bc fa2a ad3e
00000380: 53b3 163e b1c7 b03e c1d9 94bd e56b 343f
00000390: ef56 113e 487e 3c3d 1aab 413c 85d0 2bbe
000003a0: ac2e 6cbe 26ea 983d 4e85 45be 6a32 abbe
000003b0: 4fc7 753e a43f c1bb f76d b73b f844 5c3d
000003c0: 4c98 87bd f333 c0bd ce3d 80be 1259 03be
000003d0: 12ca 09bf 620c fcbd 4da9 1fbd 9246 b7bc
000003e0: 37e4 3f3e 2f5b 353e 0a92 073e 9f40 3a3f
000003f0: c7bb 913e e605 b63d 042f fa3d 8ff7 6e3d

graph_embed_generation.mlp.1.bias f4 [32]
-0.1269771 -0.011874059 -0.040527787 -0.119846396 0.08773826 -0.06366154 0.12511922 -0.07092946
0.1688813 0.030743415 -0.12044572 -0.09916098 -0.0017169379 -0.13970493 0.1468115 0.10206989
-0.04720777 0.005992501 -0.18220277 0.047266882 0.035433426 -0.07842926 0.15496245 -0.010736568
0.12932315 0.15381396 -0.16292244 0.0955069 -0.09861775 -0.11760869 -0.15239342 -0.09463808
00000000: 4906 02be 6a8b 42bc 7700 26bd 0772 f5bd
00000010: 1eb0 b33d fb60 82bd 411f 003e 7743 91bd
00000020: 38ef 2c3e 9dd9 fb3c 3fac f6bd e914 cbbd
00000030: e00a e1ba cf0e 0fbe c155 163e 050a d13d
00000040: ef5c 41bd be5c c43b 5d93 3abe eb9a 413d
00000050: a422 113d 859f a0bd 7aae 1e3e 6ee8 2fbc
00000060: 4a6d 043e 6881 1d3e 24d5 26be 1f99 c33d
00000070: 1af8 c9bd d3dc f0bd 050d 1cbe 9cd1 c1bd
