results/checkpoints/mapzero_ONE_HOP_8x8.pth (torch, 64304 bytes, 25 tensors)

graph_embed_generation.gat_dfg.att_src f4 [1, 4, 32]
-0.32506987 0.08133523 -0.03141709 -0.14507915 -0.0074740318 0.037425887 -0.25826696 0.1504742
-0.023933914 0.16388126 -0.14176059 -0.19863728 0.010241356 -0.031609174 0.08109842 -0.185323
0.16577348 -0.04218675 0.23374929 0.10395649 0.40249723 0.10319556 -0.03344132 0.020784184
0.17199837 -0.06674504 -0.20658073 -0.14458832 -0.14212465 -0.31404737 -0.19772264 -0.015166143
-0.04625367 0.20001206 -0.00878956 0.027185688 0.12754017 0.13935435 -0.04352693 0.25063315
-0.22240622 -0.07049779 0.2107011 -0.06255336 -0.11747386 0.07278911 0.40514413 -0.1786642
0.17641406 0.14487381 -0.28257588 0.1987107 -0.19366714 0.02314594 0.26575822 -0.020491153
0.0045969873 -0.14227745 -0.337466 0.0888009 0.2082832 -0.1484934 0.05069514 -0.17607331
0.11393464 -0.080154106 0.027199276 0.026923923 0.11102818 0.0479977 0.07137252 -0.18692215
0.0011814316 -0.030390281 -0.065034054 0.10529982 -0.0931638 0.104329035 0.08871185 0.17869818
0.40558082 -0.074284256 0.117611684 -0.06730102 0.07906105 -0.0118929995 0.2218452 0.065447465
-0.030131202 0.10820068 0.11990729 -0.16951534 -0.101565525 -0.0799687 0.112861805 -0.08262634
0.3001347 0.3735474 -0.24432655 -0.08712901 0.093879044 0.09590686 -0.30873746 0.12166736
0.17594372 -0.11422126 -0.03150873 -0.10328752 -0.12699643 -0.048528414 0.041682165 0.032573752
-0.10181552 0.107082404 0.4615165 0.15684472 0.10807287 0.0024042681 -0.2121374 0.024556926
0.015586002 0.015651604 0.10227158 -0.13803221 -0.055662435 -0.2670881 0.35863885 -0.19921263
00000000: 8f6f a6be 1693 a63d 35af 00bd a18f 14be
00000010: b9e8 f4bb e34b 193d 913b 84be e915 1a3e
00000020: 0e11 c4bc 7dd0 273e b029 11be 9267 4bbe
00000030: 5ccb 273c 9f78 01bd ee16 a63d 50c5 3dbe
00000040: 86c0 293e 03cc 2cbd f95b 6f3e 24e7 d43d
00000050: 1e14 ce3e 3258 d33d c4f9 08bd 9843 aa3c
00000060: 5720 303e a0b1 88bd e689 53be f60e 14be
00000070: 2089 11be d1ca a0be ce77 4abe 6a7b 78bc
00000080: 7d74 3dbd f6cf 4c3e 1602 10bc 85b4 de3c
00000090: e499 023e e8b2 0e3e 4b49 32bd fd52 803e
000000a0: 75be 63be 2561 90bd 07c2 573e fa1b 80bd
000000b0: 2396 f0bd 7512 953d 0d6f cf3e bff3 36be
000000c0: e3a5 343e cd59 143e c9ad 90be d17a 4b3e
000000d0: ae50 46be 8e9c bd3c 7611 883e 10dd a7bc
000000e0: 53a2 963b 2eb1 11be 58c8 acbe 3fdd b53d
000000f0: 3148 553e a70e 18be b5a5 4f3d 904c 34be
00000100: 9156 e93d d627 a4bd 04d1 de3c 8f8f dc3c
00000110: be62 e33d 3c99 443d c12b 923d 8568 3fbe
00000120: 44da 9a3a 0af5 f8bc 9330 85bd 6fa7 d73d
00000130: aacc bebd 76aa d53d 8fae b53d a8fc 363e
00000140: 4aa8 cf3e 5822 98bd 65de f03d 1ed5 89bd
00000150: c3ea a13d dbda 42bc 632b 633e 5209 863d
00000160: b6d5 f6bc 5198 dd3d f491 f53d 6e95 2dbe
00000170: 9601 d0bd a1c6 a3bd 1724 e73d 0038 a9bd
00000180: 41ab 993e 9b41 bf3e bd30 7abe b270 b2bd
00000190: a843 c03d d16a c43d d612 9ebe bd2c f93d
000001a0: 972a 343e d6ec e9bd 4c0f 01bd 6888 d3bd
000001b0: 5a0b 02be bbc5 46bd ebba 2a3d 0e6c 053d
000001c0: a884 d0bd 054e db3d e44b ec3e e79b 203e
000001d0: 4f55 dd3d ed90 1d3b 8c3a 59be 9b2b c93c
000001e0: 6e5c 7f3c cb37 803c c373 d13d 5158 0dbe
000001f0: 4bfe 63bd c5bf 88be 839f b73e 65fe 4bbe

graph_embed_generation.gat_dfg.att_dst f4 [1, 4, 32]
0.08447777 0.21643284 -0.07811191 0.089275755 -0.025463803 0.18193439 0.106030345 -0.22120626
0.09076147 0.23835112 0.063399486 -0.19177389 0.041791365 0.15357177 0.13934645 -0.2164548
0.07445608 0.023583453 0.030355405 0.08877186 0.14676765 -0.06594463 -0.09174278 0.11674278
-0.07351752 -0.11504885 -0.20811342 0.032549784 -0.036813304 0.049292557 -0.028446151 0.166965
0.030843532 -0.10943503 0.00875773 0.07840355 -0.18577716 0.2361479 0.043956988 0.18491496
-0.007607597 -0.19681086 -0.09868299 -0.16137844 -0.09432336 0.023299737 0.010822277 0.009731874
-0.073296286 -0.12606125 -0.1743076 0.022186132 0.08309417 0.12230367 0.12182558 -0.019809404
-0.21494055 0.19689508 -0.18866463 0.11601446 -0.25006607 0.04369975 0.101479076 -0.14589575
0.053591125 0.0412483 -0.08388284 -0.027939966 0.122622915 0.05016281 -0.0065272064 0.044561148
-0.0505402 -0.05258781 -0.06697875 -0.11830886 -0.054143306 0.28228113 0.058771644 0.16197105
0.42117015 -0.107870765 -0.33736688 -0.15888073 0.17577776 -0.085673384 0.23554613 -0.11560073
-0.045052186 0.17895411 -0.06826266 -0.26188073 0.23130548 0.14298001 -0.15864752 -0.0883226
0.052156683 -0.03894797 -0.20793106 0.16328153 0.075660974 0.097430505 0.044382863 -0.23726842
-0.023875175 -0.07772004 -0.010241787 -0.10640194 0.11349501 0.16960607 -0.10303666 0.17837422
-0.04856152 -0.28675365 0.14504619 0.0039726463 0.06617096 0.1231341 -0.23842087 0.21692793
0.15746726 0.19263996 0.1297226 -0.056851543 0.253444 -0.018013049 0.051572807 0.018267503
00000000: ae02 ad3d 92a0 5d3e 23f9 9fbd 35d6 b63d
00000010: 7799 d0bc 024d 3a3e 7026 d93d e583 62be
00000020: 26e1 b93d 5112 743e 97d7 813d 6060 44be
00000030: 6c2d 2b3d eb41 1d3e d6b0 0e3e 54a6 5dbe
00000040: 6e7c 983d 1632 c13c e6ab f83c 05ce b53d
00000050: 424a 163e fa0d 87bd a3e3 bbbd d716 ef3d
00000060: 5b90 96bd bb9e ebbd af1b 55be ec52 053d
00000070: 8cc9 16bd fee6 493d e707 e9bc dff8 2a3e
00000080: 93ab fc3c 791f e0bd 957c 0f3c 0a92 a03d
00000090: 5e3c 3ebe c1d0 713e 3e0c 343d 595a 3d3e
000000a0: 2649 f9bb c988 49be 4f1a cabd 6440 25be
000000b0: 9b2c c1bd 17df be3c eb4f 313c 7072 1f3c
000000c0: 5d1c 96bd 3316 01be b17d 32be b1bf b53c
000000d0: 472d aa3d 597a fa3d b17f f93d 5547 a2bc
000000e0: 6019 5cbe dd9e 493e 4d31 41be fd98 ed3d
000000f0: a908 80be 82fe 323d 43d4 cf3d b265 15be
00000100: 5e82 5b3d faf3 283d c4ca abbd 5be2 e4bc
00000110: b921 fb3d 8577 4d3d 2de2 d5bb c085 363d
00000120: 3e03 4fbd 5166 57bd 282c 89bd ea4b f2bd
00000130: 5fc5 5dbd 2787 903e 89ba 703d bddb 253e
00000140: 9da3 d73e 59eb dcbd 5abb acbe a1b1 22be
00000150: 16ff 333e 8775 afbd 0133 713e 13c0 ecbd
00000160: a488 38bd bf3f 373e 4bcd 8bbd 3b15 86be
00000170: 58db 6c3e 5a69 123e 7f74 22be 7be2 b4bd
00000180: 3fa2 553d e887 1fbd e1eb 54be 4633 273e
00000190: 24f4 9a3d a589 c73d ceca 353d 7ef6 72be
000001a0: df95 c3bc af2b 9fbd 2bcd 27bc 43e9 d9bd
000001b0: 1270 e83d 37ad 2d3e e204 d3bd bba7 363e
000001c0: 72e8 46bd 60d1 92be fd86 143e f92c 823b
000001d0: a484 873d bb2d fc3d 9a24 74be 5b22 5e3e
000001e0: 193f 213e 6943 453e 00d6 043e 2add 68bd
000001f0: 69c3 813e 1a90 93bc 023e 533d bba5 953c

graph_embed_generation.gat_dfg.bias f4 [32]
-0.029060053 -0.05351035 -0.009982826 0.048930734 -0.028890157 -0.03434366 0.034066107 0.025663339
-0.0046867263 -0.0030568957 0.026445074 -0.0104565425 0.02403576 0.023184406 -0.037918527 0.024351947
-0.03888962 -0.032836545 -0.0061843465 0.009255765 -0.0047994447 -0.0031309908 -0.013985674 -0.01806718
0.038922008 0.0036862793 0.011582752 0.0018561376 -0.044898655 0.04953976 -0.019351972 -0.045863356
00000000: 590f eebc ab2d 5bbd 028f 23bc 986b 483d
00000010: 0dab ecbc f0ab 0cbd e788 0b3d ec3b d23c
00000020: 1c93 99bb 3356 48bb 57a3 d83c eb51 2bbc
00000030: a4e6 c43c 39ed bd3c 7550 1bbd bc7d c73c
00000040: b94a 1fbd 9d7f 06bd 0fa6 cabb 7ea5 173c
00000050: a944 9dbb 4f31 4dbb 2b24 65bc 9f01 94bc
00000060: af6c 1f3d 8195 713b 95c5 3d3c a549 f33a
00000070: a7e7 37bd 34ea 4a3d 0788 9ebc 37db 3bbd

graph_embed_generation.gat_dfg.lin.weight f4 [128, 10]
-0.20926833 0.23044536 -0.18561494 0.20737666 -0.012881792 -0.28701967 -0.21711615 0.046386164
-0.19884837 0.06196816 -0.02122 0.40595394 0.082605116 -0.0832256 0.035724092 -0.035204027
0.07127807 -0.03406403 -0.33780015 -0.017764905 0.07108312 -0.38525265 0.18316713 -0.11316155
-0.14902976 -0.08797847 0.105872475 0.07714263 0.13105847 0.019226303 -0.08218534 -0.16895786
-0.32602602 -0.049966097 0.12798972 -0.26040426 -0.014081901 0.0029336407 0.05801423 0.015603808
0.10856871 0.098705925 -0.19864139 -0.056086168 -0.06061317 -0.0012122239 0.065348096 -0.07458377
-0.14761741 -0.032115493 0.091543846 0.18903363 -0.17585455 -0.25346142 0.33193362 -0.14119226
0.07625634 -0.0053890655 -0.10798707 -0.11615117 -0.24872325 0.0053862836 0.12738094 0.07700238
0.036837935 -0.09211899 0.049301 0.019564638 0.12470423 0.12260358 0.05940152 -0.27304465
0.07403061 0.18089537 -0.076931275 -0.12961905 -0.037077453 0.09027956 0.29654396 -0.02414261
0.1990505 0.14655672 -0.03350875 -0.14267857 -0.21238354 0.11100944 -0.1522639 -0.110900134
-0.103327096 0.18937592 0.13357055 -0.057563372 0.07770342 -0.25275964 0.19832562 0.1586448
-0.1812176 -0.015907943 0.13361561 -0.020421293 -0.1907466 -0.12794447 0.09744396 -0.01963278
-0.08683418 0.018285593 -0.105351776 -0.14843643 0.23550647 -0.006233997 -0.2606168 -0.037166007
-0.18272763 0.34873956 -0.14327917 -0.1729366 0.066052675 0.009475978 -0.053122688 -0.09703399
-0.14369471 0.07147788 -0.063578516 0.3636915 -0.15856387 0.14099625 -0.0049027274 -0.06346249
0.04876966 0.2063719 -0.027773432 0.20771825 -0.1392454 0.049164627 -0.017641071 -0.067328684
-0.047652803 -0.13151385 -0.19340567 0.17317793 0.08424624 0.14512388 -0.0018853591 -0.12776007
0.0308617 -0.2367684 0.041359536 0.10819906 -0.036301784 0.05524955 -0.1472441 0.047827885
-0.26237458 0.117609076 -0.011631703 0.09263045 -0.025861843 -0.104854025 0.09417246 0.08694281
0.29006708 0.020184008 0.23267502 -0.08970908 0.12951873 -0.052607007 -0.041208293 -0.05302429
-0.124014415 -0.09662267 0.120862626 0.12273421 -0.08286849 -0.024762474 -0.0057912627 -0.038718704
-0.025294008 0.061903972 -0.18741903 0.0040211333 -0.07588273 0.29810208 0.1270476 -0.010955973
0.027449932 -0.07455794 0.08791392 0.086980894 -0.020953065 0.15299885 0.09502912 0.03110434
-0.08283423 0.009409205 -0.029722024 0.4186797 -0.104257785 -0.026203513 0.08178279 -0.12307203
0.122254506 0.19595167 -0.072312236 -0.02191254 -0.038985617 -0.025541915 0.14960787 0.16234528
0.13488646 -0.071955256 0.15969354 0.3164886 0.01608389 -0.10275749 -0.13622795 -0.042259432
0.2351519 -0.070054725 -0.12962516 -0.13023546 -0.0212986 -0.23874672 -0.048430335 0.007136026
-0.12795979 0.06920584 0.18333231 0.17199022 0.16746314 -0.17627597 0.08948749 -0.05022553
-0.082128175 -0.1070031 0.049563438 0.08620336 -0.041403785 0.14197671 0.07816701 0.09479619
0.10762816 0.010894503 0.10217744 -0.010453812 -0.12428744 0.22511591 0.04103953 0.16625924
-0.043608055 -0.038017973 -0.12950432 -0.07342086 0.05205467 -0.13490663 0.07091954 -0.003879229
00000000: 704a 56be def9 6b3e d811 3ebe 8c5a 543e
00000010: 270e 53bc 3ef4 92be b253 5ebe 6bff 3d3d
00000020: e89e 4bbe 53d2 7d3d 91d5 adbc 32d9 cf3e
00000030: df2c a93d 2f72 aabd 6d53 123d 1932 10bd
00000040: 3dfa 913d b986 0bbd 24f4 acbe b587 91bc
00000050: 0794 913d d63f c5be 2a90 3b3e 3ec1 e7bd
00000060: 429b 18be 0e2e b4bd abd3 d83d f5fc 9d3d
00000070: 3134 063e 7b80 9d3c ca50 a8bd 4a03 2dbe
00000080: e2ec a6be 40a9 4cbd bd0f 033e b553 85be
00000090: c6b7 66bc 5342 403b 54a0 6d3d 1da7 7f3c
000000a0: 4659 de3d 5526 ca3d a668 4bbe 9cba 65bd
000000b0: 8445 78bd 7ce3 9eba 39d5 853d 60bf 98bd
000000c0: 0529 17be 898b 03bd 577b bb3d 0892 413e
000000d0: 3713 34be b2c5 81be 34f3 a93e b494 10be
000000e0: 492c 9c3d c296 b0bb 5328 ddbd aae0 edbd
000000f0: 4fb1 7ebe 6c7f b03b 2670 023e 6cb3 9d3d
00000100: 60e3 163d e2a8 bcbd d8ef 493d 0546 a03c
00000110: ee64 ff3d 9617 fb3d 024f 733d 82cc 8bbe
00000120: 5c9d 973d a33c 393e 258e 9dbd dbba 04be
00000130: 87de 17bd 7de4 b83d 9cd4 973e b9c6 c5bc
00000140: e5d3 4b3e f712 163e 7940 09bd 551a 12be
00000150: 127b 59be eb58 e33d 11eb 1bbe 9c1f e3bd
00000160: 289d d3bd c3eb 413e b8c6 083e 92c7 6bbd
00000170: f822 9f3d b669 81be df15 4b3e c873 223e
00000180: 1b91 39be 6051 82bc 88d2 083e 8e4a a7bc
00000190: 1453 43be e003 03be b390 c73d edd4 a0bc
000001a0: 1ed6 b1bd abcb 953c acc2 d7bd b8ff 17be
000001b0: 9c28 713e 8f46 ccbb 916f 85be 623b 18bd
000001c0: f41c 3bbe fe8d b23e c6b7 12be 4b16 31be
000001d0: a046 873d 2241 1b3c 2d97 59bd c2b9 c6bd
000001e0: b524 13be ff62 923d 7435 82bd c635 ba3e
000001f0: 915e 22be 5261 103e 0fa7 a0bb 9ff8 81bd
00000200: b2c2 473d 2853 533e 1c85 e3bc 18b4 543e
00000210: 5996 0ebe d960 493d 0284 90bc 9fe3 89bd
00000220: 962f 43bd 91ab 06be 230c 46be 8e55 313e
00000230: 4b89 ac3d 5b9b 143e 271e f7ba 89d3 02be
00000240: add1 fc3c 6a73 72be 9e68 293d 7897 dd3d
00000250: 2eb1 14bd 5a4d 623d 28c7 16be 2ce7 433d
00000260: f655 86be 07dd f03d e692 3ebc 09b5 bd3d
00000270: 37dc d3bc b5bd d6bd 7edd c03d 120f b23d
00000280: ac83 943e ef58 a53c 5c42 6e3e 65b9 b7bd
00000290: 8fa0 043e 727a 57bd 07ca 28bd ff2f 59bd
000002a0: 45fb fdbd 1be2 c5bd d386 f73d 135c fb3d
000002b0: f4b6 a9bd acda cabc a2c4 bdbb 8197 1ebd
000002c0: 6135 cfbc 058f 7d3d c6ea 3fbe b6c3 833b
000002d0: 6868 9bbd d6a0 983e c418 023e ae80 33bc
000002e0: aede e03c d5b1 98bd 370c b43d 0a23 b23d
000002f0: c3a5 abbc bbab 1c3e a19e c23d 87ce fe3c
00000300: fea4 a9bd 1129 1a3c 9a7b f3bc 305d d63e
00000310: 1b85 d5bd c0a8 d6bc bc7d a73d 300d fcbd
00000320: 9260 fa3d 8ea7 483e 7018 94bd ed81 b3bc
00000330: 62af 1fbd 473d d1bc ce32 193e d73d 263e
00000340: ad1f 0a3e 475d 93bd b486 233e cb0a a23e
00000350: 5dc2 833c 8572 d2bd 577f 0bbe 3a18 2dbd
00000360: a9cb 703e da78 8fbd 75bc 04be 725c 05be
00000370: 677a aebc 057a 74be e35e 46bd 53d5 e93b
00000380: e407 03be cbbb 8d3d 77bb 3b3e 341e 303e
00000390: 757b 2b3e b081 34be 3845 b73d 49b9 4dbd
000003a0: d132 a8bd 7124 dbbd 0803 4b3d 638b b03d
000003b0: 0497 29bd 5862 113e 0616 a03d 8124 c23d
000003c0: 276c dc3d dc7e 323c 6842 d13d 7746 2bbc
000003d0: 6a8a febd c984 663e 1119 283d dd3f 2a3e
000003e0: 5c9e 32bd bcb8 1bbd c89c 04be ad5d 96bd
000003f0: 4737 553d f724 0abe 443e 913d aa3a 7ebb

graph_embed_generation.gat_cgra.att_src f4 [1, 4, 32]
0.09602073 -0.20769452 0.08966537 0.020619566 -0.15553382 0.11590579 0.14117947 -0.044712882
0.101107426 -0.080542564 0.20570467 -0.0785321 0.36330974 -0.012910073 -0.060611386 -0.038932316
-0.12168111 -0.022258768 -0.15848215 0.0959291 0.006552529 0.12064961 -0.010418203 0.15544502
0.14886951 -0.07779845 0.06980112 0.061466724 -0.00028616464 0.14000294 -0.081567325 0.09111013
-0.101871 -0.2765409 -0.08511812 0.19038625 0.0030372094 0.13265863 -0.082772516 0.17100437
-0.12439764 0.089991 -0.039322086 -0.030062383 -0.05203552 0.075245485 0.0316877 0.056209113
-0.045303743 -0.00030527133 0.21280947 0.21790758 0.19410427 -0.08775231 -0.16200486 -0.18007669
-0.32559302 0.11424995 0.041240454 0.04552289 0.008871875 -0.12182387 0.15692468 -0.15566659
0.069015466 -0.047308948 -0.20924808 -0.10584584 -0.15167949 -0.29170936 -0.08585653 0.17446953
0.11852407 0.122850366 0.13327317 -0.06920194 0.049626764 0.07726353 0.002099438 0.01654263
0.2090612 0.14046296 -0.03272886 -0.010311064 0.1389671 -0.047883194 -0.10530498 -0.020073034
0.14467491 -0.03963551 -0.07584039 0.23596999 -0.013848394 0.025927324 -0.0604839 -0.2274088
-0.16948691 0.049282897 -0.22659303 -0.025486818 -0.17835298 0.036826577 0.12543361 -0.04516262
-0.37480286 -0.13650565 0.033669293 -0.107556656 -0.0143698985 0.0069451085 0.10653261 0.06169721
0.09582113 -0.18935254 0.070407376 -0.06017401 0.01484446 -0.098320566 -0.10617724 -0.015623269
0.19088773 0.03489209 -0.0258813 0.11171122 -0.2806993 -0.13362798 0.084203705 -0.21266313
00000000: 84a6 c43d dfad 54be 7aa2 b73d 5dea a83c
00000010: 4244 1fbe 0460 ed3d 5a91 103e db24 37bd
00000020: 6911 cf3d 80f3 a4bd 3fa4 523e 70d5 a0bd
00000030: bc03 ba3e c584 53bc a543 78bd 7e77 1fbd
00000040: f233 f9bd 0558 b6bc 2549 22be 7a76 c43d
00000050: 99b6 d63b 2517 f73d 1cb1 2abc fb2c 1f3e
00000060: 4071 183e cb54 9fbd e4f3 8e3d 88c4 7b3d
00000070: 5e08 96b9 ee5c 0f3e c50c a7bd f397 ba3d
00000080: bea1 d0bd c596 8dbe 6952 aebd 9df4 423e
00000090: eb0b 473b aad7 073e a384 a9bd c51b 2f3e
000000a0: 31c4 febd 344d b83d 3210 21bd 6345 f6bc
000000b0: 3323 55bd 4e1a 9a3d f6ca 013d 873b 663d
000000c0: 6b90 39bd d30c a0b9 baea 593e 2a23 5f3e
000000d0: 45c3 463e 7cb7 b3bd 9ae4 25be 0666 38be
000000e0: 21b4 a6be e1fb e93d c0eb 283d 3676 3a3d
000000f0: 575b 113c cb7e f9bd ddb0 203e 1067 1fbe
00000100: fb57 8d3d 07c7 41bd 2145 56be b4c5 d8bd
00000110: de51 1bbe ee5a 95be 8cd5 afbd 24a8 323e
00000120: bfbc f23d f998 fb3d c378 083e bfb9 8dbd
00000130: 6f45 4b3d 573c 9e3d ba96 093b 6984 873c
00000140: 2414 563e 86d5 0f3e b20e 06bd bdef 28bc
00000150: 644d 0e3e 2b21 44bd 23aa d7bd 3470 a4bc
00000160: a925 143e d858 22bd 3552 9bbd 1ea2 713e
00000170: 60e4 62bc 8a65 d43c f7bd 77bd dadd 68be
00000180: fa8d 2dbe dddc 493d 0108 68be bbc9 d0bc
00000190: 2aa2 36be 77d7 163d ab71 003e 70fc 38bd
000001a0: 29e6 bfbe 23c8 0bbe d0e8 093d aa46 dcbd
000001b0: b96f 6bbc cb93 e33b c52d da3d 37b6 7c3d
000001c0: de3d c43d a2e5 41be be31 903d 0679 76bd
000001d0: 2e36 733c 4b5c c9bd 7473 d9bd bdf8 7fbc
000001e0: 1378 433e 02eb 0e3d 0505 d4bc dac8 e43d
000001f0: d2b7 8fbe c6d5 08be fe72 ac3d 5dc4 59be

graph_embed_generation.gat_cgra.att_dst f4 [1, 4, 32]
-0.09081071 -0.265156 -0.060339212 -0.03227196 0.21487123 0.04224219 -0.18954626 0.036076374
-0.19188435 -0.11406529 0.08696745 -0.12410546 0.4383773 -0.14659207 0.1948725 -0.087383136
-0.038069285 -0.23813017 0.07478565 0.012169103 -0.10193479 -0.015372924 -0.3021897 0.052727625
-0.060198758 0.1024253 0.025362527 -0.1474853 0.16555512 -0.049943823 -0.07101284 0.07677267
-0.087075934 0.0294058 0.077555306 -0.08292712 0.017914616 -0.010908281 -0.07891164 0.19252384
-0.10372793 -0.14999814 0.06972031 0.022384567 -0.12391599 0.15025601 -0.047201924 0.07158988
-0.011707963 -0.23450609 -0.07005955 0.20228378 2.4129875e-05 0.0666489 -0.14576672 -0.1196433
-0.10128549 -0.06896114 0.11949377 0.18098313 0.08770517 0.15474667 -0.018863194 -0.025222588
-0.11471018 0.0730542 -0.006816292 0.07822495 0.378633 0.06823325 0.013200661 0.30674782
0.16532534 0.08134148 -0.012565421 0.049105395 0.15992372 0.1173313 -0.05895635 -0.03501577
-0.18317439 -0.19592805 0.020653741 0.009836105 -0.0630354 -0.03009876 0.051240835 0.09073414
-0.08405404 0.33179328 0.10540737 -0.09788961 0.030907169 -0.24537714 -0.082690574 -0.19320433
-0.0013282899 0.0038196174 0.3659847 -0.074476905 -0.19073609 -0.15699498 -0.013659258 -0.1401398
-0.06937337 0.0663081 0.015323414 -0.04597128 0.2595781 -0.08199539 0.34111425 0.095687635
-0.09329903 -0.16481227 -0.15917048 -0.06932329 0.15439191 0.071922235 0.24937576 0.10048262
0.008919621 -0.24538292 0.042707097 -0.10879937 -0.12321715 0.06496034 -0.08339418 0.055872966
00000000: f7fa b9bd 87c2 87be 4026 77bd 9a2f 04bd
00000010: 3407 5c3e 2606 2d3d 6a18 42be d2c4 133d
00000020: 557d 44be 109b e9bd fe1b b23d 012b febd
00000030: fd72 e03e 3b1c 16be a88c 473e eef5 b2bd
00000040: 8aee 1bbd 65d8 73be 3829 993d eb60 473c
00000050: 30c3 d0bd b7de 7bbc 9cb8 9abe ecf8 573d
00000060: f992 76bd 5bc4 d13d 13c5 cf3c 6306 17be
00000070: 4887 293e e591 4cbd 2e6f 91bd fd3a 9d3d
00000080: de54 b2bd 6fe4 f03c 51d5 9e3d b2d5 a9bd
00000090: acc1 923c a6b8 32bc 6d9c a1bd f824 453e
000000a0: 4f6f d4bd 1d99 19be 86c9 8e3d d75f b73c
000000b0: abc7 fdbd b6dc 193e ce56 41bd b79d 923d
000000c0: c2d2 3fbc 5d22 70be 627b 8fbd 7b23 4f3e
000000d0: 836a ca37 387f 883d df43 15be 8c07 f5bd
000000e0: c46e cfbd 803b 8dbd 26b9 f43d a453 393e
000000f0: c59e b33d e975 1e3e fc86 9abc 9a9f cebc
00000100: 2ced eabd 719d 953d 345b dfbb 6734 a03d
00000110: 2fdc c13e e0bd 8b3d 9647 583c 0d0e 9d3e
00000120: 0c4b 293e 5d96 a63d 32df 4dbc bd22 493d
00000130: 0bc3 233e 654b f03d 377c 71bd b26c 0fbd
00000140: 1192 3bbe 5da1 48be 0932 a93c 9d27 213c
00000150: b418 81bd ad91 f6bc e9e1 513d d2d2 b93d
00000160: 8624 acbd cfe0 a93e d2df d73d 597a c8bd
00000170: 0831 fd3c 2544 7bbe ad59 a9bd 5bd7 45be
00000180: 031a aeba 8c52 7a3b 5962 bb3e 5987 98bd
00000190: 5250 43be 4bc3 20be 15cb 5fbc cf80 0fbe
000001a0: a013 8ebd 8bcc 873d 0e0f 7b3c 624c 3cbd
000001b0: 6ce7 843e 33ed a7bd 87a6 ae3e e1f7 c33d
000001c0: 9013 bfbd 8cc4 28be 96fd 22be 5ef9 8dbd
000001d0: ea18 1e3e f74b 933d 5c5c 7f3e d5c9 cd3d
000001e0: 9a23 123c a945 7bbe a3ed 2e3d 34d2 debd
000001f0: 4659 fcbd ed09 853d 91ca aabd 0ddb 643d

graph_embed_generation.gat_cgra.bias f4 [32]
0.03035634 -0.022949172 -0.03170423 0.011799472 -0.01696339 -0.008017071 0.04446931 0.017897613
-0.07069722 -0.049002565 -0.011282566 -0.03311728 0.043500233 -0.019015932 0.014774849 -0.016192053
-0.00047280904 -0.0075212084 0.01894942 -0.019917663 0.052067365 0.026695896 -0.030235348 0.029801575
-0.007143582 0.011898057 0.010563791 0.0029822637 0.029750347 0.029228548 0.07478353 -0.031728383
00000000: dcad f83c e7ff bbbc 4bdc 01bd 9352 413c
00000010: cff6 8abc 085a 03bc 7425 363d 049e 923c
00000020: b4c9 90bd eab6 48bd 83da 38bc fca5 07bd
00000030: 4d2d 323d 4dc7 9bbc 3512 723c 32a5 84bc
00000040: 5be3 f7b9 7874 f6bb d03b 9b3c 5e2a a3bc
00000050: 9744 553d 5ab1 da3c 1fb0 f7bc 6f22 f43c
00000060: b614 eabb 11f0 423c c013 2d3c 1572 433b
00000070: 00b7 f33c b570 ef3c 1b28 993d 9ff5 01bd

graph_embed_generation.gat_cgra.lin.weight f4 [128, 7]
0.10878067 0.16167922 0.09177538 0.08463703 0.016860237 0.216461 -0.10654816 -0.053101033
-0.2461373 0.050441552 -0.15346655 0.14802249 -0.23935206 -0.022319468 -0.006636796 0.022589203
-0.102448106 -0.11254063 -0.050921757 -0.10033375 0.18580444 -0.14193632 -0.13124342 -0.06640241
-0.12092496 0.12525328 0.18330763 0.03832663 0.04213904 -0.11971339 -0.08299635 -0.22576399
-0.0822767 -0.25483882 -0.15362294 0.2330539 -0.04984541 -0.039642956 -0.05431391 -0.08250789
-0.011267711 -0.035676915 0.22656336 0.10619935 0.07692097 -0.04232214 0.32019973 0.48131397
-0.05192493 0.08415221 -0.08156986 0.16313693 0.007107394 0.21791138 0.09678334 -0.14529614
0.15929817 -0.11588885 -0.04082602 -0.1263263 0.03279995 -0.13503832 0.12604272 -0.03708828
0.05056733 0.10781924 -0.0018868088 -0.12618358 -0.09196952 -0.12189094 0.030287461 -0.10650681
-0.099762715 0.1946818 -0.04895975 -0.052694213 0.13485806 -0.24264197 -0.029844353 0.0422048
-0.09788235 -0.03335222 -0.118993044 0.33409774 0.2338134 0.11569728 -0.10173975 0.020046266
0.043362264 -0.014759279 0.09839607 -0.118215896 0.07366926 0.20577332 -0.27248308 -0.18237193
0.20057993 0.25262475 0.15929084 -0.022156952 0.20123827 -0.17869748 0.101104215 -0.10880108
-0.21763705 -0.11015309 -0.25361642 -0.2667104 -0.0033588447 -0.14061482 -0.035427462 0.11403218
-0.116446584 0.027243491 -0.055068426 0.08309013 -0.08916532 0.18453187 -0.0229787 0.018338421
-0.035362218 -0.055416483 -0.0074710087 -0.29085958 0.08875 0.25751913 -0.23193298 0.06914225
0.02809712 -0.12714235 -0.11132237 0.035011664 -0.18579078 0.02408097 -0.19648068 -0.014574941
0.029026624 -0.10211052 0.020981984 0.14397898 0.14447609 -0.00341185 -0.13856557 0.19381785
-0.050445992 0.053794663 -0.2281736 0.33257273 0.32905793 -0.13556013 -0.14309758 0.08845553
0.0908984 0.050333377 -0.1080021 -0.12776639 -0.07053069 -0.251359 -0.22802448 -0.015591675
0.11216724 0.054609943 0.23906977 0.1612357 -0.06260215 0.30245903 -0.07625681 0.02082414
-0.07916757 0.07171073 0.085444346 -0.06213866 -0.0021686733 -0.023018077 0.053751443 -0.07223281
-0.04472992 -0.041475873 0.047195625 0.023615208 0.13664031 -0.10718545 0.18270557 0.12051723
-0.03944952 0.106062956 0.09220351 -0.12531711 -0.16755575 -0.041567516 0.020187771 0.02270555
0.13786782 -0.0011196719 -0.11513528 0.015456492 -0.026228148 0.06285474 0.056604907 0.24974062
0.2187856 0.06690404 -0.09717771 -0.018642554 -0.017771177 0.08851806 -0.011918267 0.13021648
-0.18000583 -0.12837888 0.1945781 0.010257301 0.013233106 0.04182309 -0.0075653354 -0.09374824
-0.056582507 -0.18557458 -0.2488503 -0.13857345 -0.13271661 -0.070960544 0.06951741 -0.12893255
0.22784708 -0.04200327 0.09826617 0.026924236 0.0635747 0.04947762 0.008889304 -0.10970422
0.14159238 0.067015365 0.05535419 -0.073336944 -0.06754447 -0.10070678 0.09414798 0.049468864
-0.091151536 0.028408993 -0.091339566 0.0987817 -0.035226032 0.18668073 -0.09600198 -0.11989825
0.12647407 -0.0068121087 -0.02815136 0.09854986 0.0053937114 -0.16949552 0.112191446 0.03820583
00000000: 66c8 de3d 3d8f 253e bbf4 bb3d 2e56 ad3d
00000010: 7b1e 8a3c f4a7 5d3e ec35 dabd 7880 59bd
00000020: 6b0b 7cbe cd9b 4e3d 5626 1dbe 3593 173e
00000030: b518 75be 51d7 b6bc 7b79 d9bb fe0c b93c
00000040: 50d0 d1bd b47b e6bd 5593 50bd c87b cdbd
00000050: 8543 3e3e c157 11be ad64 06be fdfd 87bd
00000060: 81a7 f7bd 6542 003e ffb4 3b3e 62fc 1c3d
00000070: fc99 2c3d 4b2c f5bd fef9 a9bd ad2e 67be
00000080: b080 a8bd 3c7a 82be 554f 1dbe aea5 6e3e
00000090: b32a 4cbd a760 22bd 4378 5ebd e6f9 a8bd
000000a0: 359c 38bc f521 12bd 3a00 683e 0b7f d93d
000000b0: be88 9d3d fb59 2dbd 38f1 a33e c96e f63e
000000c0: 3caf 54bd fe57 ac3d 190e a7bd 5e0d 273e
000000d0: 24e5 e83b 2924 5f3e 5836 c63d 83c8 14be
000000e0: 0f1f 233e 2257 edbd 2f39 27bd ae5b 01be
000000f0: 3e59 063d 7c47 0abe 5811 013e e1e9 17bd
00000100: b01f 4f3d 55d0 dc3d cc4e f7ba 4536 01be
00000110: 845a bcbd f5a1 f9bd 691d f83c 3e20 dabd
00000120: 6550 ccbd aa5a 473e 058a 48bd e3d5 57bd
00000130: 3b18 0a3e 2377 78be 257c f4bc f1de 2c3d
00000140: 8b76 c8bd 569c 08bd a0b2 f3bd dc0e ab3e
00000150: c86c 6f3e b2f2 ec3d ee5c d0bd 1138 a43c
00000160: a19c 313d e7d0 71bc e183 c93d 2d1b f2bd
00000170: e9df 963d 3eb6 523e e782 8bbe b5bf 3abe
00000180: d364 4d3e 0858 813e 231d 233e 7f82 b5bc
00000190: 6811 4e3e 79fc 36be ba0f cf3d 1ad3 debd
000001a0: 3fdc 5ebe f197 e1bd 03da 81be 448e 88be
000001b0: 1020 5cbb 55fd 0fbe 631c 11bd b489 e93d
000001c0: 8c7b eebd be2d df3c 6e8f 61bd 282b aa3d
000001d0: 4f9c b6bd ecf5 3c3e d43d bcbc 753a 963c
000001e0: f9d7 10bd 65fc 62bd 5dcf f4bb 8ceb 94be
000001f0: 8fc2 b53d 8cd9 833e d77f 6dbe 749a 8d3d
00000200: ee2b e63c 9b31 02be fcfc e3bd 6468 0f3d
00000210: f03f 3ebe 7445 c53c 3b32 49be bccb 6ebc
00000220: 3ec9 ed3c 521f d1bd 69e2 ab3c 3a6f 133e
00000230: 8af1 133e 5899 5fbb 22e4 0dbe 3078 463e
00000240: 75a0 4ebd cb57 5c3d 57a6 69be f946 aa3e
00000250: 487a a83e 46d0 0abe 2c88 12be 2c28 b53d
00000260: f128 ba3d 5f2a 4e3d 3430 ddbd 31d5 02be
00000270: 6572 90bd 20b2 80be 407f 69be 3a74 7fbc
00000280: f0b7 e53d adae 5f3d b5ce 743e f91a 253e
00000290: 8e35 80bd e9db 9a3e 882c 9cbd 6397 aa3c
000002a0: 9b22 a2bd 13dd 923d 72fd ae3d 1c85 7ebd
000002b0: 4d20 0ebb 6890 bcbc 792a 5c3d ccee 93bd
000002c0: b836 37bd 9be2 29bd 3350 413d ae74 c13c
000002d0: 70eb 0b3e 0c84 dbbd 2b17 3b3e bdd1 f63d
000002e0: d295 21bd 8937 d93d 32d5 bc3d 2153 00be
000002f0: bc93 2bbe b342 2abd d360 a53c fd00 ba3c
00000300: 392d 0d3e f4c1 92ba 0ccc ebbd 3a3d 7d3c
00000310: 6adc d6bc fcb9 803d 8cda 673d 01bc 7f3e
00000320: 5509 603e fc04 893d 1b05 c7bd 45b8 98bc
00000330: dc94 91bc f548 b53d d644 43bc 7857 053e
00000340: 7353 38be c175 03be 7b3f 473e 3d0e 283c
00000350: abcf 583c b04e 2b3d a2e6 f7bb 14ff bfbd
00000360: 0fc3 67bd 4307 3ebe 9dd2 7ebe 33e6 0dbe
00000370: dde6 07be c353 91bd 255f 8e3d e506 04be
00000380: bf50 693e 9f0b 2cbd c63f c93d 3790 dc3c
00000390: 7433 823d 0ba9 4a3d 71a4 113c 9bac e0bd
000003a0: 98fd 103e 5a3f 893d 13bb 623d ae31 96bd
000003b0: c154 8abd 5b3f cebd a8d0 c03d dd9f 4a3d
000003c0: a8ad babd fab9 e83c 3d10 bbbd 0f4e ca3d
000003d0: 2c49 10bd 3c29 3f3e b09c c4bd 378d f5bd
000003e0: 6b82 013e 1c38 dfbb ae9d e6bc 82d4 c93d
000003f0: bbbd b03b 3c90 2dbe a1c4 e53d b77d 1c3d

graph_embed_generation.fc_metadata.weight f4 [32, 10]
-0.026717147 0.09210773 0.026934532 -0.12092011 0.12705983 -0.31047636 -0.052153613 -0.13132599
-0.3260587 0.0656285 -0.20618309 0.047826197 0.15532494 -0.10051689 0.58649313 -0.49529904
0.27406108 0.16192508 -0.21802425 0.3900871 0.08247835 0.25739822 0.14697501 -0.29051462
-0.3156736 -0.48820707 0.0146489935 0.009484807 -0.060738023 -0.29299015 0.021165213 -0.24183945
0.19653668 0.08333493 -0.36591452 0.02599348 -0.3118537 0.15796459 -0.124634564 0.028149743
0.1010383 0.21922371 0.15251255 -0.19958834 0.027835788 0.4043078 0.5115476 0.14343703
-0.060675234 -0.5447619 -0.2749153 -0.11707702 -0.060516816 -0.515146 -0.07414457 0.26778117
0.12335445 -0.31764948 -0.053034693 0.01291878 -0.09717479 -0.13568659 -0.072332196 -0.20167127
0.41116008 -0.021298388 0.07656502 0.16094658 -0.11607495 -0.1975705 0.2653296 -0.43796968
-0.28866637 0.13312584 0.25540265 -0.27459383 0.066213034 0.19280043 0.08193141 -0.3198169
0.04039045 -0.2055941 0.095228076 -0.03229139 -0.065709576 0.11113301 -0.07114757 0.35250396
-0.6130921 -0.3172019 0.036314175 -0.16021411 0.25175428 -0.1393863 0.29460597 0.040866435
0.1572762 0.07408586 0.004082358 -0.2785612 0.161799 -0.36008656 0.2863976 0.04262502
0.36207455 -0.06853375 -0.10366807 0.16334279 0.5166471 0.07388303 -0.39958987 -0.048813958
0.59644085 -0.0032042027 -0.11344965 -0.21601908 0.1169154 0.13431966 -0.10875663 -0.13982393
-0.4149569 -0.3558922 -0.61463886 0.17122176 0.08557117 -0.15977126 -0.18845214 0.2859188
-0.2513238 -0.46558577 -0.2331051 0.15629622 -0.12794572 0.3840564 0.05117159 -0.04343273
0.32148394 0.19845596 0.08624729 0.11037527 0.08885771 0.49945822 -0.11726263 0.5866756
-0.13760181 0.06478485 0.26785767 0.5341653 -0.095876046 0.3860216 -0.26782823 0.25852907
-0.23408891 0.21596333 0.22165963 0.43022192 0.1363785 -0.17968634 -0.3374259 0.23982254
-0.32533774 0.2779721 0.11833654 -0.32235995 -0.012936287 -0.008792084 -0.098360844 0.5803308
-0.13908012 -0.04257241 -0.36940154 -0.33741882 0.023379592 0.11337452 -0.08882535 0.11483098
0.05418897 0.050073776 0.19358331 0.13668872 0.07707015 0.6453206 -0.3237048 -0.12537907
0.14162107 -0.39026433 -0.11473693 -0.124000065 -0.070513114 -0.24249807 -0.44970277 -0.17132293
-0.18363394 -0.06751527 -0.26418465 0.21794066 0.32862377 0.06779553 0.09727347 0.03622121
0.49881485 0.16575584 0.15738496 0.10812051 -0.08150833 -0.06773306 0.08726271 0.057069078
-0.35389793 0.153085 -0.074274756 0.21114591 0.23239692 0.49360397 0.056524985 0.19497086
-0.00055141957 -0.036332637 0.14496768 -0.6603098 -0.04736272 0.080234684 -0.3825897 -0.35887882
0.022912806 -0.12200174 0.45027867 -0.022500979 0.12561877 0.023519045 -0.014669961 -0.02217044
-0.1109215 -0.2980495 -0.014478675 0.09359577 0.20293953 0.19958918 0.2972472 -0.13118935
-0.08940671 0.04341341 0.12694316 0.047095712 -0.12837785 -0.316802 0.0886432 0.25205976
0.49403742 -0.020173347 -0.10229879 0.028313879 0.09919164 0.004622091 0.28159767 0.34369883
00000000: ebdd dabc faa2 bc3d cfa5 dc3c f6a4 f7bd
00000010: f91b 023e c2f6 9ebe 079f 55bd 527a 06be
00000020: 2af1 a6be 3c68 863d a921 53be 67e5 433d
00000030: 800d 1f3e cddb cdbd 6a24 163f d697 fdbe
00000040: bc51 8c3e b0cf 253e c041 5fbe 7fb9 c73e
00000050: 69ea a83d b3c9 833e 9e80 163e 55be 94be
00000060: f89f a1be 47f6 f9be 5502 703c 2a66 1b3c
00000070: 6fc8 78bd ce02 96be ab62 ad3c c3a4 77be
00000080: e940 493e 81ab aa3d 2659 bbbe 47f0 d43c
00000090: 4aab 9fbe 78c1 213e 6840 ffbd 4a9a e63c
000000a0: 2bed ce3d 2e7c 603e 402c 1c3e e360 4cbe
000000b0: e107 e43c 6f01 cf3e c9f4 023f 28e1 123e
000000c0: 9886 78bd 8475 0bbf b3c1 8cbe 14c6 efbd
000000d0: 7be0 77bd 9ce0 03bf 1cd9 97bd 9d1a 893e
000000e0: 42a1 fc3d f4a2 a2be e83a 59bd 4aa9 533c
000000f0: 9403 c7bd 6df1 0abe e722 94bd ea82 4ebe
00000100: 9383 d23e f579 aebc 1fce 9c3d 2ecf 243e
00000110: b4b8 edbd ec4f 4abe 48d9 873e 903d e0be
00000120: 14cc 93be 2452 083e 23c4 823e 9097 8cbe
00000130: b39a 873d 7a6d 453e a8cb a73d 0abf a3be
00000140: 7570 253d 4287 52be f006 c33d fa43 04bd
00000150: be92 86bd b499 e33d d1b5 91bd 667b b43e
00000160: 9bf3 1cbf 4a68 a2be 2cbe 143d 2b0f 24be
00000170: f0e5 803e 48bb 0ebe 98d6 963e 9063 273d
00000180: 030d 213e 54ba 973d 4dc5 853b 939f 8ebe
00000190: a3ae 253e 445d b8be b5a2 923e 9397 2e3d
000001a0: d661 b93e 6c5b 8cbd ed4f d4bd 5543 273e
000001b0: fc42 043f fc4f 973d 0b97 ccbe 25f1 47bd
000001c0: 59b0 183f 9afd 51bb 4a58 e8bd 1b34 5dbe
000001d0: 5771 ef3d 188b 093e ccbb debd 012e 0fbe
000001e0: 3b75 d4be 8137 b6be f958 1dbf c254 2f3e
000001f0: f03f af3d 149b 23be 99f9 40be f363 923e
00000200: 83ad 80be 4261 eebe 1ab3 6ebe 1e0c 203e
00000210: 3404 03be 0aa3 c43e 4d99 513d 85e6 31bd
00000220: 8b99 a43e 0a38 4b3e 6ba2 b03d 6e0c e23d
00000230: 08fb b53d fdb8 ff3e 6427 f0bd 5f30 163f
00000240: 7de7 0cbe ebad 843d a424 893e 0fbf 083f
00000250: a95a c4bd a0a4 c53e c820 89be ec5d 843e
00000260: 01b5 6fbe 7e25 5d3e befa 623e 0c46 dc3e
00000270: cea6 0b3e b2ff 37be 16c3 acbe 0a94 753e
00000280: ab92 a6be 5c52 8e3e 6e5a f23d 5d0c a5be
00000290: b8f2 53bc ac0c 10bc 6971 c9bd 8f90 143f
000002a0: 056b 0ebe 6860 2ebd 3322 bdbe 29c2 acbe
000002b0: 8f86 bf3c e630 e83d 11ea b5bd 812c eb3d
000002c0: 41f5 5d3d 291a 4d3d b43a 463e 21f8 0b3e
000002d0: f4d6 9d3d bb33 253f a3bc a5be 5f63 00be
000002e0: 1d05 113e bad0 c7be 32fb eabd bff3 fdbd
000002f0: 2e69 90bd 6a51 78be 713f e6be 476f 2fbe
00000300: 890a 3cbe 7245 8abd 3643 87be d62b 5f3e
00000310: 6041 a83e 62d8 8a3d 5037 c73d b15c 143d
00000320: a964 ff3e e6bb 293e 8629 213e 496e dd3d
00000330: d7ed a6bd a1b7 8abd cbb6 b23d 44c1 693d
00000340: 1c32 b5be 50c2 1c3e 5d1d 98bd a236 583e
00000350: 75f9 6d3e a9b9 fc3e be86 673d 71a6 473e
00000360: 248d 10ba 88d1 14bd 6872 143e 100a 29bf
00000370: 69ff 41bd 1552 a43d cce2 c3be f7be b7be
00000380: a3b3 bb3c 0cdc f9bd ed8a e63e f953 b8bc
00000390: 35a2 003e 03ab c03c 475a 70bc c89e b5bc
000003a0: d02a e3bd f299 98be f737 6dbc 24af bf3d
000003b0: 61cf 4f3e 1b61 4c3e c930 983e 8056 06be
000003c0: dd1a b7bd 43d2 313d 63fd 013e 6fe7 403d
000003d0: 7c75 03be df33 a2be 918a b53d fa0d 813e
000003e0: 79f2 fc3e 9342 a5bc 0782 d1bd 82f2 e73c
000003f0: fd24 cb3d e974 973b 922d 903e 4bf9 af3e

graph_embed_generation.fc_metadata.bias f4 [32]
-0.2425388 0.2282438 0.06487843 -0.12289925 -0.11749058 0.35501835 0.072541445 -0.17041478
-0.01266941 -0.21937497 0.040335555 -0.13962089 0.15287101 0.034601144 -0.31697062 0.09613964
0.2174975 0.0021356954 -0.12817381 0.15013589 0.24294749 -0.07300894 0.27608284 -0.013778066
-0.19343218 0.21958235 0.13288763 -0.23977152 0.07399293 0.15000531 0.007179399 -0.18518251
00000000: 175c 78be beb8 693e fbde 843d 9ab2 fbbd
00000010: e79e f0bd f7c4 b53e 9c90 943d 3681 2ebe
00000020: 5b93 4fbc d5a3 60be e536 253d c7f8 0ebe
00000030: 388a 1c3e eeb9 0d3d f949 a2be dce4 c43d
00000040: aab7 5e3e 06f7 0b3b ff3f 03be 39bd 193e
00000050: 3ac7 783e b685 95bd bb5a 8d3e 66bd 61bc
00000060: 1613 46be 32da 603e b213 083e aa86 75be
00000070: 9b89 973d fe9a 193e 2a41 eb3b 7ca0 3dbe

graph_embed_generation.mlp.0.weight f4 [32, 96]
0.11350806 -0.024833957 -0.30604017 -0.11579856 0.018150622 0.039314557 0.024125073 -0.13504805
0.06528529 -0.35249498 -0.20686077 -0.024732638 0.011557329 0.30003446 0.092142366 -0.046515476
0.0020690414 0.08402325 0.09369455 -0.15111998 0.5469876 0.01413732 0.011615089 0.3542412
0.12820455 -0.008373563 0.037422072 0.08837846 0.19150807 -0.024677942 0.027593017 0.09307791
0.019655567 -0.06005423 0.06422599 -0.1907222 -0.061730534 -0.17764488 -0.09745353 0.07659213
0.052968763 -0.17534731 0.06360203 -0.021176977 0.0832115 0.046875164 -0.121307135 -0.08870874
-0.102800794 0.081369236 -0.099163696 -0.0039026402 -0.06498175 -0.041152924 0.039938547 -0.017189773
-0.32484353 -0.28086576 0.2133519 0.17689036 -0.21056153 -0.06920694 0.17598926 -0.043902352
0.10953218 0.22372888 -0.039246984 0.064527415 0.11051305 -0.05147282 0.18138751 -0.14944595
-0.02975344 -0.30291513 -0.13756351 0.09891312 -0.17140642 0.013558916 -0.052813508 -0.038576115
-0.20105505 -0.11903319 -0.019681152 0.042853538 0.090232864 0.4473817 -0.020354971 0.18030167
-0.07328162 0.15737502 -0.009448138 -0.07379426 0.05102367 -0.15960605 -0.20859888 0.1595335
0.0024406211 0.16008967 0.11140961 -0.12945667 0.04551697 0.034511283 -0.15855707 -0.2083886
-0.14322771 0.03593775 0.17007926 -0.10582923 0.0047113076 0.16643445 -0.07707592 0.027706051
-0.026205383 -0.33654937 -0.27684668 0.24680305 0.11238453 0.118146785 -0.14397229 -0.16885017
0.07040404 -0.19291385 0.12625287 0.23012966 -0.10772953 -0.0043654093 -0.20026293 -0.003589525
-0.020024432 0.16059877 -0.103146985 0.054664522 0.22551955 0.13250506 -0.043515515 -0.18315373
0.08005598 -0.121910274 -0.15983957 0.06278853 -0.22966582 0.037228256 -0.15178964 -0.12663691
0.038344454 -0.061901674 -0.006374553 -0.27014855 0.31209865 -0.17321707 -0.15047622 0.15107529
-0.13233958 0.028657882 0.21468239 -0.0045412057 0.18519765 -0.27563423 -0.06639569 0.0063850572
-0.24408445 -0.123612344 -0.121674515 -0.22510318 -0.096499756 -0.08388804 0.012452828 -0.039575588
0.24204469 0.26695976 0.21454974 0.034074068 -0.063741915 0.034991786 -0.2040363 -0.21073002
-0.161338 0.13264485 -0.0827544 0.0819009 -0.118611306 0.073234 -0.19403888 0.074455045
0.09199458 0.058717776 -0.20104048 0.2580959 0.13692825 0.15350412 0.11276728 0.06850908
-0.05127957 0.1712052 -0.14519517 -0.24236642 0.20479466 0.113994904 0.34182498 -0.28713775
0.17803809 0.09276136 -0.35997924 -0.032080933 -0.02384164 0.28527 0.0552591 -0.108654924
0.04455332 0.23170511 0.10377678 -0.14424732 0.014069956 0.18787752 -0.36605817 -0.05412762
-0.17768328 -0.023451477 0.1046429 -0.3927601 0.24029529 0.13420367 -0.023469556 0.32560965
0.15168542 -0.2070218 0.0134733645 -0.18636686 0.121683925 0.13034429 0.08103643 -0.10715036
-0.049506657 -0.25929302 -0.21830884 -0.39222348 -0.0178949 -0.23485613 -0.14198841 0.05100465
-0.23726413 0.18511495 0.09231244 0.11632362 0.21545419 0.32111728 -0.00653147 0.13939868
-0.12986554 -0.27098224 0.15711913 0.15493047 -0.018007891 0.014847174 0.009840694 0.051900253
00000000: ea76 e83d 9570 cbbc 4cb1 9cbe cc27 edbd
00000010: 9db0 943c 4d08 213d f2a1 c53c 094a 0abe
00000020: 4bb4 853d 397a b4be 4fd3 53be 1a9c cabc
00000030: f45a 3d3c 1e9e 993e 23b5 bc3d 0387 3ebd
00000040: c198 073b 6214 ac3d eee2 bf3d 32bf 1abe
00000050: 6107 0c3f 38a0 673c 374d 3e3c 1a5f b53e
00000060: 0e48 033e 4531 09bc e347 193d c4ff b43d
00000070: b11a 443e 6529 cabc c00a e23c a29f be3d
00000080: b604 a13c 6dfb 75bd ea88 833d ae4c 43be
00000090: 28d9 7cbd 8ae8 35be b795 c7bd 56dc 9c3d
000000a0: c6f5 583d 3f8e 33be c841 823d 577b adbc
000000b0: ca6a aa3d 2c00 403d e06f f8bd eeac b5bd
000000c0: 3989 d2bd eaa4 a63d 5616 cbbd 70c3 7fbb
000000d0: 2715 85bd f88f 28bd 9a96 233d 91d1 8cbc
000000e0: e451 a6be a3cd 8fbe ec78 5a3e bf22 353e
000000f0: 719d 57be 5ebc 8dbd 8736 343e f4d2 33bd
00000100: 6852 e03d 2f19 653e 72c1 20bd f326 843d
00000110: aa54 e23d 2ad5 52bd a6bd 393e 5c08 19be
00000120: 7cbd f3bc b117 9bbe 73dd 0cbe f692 ca3d
00000130: 2a85 2fbe 3726 5e3c fa52 58bd fd01 1ebd
00000140: 60e1 4dbe acc7 f3bd 5e3a a1bc 3187 2f3d
00000150: 02cc b83d 370f e53e 78bf a6bc 00a1 383e
00000160: ad14 96bd eb26 213e 5dcc 1abc 7221 97bd
00000170: 32fe 503d c56f 23be f29a 55be c05c 233e
00000180: d4f2 1f3b 8cee 233e b92a e43d 4a90 04be
00000190: 0170 3a3d b45b 0d3d c95c 22be d263 55be
000001a0: 49aa 12be 7633 133d 4229 2e3e ffbc d8bd
000001b0: 5061 9a3b cb6d 2a3e fbd9 9dbd cdf7 e23c
000001c0: acac d6bc 3350 acbe d9be 8dbe f0b9 7c3e
000001d0: dc29 e63d f1f6 f13d 796d 13be 0fe7 2cbe
000001e0: fe2f 903d 358b 45be 6f48 013e 1ca7 6b3e
000001f0: 4da1 dcbd b50b 8fbb ba11 4dbe 3c3e 6bbb
00000200: 470a a4bc 0174 243e ba3e d3bd e8e7 5f3d
00000210: 99ee 663e 68af 073e 533d 32bd a78c 3bbe
00000220: 64f4 a33d 18ac f9bd fcac 23be 4697 803d
00000230: 842d 6bbe a87c 183d be6e 1bbe 1bad 01be
00000240: 130f 1d3d 9c8c 7dbd a0e1 d0bb e950 8abe
00000250: 65cb 9f3e d15f 31be 7016 1abe 7bb3 1a3e
00000260: 0784 07be efc3 ea3c b3d5 5b3e 65ce 94bb
00000270: 74a4 3d3e ee1f 8dbe 77fa 87bd be39 d13b
00000280: 46f1 79be 7828 fdbd 7d30 f9bd 7381 66be
00000290: aaa1 c5bd 7ecd abbd f206 4c3c 031a 22bd
000002a0: 90da 773e f3ae 883e edb2 5b3e 4091 0b3d
000002b0: 1f8b 82bd 8c53 0f3d e4ee 50be 9cc9 57be
000002c0: ca35 25be 0dd4 073e 247b a9bd a9bb a73d
000002d0: 7cea f2bd b5fb 953d 21b2 46be e37b 983d
000002e0: a867 bc3d 0d82 703d 8edd 4dbe 2525 843e
000002f0: eb36 0c3e 2f30 1d3e 88f2 e63d 7d4e 8c3d
00000300: 870a 52bd 6a50 2f3e 0bae 14be e72e 78be
00000310: b1b5 513e 2976 e93d af03 af3e b803 93be
00000320: 9e4f 363e abf9 bd3d 334f b8be 4c67 03bd
00000330: 8b4f c3bc e90e 923e 5e57 623d 7986 debd
00000340: 8b7d 363d 1b44 6d3e ec88 d43d 92b5 13be
00000350: ac85 663c f762 403e fa6b bbbe ecb4 5dbd
00000360: 9bf2 35be 501d c0bc 044f d63d da17 c9be
00000370: f80f 763e b06c 093e 3a43 c0bc 4fb6 a63e
00000380: 6c53 1b3e 86fd 53be 63bf 5c3c f4d6 3ebe
00000390: 6c35 f93d f978 053e 6ef6 a53d a671 dbbd
000003a0: 7ec7 4abd 0ec2 84be 5a8c 5fbe 84d1 c8be
000003b0: 5398 92bc 207e 70be 6965 11be 40ea 503d
000003c0: 5ef5 72be c68e 3d3e 4e0e bd3d 143b ee3d
000003d0: 06a0 5c3e 7c69 a43e f105 d6bb 87be 0e3e
000003e0: 79fb 04be 2fbe 8abe d6e3 203e 18a6 1e3e
000003f0: 4985 93bc 9041 733c dd3a 213c 5c95 543d

graph_embed_generation.mlp.0.bias f4 [32]
-0.0013349626 -0.029706178 0.059918545 -0.14367273 -0.03165167 -0.024963813 -0.037003726 -0.0049055554
-0.09847811 -0.053750075 0.017292617 -0.09879511 -0.03401242 -0.01880995 -0.05123538 0.028931828
-0.10954228 0.054492235 -0.0711792 -0.03281628 0.087741055 0.026783423 0.0915153 -0.027504567
-0.07756956 -0.052381124 0.012843755 0.06010653 0.052496336 0.15977411 0.010492097 0.048640322
00000000: e9f9 aeba 5f5a f3bc 266d 753d f21e 13be
00000010: 2ea5 01bd e980 ccbc 3891 17bd c8be a0bb
00000020: e4ae c9bd 0a29 5cbd 3fa9 8d3c 1755 cabd
00000030: 9b50 0bbd 5317 9abc 31dc 51bd 7102 ed3c
00000040: b457 e0bd 4033 5f3d 67c6 91bd 5d6a 06bd
00000050: 95b1 b33d e968 db3c 606c bb3d 4251 e1bc
00000060: cadc 9ebd 978d 56bd 9d6e 523c 4432 763d
00000070: 6606 573d d39b 233e 0be7 2b3c 133b 473d

graph_embed_generation.mlp.1.weight f4 [32, 32]
0.2697142 0.25956935 0.51117504 0.18959622 -0.1664123 0.10376208 -0.49866885 -0.39731407
-0.1451977 0.28170845 -0.29769546 0.13227913 -0.20145191 0.3186513 0.14401454 0.14441997
-0.029399583 -0.21345012 -0.30640677 0.18495509 0.16611081 -0.017112039 -0.062310934 0.3030679
-0.34877795 -0.3093804 0.06818203 -0.28324202 -0.23797667 0.0072349063 -0.037729703 0.266346
0.21991362 -0.13960524 -0.3307277 -0.4211439 -0.05060592 0.29181606 0.36418918 -0.20018385
0.1267731 0.3764225 -0.094812416 -0.05944561 -0.48468912 0.158188 0.24440199 -0.14554167
0.20779808 -0.14980836 -0.05935066 0.029328922 -0.28146937 -0.42835432 -0.39003077 -0.35740906
-0.10318607 0.019395594 0.012946934 0.07922363 0.012021168 0.14957875 0.06615661 0.40366766
-0.2684286 -0.07162781 -0.11489702 0.17557761 -0.14422822 0.04638238 0.09054871 -0.086215556
0.30368495 -0.17818283 0.34453142 -0.18814358 -0.08554456 0.5058426 0.26914704 0.15569285
-0.34023443 0.048543993 0.06470471 -0.0382411 0.23596318 0.0028085574 -0.14842388 0.072582126
-0.09142598 -0.30499014 -0.34452134 0.5266502 -0.3392856 -0.3925515 0.35243115 -0.017897984
0.17981745 -0.39483166 -0.13425483 -0.09091622 -0.032690294 0.15228516 -0.22841978 0.16537087
-0.3587692 0.08599207 -0.44557256 0.53235674 0.088152796 -0.057413183 -0.020182515 -0.10179963
0.07317331 0.37735173 0.12755436 -0.16981949 -0.20490034 0.18313034 -0.15594739 0.16580823
0.17177035 -0.31201318 -0.31768674 0.15059917 0.23111482 -0.31713033 0.46725065 0.11395507
0.013881425 0.2347338 0.026927698 -0.16651061 0.50036216 -0.0976457 0.23801078 -0.23060164
-0.19346127 -0.099361226 -0.076883644 -0.5611085 -0.36778238 -0.24090154 -0.25166044 0.3429457
0.18862346 0.5771705 -0.1880015 -0.15103465 -0.018914502 0.10080508 -0.120555535 0.10502794
-0.31914744 -0.12676145 -0.26121768 -0.18308018 0.044135284 -0.20429333 0.14714119 -0.08331437
0.12377423 0.06775063 0.43279538 0.05130109 0.18336931 -0.34466296 0.17663015 0.21341018
-0.045218125 -0.13340642 0.09636256 0.2554326 -0.07292376 0.07664752 0.042731397 -0.116041064
0.58234644 -0.022011222 0.1298354 0.0927848 0.12880738 -0.78744197 -0.35635892 0.3171774
-0.11016619 0.24450582 0.06731204 0.10137286 -0.055850502 -0.14167365 0.4353097 -0.3777525
-0.00968529 0.010392523 0.21210945 -0.073804274 -0.14964241 -0.03451917 0.11585455 0.02169183
0.075071774 -0.15450224 -0.075977825 0.14007896 -0.05075784 0.20572373 0.14106058 -0.33266962
0.27765456 -0.062732056 -0.15183672 -0.49881563 0.14994577 0.26122525 0.5014693 0.00775372
-0.6334633 0.45248777 -0.18093747 0.20881045 0.3370802 -0.13036576 -0.032797843 0.32748577
0.1439219 0.33337092 -0.064928174 0.686734 0.13455847 0.044235684 0.011983647 -0.14788854
-0.21953802 0.042390406 -0.18587399 -0.313959 0.22840664 0.0070958617 -0.0049864384 0.107463896
-0.021946892 -0.06640945 -0.2364784 -0.16957167 -0.53434485 -0.140694 -0.00043132767 -0.032237314
0.15821005 0.13670601 0.1566168 0.70409036 0.2630281 0.10611882 0.12585449 0.037738517
00000000: fb17 8a3e 46e6 843e 5edc 023f 8325 423e
00000010: fc67 2abe 3781 d43d 8651 ffbe c06c cbbe
00000020: b5ae 14be 173c 903e 8a6b 98be 2e74 073e
00000030: 6949 4ebe 4326 a33e 8c78 133e d4e2 133e
00000040: 65d7 f0bc ab92 5abe 59e1 9cbe de64 3d3e
00000050: f418 2a3e 8c2e 8cbc c039 7fbd b72b 9b3e
00000060: 0693 b2be 1c67 9ebe 05a3 8b3d 1905 91be
00000070: 28b0 73be cb12 ed3b 768a 1abd 815e 883e
00000080: 0931 613e adf4 0ebe 2455 a9be 2ca0 d7be
00000090: 2748 4fbd ea68 953e 0177 ba3e fffc 4cbe
000000a0: cfd0 013e 73ba c03e 032d c2bd 3d7d 73bd
000000b0: 2c29 f8be 09fc 213e 8444 7a3e e008 15be
000000c0: 05c9 543e 5d67 19be ad19 73bd 3543 f03c
000000d0: c11c 90be 4251 dbbe 1db2 c7be 52fe b6be
000000e0: 3853 d3bd 82e3 9e3c 611f 543c 0040 a23d
000000f0: 6ff4 443c 2c2b 193e 1e7d 873d 87ad ce3e
00000100: 796f 89be 9ab1 92bd 214f ebbd 9eca 333e
00000110: 90b0 13be 73fb 3d3d 9a71 b93d c891 b0bd
00000120: 987c 9b3e 8f75 36be 6c66 b03e b6a8 40be
00000130: fc31 afbd e77e 013f a4cd 893e f26d 1f3e
00000140: 3533 aebe 11d6 463d e783 843d b3a2 1cbd
00000150: 55a0 713e c60f 383b 6efc 17be f0a5 943d
00000160: 8b3d bbbd ab27 9cbe 1a65 b0be 8cd2 063f
00000170: d8b6 adbe 83fc c8be db71 b43e cb9e 92bc
00000180: 1122 383e 6027 cabe 197a 09be 4832 babd
00000190: 42e6 05bd a4f0 1b3e e0e6 69be fb56 293e
000001a0: 99b0 b7be 9c1c b03d 1622 e4be 8848 083f
000001b0: 7489 b43d 162a 6bbd cd55 a5bc 537c d0bd
000001c0: e3db 953d 3f34 c13e 9c9d 023e 29e5 2dbe
000001d0: 65d1 51be 8586 3b3e acb0 1fbe a2c9 293e
000001e0: 91e4 2f3e 31c0 9fbe d6a7 a2be ab36 1a3e
000001f0: 5da9 6c3e e85e a2be 7a3b ef3e 4761 e93d
00000200: eb6e 633c 0f5e 703e 7a97 dc3c c281 2abe
00000210: bc17 003f 78fa c7bd 19b9 733e d622 6cbe
00000220: b61a 46be e67d cbbd 2c75 9dbd cfa4 0fbf
00000230: f94d bcbe e5ae 76be a3d9 80be 9496 af3e
00000240: 8226 413e 72c1 133f 7783 40be d4a8 1abe
00000250: 96f2 9abc e572 ce3d d2e5 f6bd e318 d73d
00000260: 4b67 a3be c1cd 01be 53be 85be 5f79 3bbe
00000270: 33c7 343d 4532 51be 2eac 163e b9a0 aabd
00000280: 587d fd3d d8c0 8a3d 5b97 dd3e 1721 523d
00000290: 2ac5 3b3e aa77 b0be 89de 343e 3388 5a3e
000002a0: a436 39bd b19b 08be bc59 c53d 10c8 823e
000002b0: 0d59 95bd 60f9 9c3d 1e07 2f3d f0a6 edbd
000002c0: a814 153f e150 b4bc 92f3 043e f505 be3d
000002d0: 15e6 033e cc95 49bf ad74 b6be 1465 a23e
000002e0: d09e e1bd bc5f 7a3e e5da 893d 939c cf3d
000002f0: 7fc3 64bd e612 11be eae0 de3e c768 c1be
00000300: 0daf 1ebc 6745 2a3c 3833 593e b226 97bd
00000310: dc3b 19be f963 0dbd 2645 ed3d 11b3 b13c
00000320: 3bbf 993d d635 1ebe 439a 9bbd dc70 0f3e
00000330: 74e7 4fbd 3ea9 523e 2f72 103e ac53 aabe
00000340: bd28 8e3e aa79 80bd 167b 1bbe c364 ffbe
00000350: 628b 193e 51bf 853e 4b60 003f eb12 fe3b
00000360: a72a 22bf 7aac e73e ac47 39be 68d2 553e
00000370: c795 ac3e 9a7e 05be 0857 06bd 37ac a73e
00000380: 4360 133e 98af aa3e 10f9 84bd cdcd 2f3f
00000390: b2c9 093e 7a30 353d 0f57 443c 1870 17be
000003a0: 93ce 60be 90a1 2d3d c055 3ebe 3cbf a0be
000003b0: 6ee3 693e 6784 e83b 4765 a3bb 0816 dc3d
000003c0: f8c9 b3bc ad01 88bd 6527 72be 32a4 2dbe
000003d0: d3ca 08bf 1712 10be d223 e2b9 460b 04bd
000003e0: d101 223e a9fc 0b3e 2860 203e 443f 343f
000003f0: 9eab 863e d354 d93d 00e0 003e b493 1a3d

graph_embed_generation.mlp.1.bias f4 [32]
-0.12715688 -0.015524111 -0.03543904 -0.12031506 0.04190762 -0.08695069 0.14321478 -0.052937087
0.12635808 0.049405783 -0.13908847 -0.11463617 -0.023668103 -0.115969114 0.1761478 0.15942262
-0.0048564635 0.061573334 -0.2005254 0.04255238 0.051170725 -0.0954147 0.1187389 -0.013152452
0.11872349 0.12057278 -0.19437818 0.09476638 -0.08852917 -0.13219735 -0.14689429 -0.12513122
00000000: 6a35 02be d758 7ebc 8728 11bd be67 f6bd
00000010: 53a7 2b3d 3413 b2bd e5a6 123e 8fd4 58bd
00000020: 0364 013e b85d 4a3d 356d 0ebe 5ec6 eabd
00000030: 9ce3 c1bc 3781 edbd 1760 343e af3f 233e
00000040: f822 9fbb 5234 7c3d 8856 4dbe 684b 2e3d
00000050: 6598 513d c868 c3bd 612d f33d 627d 57bc
00000060: 4d25 f33d ddee f63d 130b 47be e014 c23d
00000070: c84e b5bd be5e 07be 756b 16be 6622 00be
