results/checkpoints/mapzero_OH_TOR_DIAG_8x8.pth (torch, 64488 bytes, 25 tensors)

graph_embed_generation.gat_dfg.att_src f4 [1, 4, 32]
0	0xbd7f14e9	-0.0622758
1	0x3e5a1819	0.21298255
2	0xbe0a7e83	-0.13524823
3	0xbe2c88ac	-0.16849011
4	0xbe02745d	-0.12739702
5	0x3cc059f4	0.023480393
6	0xbe5a7c67	-0.21336518
7	0x3d90a35e	0.0706241
8	0xbe0ca27e	-0.13733861
9	0xbe26b2d4	-0.16279155
10	0xbd579608	-0.052633315
11	0xbd8370e0	-0.064180136
12	0x3d8eef66	0.069792554
13	0xbc6299c1	-0.013830603
14	0x3bc8f852	0.0061331177
15	0x3c4e1d8e	0.012580289
16	0xbdc7e6d7	-0.09760826
17	0xbe0ce507	-0.13759242
18	0x3e8f4b66	0.27987212
19	0x3dc65d4a	0.09685762
20	0x3ea1ca4d	0.31599656
21	0x3d87d008	0.06631476
22	0xbc176697	-0.009240768
23	0xbe16c381	-0.14723016
24	0x3d346f6d	0.044051576
25	0x3d466fb4	0.048446372
26	0xbd96b2d2	-0.07358326
27	0x3ca9faf3	0.020749545
28	0xbe690070	-0.22754073
29	0xbd843339	-0.064550824
30	0xbe808830	-0.25103903
31	0xbdd9f30e	-0.10642062
32	0xbd68e6db	-0.056860786
33	0x3d5abf57	0.053405132
34	0x3c11767e	0.008878348
35	0x3e344134	0.17602998
36	0x3e4131dd	0.18866678
37	0x3e21590e	0.15756628
38	0xbd0ae354	-0.033908203
39	0x3e8f3a40	0.2797413
40	0xbdca406d	-0.098755695
41	0xbd954691	-0.0728885
42	0x3e3dae34	0.18523484
43	0x3daee5cb	0.08539923
44	0xbe6496c2	-0.22323135
45	0x3e2d6a50	0.16935086
46	0x3f187197	0.59548324
47	0xbe054f55	-0.13018544
48	0x3d4db3ed	0.05022042
49	0x3e50bc4d	0.20384331
50	0xbe6f3c0c	-0.2336275
51	0x3e64d416	0.2234653
52	0xbe7f3a93	-0.24924688
53	0x3dd717a5	0.10502557
54	0x3e63ad24	0.22234017
55	0x3dde7dc9	0.10863835
56	0x3e292705	0.16518791
57	0xbe7482cc	-0.2387802
58	0xbeea0fb1	-0.45715097
59	0xbde9ca1d	-0.11415503
60	0x3eb91d45	0.36155143
61	0xbe4549fe	-0.19266507
62	0xbd9f1770	-0.07768142
63	0xbcc56e35	-0.024100402
64	0x3e50afc6	0.20379552
65	0x3e5e3063	0.21698146
66	0xbdcde962	-0.1005428
67	0xbddfc79c	-0.10926744
68	0x3d2108fd	0.039315213
69	0x3e104188	0.14087498
70	0x3dad5da7	0.084651284
71	0xbe8bcf0a	-0.27306396
72	0x3ce87db7	0.028380258
73	0xbdd72022	-0.10504176
74	0xbdad081b	-0.084488116
75	0xbe1d009d	-0.15332265
76	0xbe77a115	-0.24182542
77	0x3e15138a	0.14558235
78	0x3ec41938	0.3830049
79	0xbdf281b7	-0.118411474
80	0x3e056d51	0.13029982
81	0xbcc7654a	-0.02434029
82	0x3d6e0970	0.05811447
83	0xbddcd1f9	-0.107822366
84	0x3e236224	0.15955406
85	0xbd9128d7	-0.07087868
86	0x3e8b7693	0.27238902
87	0x3d9c74aa	0.076394394
88	0xbca8d755	-0.02061049
89	0x3d890026	0.066894814
90	0x3df1c8ed	0.11805902
91	0xbe192dae	-0.14958832
92	0x3c4aeaf3	0.012385118
93	0x3c910217	0.017701192
94	0x3cf61f54	0.030044235
95	0xbd92fc64	-0.07177046
96	0x3e2a1681	0.16610147
97	0x3ecc3762	0.39886004
98	0xbdae74bb	-0.08518358
99	0x3c8aa5f7	0.016924841
100	0x3e5563a7	0.20838796
101	0xbd310262	-0.043215163
102	0xbd57bea9	-0.052672062
103	0x3e1403ac	0.14454526
104	0x3c47525e	0.012165634
105	0xbe075118	-0.13214529
106	0x3dbe634b	0.092962824
107	0xbe05a4ef	-0.13051198
108	0xbd92db63	-0.07170751
109	0x3d02fc52	0.031978913
110	0x3ddd5627	0.10807448
111	0xbec9ec5e	-0.39438146
112	0xbe489765	-0.19589002
113	0x3d2701e0	0.040773273
114	0x3e64467d	0.22292514
115	0xbe808be6	-0.25106734
116	0x3e0d9882	0.13827708
117	0x3ca69270	0.020333499
118	0xbd3f7c12	-0.046749182
119	0x3dcfe0ff	0.101503365
120	0xbd95e5bf	-0.07319211
121	0x3e32f0f5	0.1747473
122	0xbdcaeb05	-0.09908108
123	0xbd04cad5	-0.03242
124	0x3e87975b	0.26482663
125	0xbe1ea451	-0.15492369
126	0x3ee505c9	0.44730976
127	0x3de830fb	0.11337467

graph_embed_generation.gat_dfg.att_dst f4 [1, 4, 32]
0	0x3e53c84e	0.20681879
1	0x3eb0d9f3	0.34541282
2	0xbdcbdbd0	-0.09954035
3	0x3d12bb4e	0.03582316
4	0x3d4c05f3	0.04981036
5	0x3e2af295	0.166941
6	0x3daf4945	0.08558897
7	0xbebdf703	-0.37102517
8	0x3dad4c10	0.084617734
9	0x3e27a494	0.16371375
10	0x3ca9e07f	0.02073693
11	0xbe1f3f75	-0.1555155
12	0x3d6ab0da	0.057297565
13	0x3e357b8c	0.1772291
14	0x3da78b13	0.08180823
15	0xbe765285	-0.24054916
16	0x3d994c30	0.07485235
17	0x3dd39a29	0.10332138
18	0x3bb45a82	0.0055039534
19	0x3d27a3fc	0.040927872
20	0xbd33af5f	-0.04386842
21	0xbdac0142	-0.083986774
22	0xbdac84cf	-0.08423769
23	0x3da0cd87	0.07851701
24	0xbdb1febb	-0.08691164
25	0xbd6be169	-0.057588015
26	0xbe946e4d	-0.28990403
27	0xbd803923	-0.06260898
28	0x3ccd1cc6	0.025038134
29	0x3da293e4	0.07938364
30	0xbd5d2597	-0.053990927
31	0x3dce888a	0.100846365
32	0x3ccd06ee	0.025027718
33	0xbdf94082	-0.12170507
34	0xbdd3f22b	-0.10348924
35	0x3e04597c	0.1292476
36	0xbe239700	-0.1597557
37	0x3e75835f	0.23975895
38	0x3d99d3f5	0.07511131
39	0x3de52ca0	0.11190152
40	0x3c076757	0.008264384
41	0xbdfee569	-0.124461
42	0xbdbeeb37	-0.093222074
43	0xbe508095	-0.2036155
44	0xbdfef20b	-0.1244851
45	0x3da505a0	0.080577135
46	0x3d0d4930	0.034493625
47	0x3d9475db	0.07249042
48	0xbdd37ac4	-0.1032615
49	0xbe185d27	-0.14879285
50	0xbe227980	-0.15866661
51	0xbd64e145	-0.055878896
52	0x3d84bbd6	0.06481139
53	0x3e87c542	0.26517683
54	0x3dbc164a	0.09183939
55	0xbc6950c5	-0.014240448
56	0xbe6e7de8	-0.23290217
57	0x3e78e391	0.2430556
58	0xbe390c18	-0.1807102
59	0x3df4890a	0.119402006
60	0xbe75db66	-0.24009475
61	0x3d267419	0.040638063
62	0x3d9659b3	0.073413275
63	0xbe08a435	-0.1334389
64	0x3ca3308e	0.019920614
65	0x3d8ab4f6	0.06772797
66	0xbd14a272	-0.036287732
67	0xbca2314a	-0.019798893
68	0x3dc6ca4a	0.09706552
69	0xbd8bcee5	-0.068265714
70	0x3d6f12b3	0.058367442
71	0x3dc43073	0.095795535
72	0xbd34068e	-0.043951564
73	0xbe27516a	-0.16339651
74	0xbcbeca7c	-0.023289911
75	0xbe153202	-0.14569858
76	0x3dc905c5	0.098155536
77	0x3e8f85fb	0.28031906
78	0xbdebd0f1	-0.11514462
79	0x3e739be4	0.23789936
80	0x3e4802c7	0.1953231
81	0x3d4a27bf	0.04935431
82	0xbe8e5c73	-0.27804908
83	0xbe0600da	-0.13086262
84	0xbce80a20	-0.02832514
85	0xbd6a1828	-0.057151943
86	0x3e19f27d	0.15033908
87	0xbdc874d9	-0.09787912
88	0xbad69f71	-0.0016374422
89	0x3e433c87	0.19066058
90	0xbdb6aedc	-0.089200705
91	0xbe34d1d6	-0.17658171
92	0x3e516a0b	0.20450608
93	0x3e378129	0.17920364
94	0xbdf1f5a7	-0.118144326
95	0xbe3d212c	-0.18469685
96	0x3c524d90	0.012835875
97	0x3da50d67	0.08059197
98	0xbe271e87	-0.16320239
99	0x3e31990d	0.1734354
100	0xbb8509f0	-0.0040600225
101	0x3c7cd271	0.0154310325
102	0x3c55c682	0.013047816
103	0xbd6e58d8	-0.058190197
104	0xbd8ffaed	-0.07030282
105	0xbddddbea	-0.10832961
106	0x3b955c4d	0.0045581223
107	0xbd78657f	-0.06064367
108	0x3cec3bf4	0.028837182
109	0x3dfa4c47	0.1222158
110	0xbe067bf3	-0.1313322
111	0x3db3d3ce	0.08780633
112	0xbe92d197	-0.2867553
113	0xbe9952ca	-0.29945976
114	0x3c57bf4c	0.013168167
115	0xbe20bf35	-0.1569794
116	0x3d898606	0.06715016
117	0x3e915c97	0.28390953
118	0xbe93a43a	-0.28836232
119	0x3e096f1c	0.13421291
120	0x3e39c668	0.18142092
121	0x3e5ba346	0.21449003
122	0x3df2f0fa	0.11862369
123	0x3c23afe7	0.009990669
124	0x3e81f5c3	0.25382814
125	0xbad671d9	-0.0016360834
126	0xbd02df35	-0.031951148
127	0x3da8f620	0.082500696

graph_embed_generation.gat_dfg.bias f4 [32]
0	0xbc1aab44	-0.009440247
1	0xbcb4529b	-0.022012046
2	0xbc11cf47	-0.008899516
3	0xbba6c792	-0.0050897086
4	0xbbd9446b	-0.0066304705
5	0xbca9f396	-0.020746034
6	0x3d142cf3	0.03617568
7	0xbc903520	-0.017603457
8	0x3b9fcb1b	0.004876507
9	0xbbdccc96	-0.0067382557
10	0x3d14b77a	0.03630779
11	0xbd86a1b2	-0.0657381
12	0x3d38c6b0	0.04511136
13	0x3cead643	0.028666621
14	0xbc9fceab	-0.019507727
15	0xbc947720	-0.01812321
16	0x3cf6a586	0.030108225
17	0xbcab644e	-0.020921852
18	0xbcd6a349	-0.026200907
19	0xba4e5908	-0.0007871543
20	0xbb8a4183	-0.0042192354
21	0x3d2bf847	0.041984823
22	0xbc73964e	-0.014867378
23	0x3cb9fb5d	0.022702867
24	0xbc99049b	-0.018678954
25	0x3d06a9bd	0.03287672
26	0x3c387c22	0.011260064
27	0x3b7b67e4	0.0038361484
28	0x3a72f2f2	0.0009267769
29	0x3c990845	0.018680701
30	0x3d148cca	0.03626708
31	0x383d817e	4.518171e-05

graph_embed_generation.gat_dfg.lin.weight f4 [128, 10]
0	0xbcd65b19	-0.026166486
1	0x3e767934	0.24069673
2	0xbe2b98c0	-0.16757488
3	0x3e3bd052	0.18341187
4	0x3ca41c15	0.020032922
5	0xbe6b8194	-0.22998649
6	0xbe5e7726	-0.21725139
7	0x3d3e1e14	0.046415403
8	0xbe5e8510	-0.21730447
9	0x3d5b619c	0.053559884
10	0xbccc05cf	-0.024905114
11	0x3ec8503e	0.3912372
12	0x3da602b1	0.08105982
13	0xbd896e82	-0.06710531
14	0x3d35251e	0.04422485
15	0xbd0e4280	-0.034731388
16	0x3d92117b	0.071322404
17	0xbd0b9d0e	-0.034085326
18	0xbebc6b15	-0.36800447
19	0x3cec0c3e	0.028814431
20	0x3d5ecba0	0.05439341
21	0xbebbd0c4	-0.36682713
22	0x3e61f4f8	0.22066104
23	0xbe169121	-0.147038
24	0xbdf1befc	-0.118040055
25	0xbd9daec3	-0.07699349
26	0x3dd8f699	0.1059391
27	0x3d9e1625	0.077190675
28	0x3ddbbb95	0.10729138
29	0x3c1833b1	0.009289668
30	0x3cc08560	0.023501098
31	0xbe473773	-0.19454746
32	0xbe68f5ee	-0.22750065
33	0xbcaf1ab6	-0.021375041
34	0x3e20a1ef	0.15686773
35	0xbe3df325	-0.18549784
36	0xbc66dcf4	-0.014090765
37	0x3b40613b	0.002935483
38	0x3e309aff	0.17246626
39	0xbcbca459	-0.023027586
40	0x3de53029	0.111908264
41	0x3ccef253	0.025262034
42	0xbe318611	-0.17336299
43	0x3be4ebe7	0.0069861296
44	0xbdd1852d	-0.102304794
45	0x3d3335c8	0.04375246
46	0x3d85eac4	0.065389186
47	0xbd98d803	-0.07463076
48	0xbded9d79	-0.11602301
49	0x3cabb09b	0.020958235
50	0x3e08aa48	0.13346207
51	0x3e4250de	0.18976161
52	0xbe86f2be	-0.26357073
53	0xbe7838bf	-0.24240397
54	0x3e928728	0.2861874
55	0xbe024f20	-0.12725496
56	0x3d9c4528	0.07630378
57	0xbbb0b350	-0.0053924695
58	0xbe00aa72	-0.1256502
59	0xbdfb8851	-0.1228186
60	0xbdd3925f	-0.103306524
61	0xbd219deb	-0.039457243
62	0x3e33c631	0.17556073
63	0x3e1462f4	0.14490873
64	0xbb8e1473	-0.004335934
65	0x3a829996	0.0009963985
66	0x3d4a1043	0.049331915
67	0x3ca05fe3	0.019576972
68	0x3e431bd2	0.19053581
69	0x3e36aa65	0.17838438
70	0x3d958475	0.07300655
71	0xbe16ab18	-0.14713705
72	0x3ce318b3	0.027721738
73	0x3ddfff1c	0.1093733
74	0xbd1c7ca9	-0.038204823
75	0xbe5f196a	-0.21787038
76	0xbd17f711	-0.037100855
77	0x3db90253	0.090336464
78	0x3e5f9c88	0.21837056
79	0xbe0a7542	-0.13521293
80	0x3e6f9698	0.2339729
81	0x3dc4f270	0.09616554
82	0xbe4ca1e4	-0.19983631
83	0xbdf75047	-0.120758586
84	0xbe947e3e	-0.29002565
85	0x3e26ae79	0.16277494
86	0xbe1c043a	-0.15235987
87	0xbde34453	-0.11097016
88	0xbe18f532	-0.14937285
89	0x3e5ff203	0.21869664
90	0x3e383a2d	0.17990942
91	0xbcadbcaa	-0.021208126
92	0x3d45ca74	0.048288777
93	0xbe4d2ba9	-0.20036186
94	0x3dcd6152	0.10028328
95	0x3e420352	0.18946579
96	0xbe39aed3	-0.18133096
97	0xbc826653	-0.015917933
98	0x3e362c4e	0.17790338
99	0x3d47a6aa	0.048742928
100	0xbe2f86aa	-0.17141214
101	0xbdaff680	-0.08591938
102	0x3e2952b0	0.16535449
103	0xbd21173d	-0.039328802
104	0xbd002505	-0.031285305
105	0x3d1bd9a0	0.03804934
106	0xbdd7e564	-0.105418
107	0xbe18182c	-0.14852971
108	0x3e91b3cc	0.28457487
109	0x3d2a29e9	0.041543875
110	0xbe2aae74	-0.16668111
111	0xbdafc3b8	-0.08582252
112	0xbe418280	-0.18897438
113	0x3ed5b0d4	0.41736472
114	0xbe283ca7	-0.16429387
115	0xbe029994	-0.12753898
116	0x3d875c59	0.06609411
117	0x3c1b59bf	0.009481846
118	0x3d7568fd	0.059914578
119	0xbde02441	-0.10944415
120	0xbe45c0a4	-0.19311768
121	0x3de00ce5	0.109399594
122	0xbc92c940	-0.01791823
123	0x3e8cc9e6	0.27497786
124	0xbdc0ed74	-0.094202906
125	0x3de730b3	0.112885855
126	0xbba0c0eb	-0.00490581
127	0xbd820daf	-0.06350266
128	0xbb21170c	-0.0024580387
129	0x3e2df0eb	0.16986434
130	0x3d8fccd3	0.07021489
131	0x3e7b3149	0.2453052
132	0xbe24077c	-0.1601848
133	0x3d0c6532	0.034276195
134	0xbc894ed5	-0.016761223
135	0xbd557c11	-0.052120272
136	0xbd434f22	-0.04768289
137	0xbe06c136	-0.13159642
138	0xbe6afb91	-0.22947527
139	0x3e14dbac	0.14536923
140	0x3d36e422	0.04465116
141	0x3d6bcacf	0.05756646
142	0xbd8b1118	-0.0679037
143	0xbdb913e8	-0.09037
144	0xbc9a1cde	-0.018812593
145	0xbe5e123a	-0.2168664
146	0x3d29840a	0.041385688
147	0x3dddbafc	0.1082668
148	0xbd34c54f	-0.04413348
149	0x3d866ec5	0.06564096
150	0xbe3375ef	-0.17525457
151	0x3d142b8b	0.03617434
152	0xbe4f0bf6	-0.20219406
153	0x3e0fcf33	0.14043884
154	0xba3f4e09	-0.00072977
155	0x3d33073b	0.043708067
156	0xbcd3fe4d	-0.025878096
157	0xbdd6e05d	-0.10492013
158	0x3e2284bf	0.15870951
159	0x3d4e755f	0.050404903
160	0x3e30e937	0.17276464
161	0xbdc82e49	-0.09774453
162	0x3e3e383e	0.18576142
163	0xbdbf9640	-0.0935483
164	0x3da94439	0.082649656
165	0x3d9ca9d0	0.07649577
166	0xbd28e510	-0.041234076
167	0xbd5952c6	-0.053057455
168	0xbdda2eb3	-0.106534384
169	0xbda5e485	-0.08100227
170	0x3e31eaa1	0.1737466
171	0x3dbba160	0.09161639
172	0xbe0f5bd8	-0.1399988
173	0x3b9b68bd	0.0047427104
174	0xbd5b280f	-0.053505
175	0x3ae22bab	0.0017255446
176	0xbccf5698	-0.025309846
177	0x3d7db815	0.061943132
178	0xbe3b4a6a	-0.18290105
179	0x3b708a0c	0.0036703376
180	0xbdfeda28	-0.12443954
181	0x3e8f4f2a	0.27990085
182	0x3d647cfc	0.055783257
183	0x3ca2abbc	0.01985728
184	0xbc90624a	-0.017624993
185	0xbe15bc3d	-0.14622588
186	0x3db42930	0.087969184
187	0x3db23fbd	0.08703563
188	0xbd808c5a	-0.0627677
189	0x3e20c311	0.15699412
190	0x3a95a87e	0.0011418012
191	0x3d3d7370	0.046252668
192	0xbdbdbcdb	-0.09264537
193	0xbcd16f24	-0.025565691
194	0xbb9d2631	-0.0047958125
195	0x3ebab56a	0.36466533
196	0xbdd5a772	-0.10432328
197	0xbcd6cb52	-0.026219998
198	0x3d8d4b01	0.068990715
199	0xbe2cb249	-0.16864885
200	0x3d0a6c2b	0.033794563
201	0x3e2d71fe	0.16938016
202	0xbdd4d9f1	-0.103931315
203	0x3c9086de	0.017642435
204	0xbd67a181	-0.056550507
205	0xbe326786	-0.17422304
206	0x3e194b82	0.1497021
207	0x3e2657dd	0.16244455
208	0x3dc157a9	0.09440548
209	0xbdc5e423	-0.09662654
210	0x3d5ff0ed	0.054673124
211	0x3e47af6a	0.19500509
212	0x3c1f6eae	0.009730978
213	0xbdeb7b11	-0.114980824
214	0xbe128ea1	-0.14312221
215	0xbabb917b	-0.0014310324
216	0x3e70f293	0.23530035
217	0xbd8f8ff3	-0.07009878
218	0xbe334afa	-0.1750907
219	0xbe0eb30e	-0.13935491
220	0xbca952ff	-0.020669458
221	0xbe4feadd	-0.20304437
222	0xbcbc50b2	-0.022987697
223	0xbc12afa8	-0.0089530125
224	0xbddafeb4	-0.10693112
225	0x3d93bad9	0.07213373
226	0x3e3bd9c3	0.18344788
227	0x3e303a9c	0.17209858
228	0x3e4994dd	0.19685693
229	0xbe2c7e53	-0.16845064
230	0x3cfdeea5	0.030997584
231	0xbe673a9d	-0.22580953
232	0xbd0a78df	-0.033806678
233	0xbd95c13c	-0.07312247
234	0x3cf79249	0.030221121
235	0x3e6b2a6d	0.22965403
236	0xbd29b26a	-0.041429915
237	0x3e1179de	0.14206645
238	0x3e62511b	0.22101252
239	0x3e000174	0.12500554
240	0x3d97f05a	0.0741889
241	0x3de1148b	0.109902464
242	0x3dd57dff	0.104244225
243	0x3d550e15	0.052015383
244	0xbe2c2846	-0.16812238
245	0x3d795a2e	0.060877018
246	0x3d2833ef	0.041065153
247	0x3e2a5b38	0.1663636
248	0xbd277740	-0.04088521
249	0xbca0eda5	-0.019644568
250	0xbd88ea9a	-0.06685372
251	0xbdcd7f33	-0.10034027
252	0x3da83223	0.08212688
253	0xbde36c97	-0.11104696
254	0x3da006b2	0.07813777
255	0x3d2b1392	0.04176671

graph_embed_generation.gat_cgra.att_src f4 [1, 4, 32]
0	0x3d07171e	0.03298103
1	0xbe501aa5	-0.20322664
2	0xbd033bc4	-0.03203942
3	0x3dbe6417	0.092964344
4	0xbe883896	-0.26605672
5	0x3d627b9a	0.055293657
6	0x3d68b4a7	0.05681291
7	0xbdcb8770	-0.09937942
8	0x3cdd015b	0.026978185
9	0xbe76d00e	-0.24102804
10	0x3e89c371	0.26906922
11	0x3c1cca17	0.009569666
12	0x3e9de17d	0.30836096
13	0x3db87e59	0.09008474
14	0xbe425bd2	-0.18980339
15	0x3c40c98d	0.011766803
16	0xbd9a34ec	-0.07529625
17	0x3bb079b0	0.0053856
18	0xbdc9e091	-0.09857286
19	0x3e539652	0.20662811
20	0xbd77ea8e	-0.060526423
21	0x3d5a4099	0.05328426
22	0x3b9a9b60	0.004718229
23	0x3deb0cad	0.11477027
24	0x3e4fcb94	0.20292503
25	0x3c9cee4e	0.019156601
26	0xbc2a2897	-0.010385654
27	0x3d9afde0	0.07567954
28	0x3dac6cf4	0.08419219
29	0x3e1ae269	0.15125431
30	0xbe103bcc	-0.1408531
31	0x3e14603a	0.14489833
32	0xbe148a08	-0.1450578
33	0xbe906624	-0.28202927
34	0xbe1e5454	-0.15461856
35	0x3e1d2ae3	0.15348391
36	0x3ddb4bcc	0.107078165
37	0x3e678e47	0.22612868
38	0xbd6dbcb0	-0.058041275
39	0x3e03d6ef	0.1287496
40	0xbd8108af	-0.063004844
41	0x3e1e90ea	0.15484968
42	0x3c3bb81e	0.011457471
43	0xbcbfc9ba	-0.02341162
44	0xbdc40d8f	-0.095728986
45	0x3e1852b2	0.14875296
46	0x3d9745db	0.07386371
47	0x3dec9ce2	0.115533605
48	0xbd588ead	-0.05287044
49	0xbd864f4d	-0.06558094
50	0x3e205245	0.15656383
51	0x3e9004ca	0.28128654
52	0x3e0f5115	0.13995774
53	0xbe3432d2	-0.17597511
54	0xbe1e3279	-0.15448941
55	0xbe1b282a	-0.1515204
56	0xbeb92b63	-0.36165914
57	0x3d69680e	0.056984
58	0x3d4fced9	0.050734375
59	0x3c7568c9	0.014978596
60	0x3bcca141	0.006244809
61	0xbe28a033	-0.16467361
62	0x3e59a21e	0.21253249
63	0xbde5028a	-0.11182125
64	0x3d050679	0.032476876
65	0xbe1ac309	-0.15113463
66	0xbe32f8b6	-0.17477688
67	0xbe469eea	-0.19396558
68	0xbe56e5a4	-0.20986038
69	0xbe9afb9a	-0.30270082
70	0xbd05c886	-0.032661937
71	0x3e05bf3d	0.13061233
72	0x3dd69583	0.10477736
73	0x3e8586f1	0.26079515
74	0x3e24227a	0.16028777
75	0xbdd95739	-0.106123395
76	0x3c94dc59	0.018171476
77	0x3dcb4391	0.09924997
78	0x3d1bdc5d	0.03805195
79	0x3dfb92c2	0.12283851
80	0x3e94ef0a	0.29088622
81	0x3e57025a	0.20996991
82	0xbcc55117	-0.024086518
83	0x3d516a6f	0.051126894
84	0x3e332cc3	0.17497544
85	0xbe02c1c0	-0.12769222
86	0xbd866180	-0.065615654
87	0xbd854e0f	-0.06509029
88	0x3dc05a6e	0.09392248
89	0xbdb5d1e4	-0.08877924
90	0x3ae8c7cd	0.0017759741
91	0x3e88cf2d	0.26720563
92	0xbcf86c66	-0.030325126
93	0x3d85af33	0.06527557
94	0xbdf08294	-0.11743656
95	0xbe320058	-0.17382944
96	0x3d7616ea	0.060080446
97	0x3d086d20	0.033307195
98	0xbe243590	-0.16036057
99	0xbe552384	-0.2081433
100	0xbebf57a5	-0.37371555
101	0xbc958eaa	-0.018256504
102	0x3d981123	0.074251436
103	0xbc426cef	-0.011866792
104	0xbe854d08	-0.26035333
105	0x3d5403fd	0.051761616
106	0x3e3133fe	0.1730499
107	0xbe65d858	-0.2244581
108	0x3e1b1a64	0.15146786
109	0xbe12d479	-0.14338864
110	0x3dea0207	0.11426168
111	0x3cc2a19a	0.023758698
112	0xbd8abb87	-0.06774049
113	0xbd95a38b	-0.07306584
114	0x3d545a7e	0.051844113
115	0x3ce7c70c	0.028293155
116	0xbdbb7c4e	-0.091545686
117	0xbc8b5fe8	-0.017013505
118	0xbdac94c6	-0.08426814
119	0x3e12ec1a	0.14347878
120	0x3cb2b131	0.021813007
121	0x3c6f405a	0.014602745
122	0x3e015217	0.12628971
123	0xbcb088f6	-0.021549683
124	0xbe4babe2	-0.19889787
125	0xbe54839d	-0.20753331
126	0x3dd01738	0.101606786
127	0xbd5bb4be	-0.053639166

graph_embed_generation.gat_cgra.att_dst f4 [1, 4, 32]
0	0xbde18e33	-0.110134505
1	0xbe8699e2	-0.26289278
2	0xbc082163	-0.008308741
3	0xbcbbfc91	-0.022947581
4	0x3e2f361b	0.17110483
5	0x3c7cf6ad	0.015439671
6	0xbe5554da	-0.2083315
7	0x3cf35141	0.02970183
8	0xbe4ebacd	-0.20188446
9	0xbdeb6507	-0.11493879
10	0x3dbcb164	0.09213522
11	0xbde29f65	-0.11065558
12	0x3ed8f372	0.42373234
13	0xbda8f22d	-0.08249316
14	0x3e2e6c66	0.17033538
15	0xbd99079c	-0.074721545
16	0xbcd71b84	-0.026258238
17	0xbe435b57	-0.19077812
18	0x3da6570b	0.08122071
19	0x3cd13cf5	0.025541762
20	0xbe0cc258	-0.13746011
21	0xbcd0edd1	-0.025504025
22	0xbe955c47	-0.29171965
23	0x3d4102ef	0.04712194
24	0xbcdd063d	-0.026980514
25	0x3df1c2d2	0.11804737
26	0x3b88ecce	0.00417862
27	0xbe1000e6	-0.14062843
28	0x3e5eedeb	0.21770446
29	0xbd833d21	-0.06408144
30	0xbdadc750	-0.084852815
31	0x3da2fa59	0.07957906
32	0xbcc781f2	-0.024353955
33	0x3dfdde7f	0.123959534
34	0x3e0e67ee	0.13906834
35	0xbe259b47	-0.16172515
36	0xbdbd37a8	-0.09239131
37	0xbd69bd23	-0.05706514
38	0x3b4f342f	0.0031616797
39	0x3dda1cd4	0.1065003
40	0xbe40663f	-0.18789004
41	0xbe68c14b	-0.22729985
42	0x3cb51ede	0.022109445
43	0xbd80bb6e	-0.062857494
44	0xbd4ade79	-0.049528573
45	0x3d7d1324	0.061785832
46	0xbded957e	-0.11600779
47	0xbb79b33c	-0.0038101217
48	0xbde8a9de	-0.113605246
49	0xbe1fa2b6	-0.15589413
50	0x3cbe6ad0	0.023244292
51	0x3e4c5470	0.19954085
52	0x3da82de2	0.082118765
53	0x3e2810e2	0.1641269
54	0xbd81298a	-0.06306751
55	0xbe21723b	-0.15766232
56	0xbe264634	-0.16237718
57	0x3cc9fbd9	0.024656223
58	0x3e2dfbfb	0.16990654
59	0x3e24bbf6	0.16087326
60	0x3cfeec30	0.031118482
61	0x3deb74d4	0.114968926
62	0x3d37dd79	0.044888947
63	0xbdcf8297	-0.1013233
64	0xbe037e27	-0.12841092
65	0xbcb72fe9	-0.022361713
66	0xbb8bee2c	-0.0042703357
67	0x3ab29595	0.0013624901
68	0x3e1782de	0.14796016
69	0x3c28cb86	0.01030243
70	0xbd08ead8	-0.03342709
71	0x3e7b99d5	0.24570401
72	0x3df5fd03	0.12011149
73	0x3e23e98a	0.16007057
74	0xbd0ee247	-0.034883764
75	0xbce54fdc	-0.027992181
76	0x3ce9bffd	0.02853393
77	0x3e05effb	0.13079827
78	0xbdd01302	-0.101598755
79	0x3ca46249	0.020066397
80	0xbde38e1c	-0.111110896
81	0xbe510073	-0.20410328
82	0xbb865288	-0.004099194
83	0xbd801e79	-0.06255812
84	0x3cde6e8b	0.02715232
85	0xbe121f8e	-0.1426985
86	0x3d839e58	0.06426686
87	0x3dfd9dd5	0.1238362
88	0xbd6d3c4d	-0.057918835
89	0x3e7c82f7	0.24659334
90	0x3e402d80	0.18767357
91	0xbe320e71	-0.17388321
92	0x3dedfac9	0.11620099
93	0xbe1b44cb	-0.15162961
94	0xbe15b189	-0.14618506
95	0xbd820218	-0.063480556
96	0xbd5047c8	-0.050849706
97	0xbd25622f	-0.04037684
98	0x3e883dba	0.26609594
99	0xbd8c36fb	-0.06846424
100	0xbe37eb74	-0.17960912
101	0xbd9f294b	-0.07771548
102	0x3d5c72cd	0.05382042
103	0xbacc9730	-0.0015609022
104	0xbe1942f4	-0.14966947
105	0x3c923493	0.017847335
106	0x3e132433	0.14369278
107	0x3af73eb8	0.0018863296
108	0x3e7f95df	0.24959515
109	0xbd2366b2	-0.03989286
110	0x3e1e42b0	0.15455127
111	0x3e7e855f	0.24855565
112	0xbe131b2c	-0.14365834
113	0xbe00cff7	-0.12579332
114	0xbe2a7f23	-0.16650061
115	0x3ced135e	0.028939899
116	0x3e759c09	0.23985304
117	0xbd1ff4a2	-0.03905166
118	0x3dc9b9d9	0.09849901
119	0x3d9cd9f0	0.07658756
120	0x3d14e29c	0.036348924
121	0xbd542307	-0.051791217
122	0x3d1a0005	0.037597675
123	0xbe69e929	-0.2284285
124	0xbc0e729a	-0.008694315
125	0x3e07b772	0.13253573
126	0x3d326d27	0.043561127
127	0x3e05dfba	0.13073626

graph_embed_generation.gat_cgra.bias f4 [32]
0	0x3c99264b	0.018695017
1	0x3a9f742b	0.0012165358
2	0xba7d02de	-0.00096516113
3	0x3d61a3d8	0.055087894
4	0xbcc0df47	-0.023543967
5	0xbcd910f6	-0.026497345
6	0xbc40ee1e	-0.011775522
7	0xbcd80835	-0.0263711
8	0xba13e3d1	-0.0005641552
9	0x3c9cd0a6	0.01914246
10	0xbd010acb	-0.031504434
11	0x3c49897c	0.012300845
12	0xbc175272	-0.009235965
13	0xbd2da057	-0.04238924
14	0xbce8a09d	-0.028396899
15	0xbc0c322b	-0.008556883
16	0xbd659b84	-0.056056514
17	0x3c84c364	0.01620645
18	0x3d6da5f3	0.05801959
19	0xbd8c3cae	-0.06847511
20	0x3bf15bf8	0.0073657
21	0x3d2e6e36	0.042585574
22	0x3d1dde45	0.03854205
23	0x3cffae73	0.031211114
24	0xbc093865	-0.008375262
25	0x3cafbeea	0.02145334
26	0x3d4367cf	0.04770642
27	0xbc50aee2	-0.012737008
28	0xbcfa7277	-0.03057216
29	0xbc9142c4	-0.017732032
30	0xbd162e47	-0.036665227
31	0x3bc52c24	0.006017225

graph_embed_generation.gat_cgra.lin.weight f4 [128, 7]
0	0x3dbde717	0.092725925
1	0x3e183816	0.14865145
2	0x3da12d53	0.07869973
3	0x3d95b99e	0.07310794
4	0x3bad5570	0.005289726
5	0x3e51ef18	0.20501363
6	0x3ca05d2f	0.019575683
7	0xbc9d2b56	-0.019185703
8	0xbe5eae1f	-0.2174611
9	0x3da26f69	0.07931406
10	0xbe0288ce	-0.127475
11	0x3e326150	0.17419934
12	0xbe5a8cf5	-0.21342833
13	0xbe148306	-0.14503106
14	0x3c858f77	0.01630376
15	0x3d616a6f	0.055033144
16	0xbd8f86d5	-0.07008139
17	0xbda7245d	-0.081612326
18	0xbca37ad3	-0.019956028
19	0xbd8e2132	-0.06939925
20	0xbc0c9657	-0.008580766
21	0xbdeaaf2d	-0.114591934
22	0xbdad04e6	-0.084482
23	0xbca08a7b	-0.019597283
24	0xbda00d34	-0.07815018
25	0x3e2c3a25	0.16819055
26	0x3e67b406	0.22627267
27	0xbd14d9cd	-0.036340524
28	0x3dae758e	0.085185155
29	0xbdfb4579	-0.1226911
30	0xbdb00486	-0.08594613
31	0xbe6e4f64	-0.23272473
32	0xbdb6937c	-0.08914849
33	0xbe860ddc	-0.2618245
34	0xbe6b144a	-0.22956958
35	0x3e5a15c0	0.2129736
36	0xbd8d6daa	-0.069056824
37	0xbd7109ec	-0.058847353
38	0xbd95f5cd	-0.073222734
39	0xbdcfbe9a	-0.10143776
40	0xbcf6fdd8	-0.030150339
41	0x3d4a7dd3	0.0494364
42	0x3e1bf84f	0.15231441
43	0x3d40142a	0.04689423
44	0x3c9029c1	0.017598035
45	0xbdc9dcef	-0.09856593
46	0x3e87430e	0.26418346
47	0x3ed9d010	0.42541552
48	0xba50b698	-0.0007961779
49	0x3d5fa704	0.054602638
50	0xbdf90bf1	-0.12160481
51	0x3dfc6c81	0.12325383
52	0xbd17a296	-0.03702029
53	0x3e321676	0.1739138
54	0x3d57e791	0.052711073
55	0xbdab2bb4	-0.08357945
56	0x3e62c907	0.22146998
57	0xbd2f674a	-0.042823114
58	0x3d04406e	0.032288007
59	0xbd5f5ebc	-0.054533705
60	0x3dd66c59	0.104698844
61	0xbd818464	-0.0632408
62	0x3da6feef	0.081540935
63	0x3d63f2a9	0.05565134
64	0x3dfbca19	0.122944064
65	0x3e388e73	0.1802309
66	0x3d852a1e	0.06502174
67	0xbd731c48	-0.059353143
68	0xbccdbdb3	-0.02511487
69	0xbea55dc8	-0.32298112
70	0x3ac3e65c	0.0014945972
71	0xbe082075	-0.13293631
72	0xbe01366b	-0.12618415
73	0x3e3318e3	0.17489962
74	0xbd8d16ef	-0.0688914
75	0xbd94be2d	-0.07262836
76	0x3e6b4263	0.22974543
77	0xbe4b2607	-0.19838725
78	0x3c7a6dc8	0.015284963
79	0x3db2f4c2	0.0873809
80	0xbd544fb3	-0.05183382
81	0x3c50a8aa	0.012735525
82	0xbd956d87	-0.07296281
83	0x3e4eacee	0.20183155
84	0x3e1eef31	0.15520932
85	0x3d507069	0.050888453
86	0xbe2aaf78	-0.16668499
87	0xbd0fa912	-0.035073347
88	0xbc40667d	-0.011743185
89	0xbd8f2864	-0.06990126
90	0x3e68e089	0.22741903
91	0xbe057db5	-0.13036235
92	0x3d460367	0.04834309
93	0x3e38dbee	0.18052647
94	0xbe974333	-0.29543456
95	0xbe5232b7	-0.20527159
96	0x3e3630f6	0.17792115
97	0x3e61965c	0.22030014
98	0x3df89b76	0.12139027
99	0xbd8080ae	-0.06274544
100	0x3e24a316	0.16077837
101	0xbe633272	-0.22187212
102	0x3d6e0066	0.05810585
103	0xbe1b93f3	-0.15193157
104	0xbe85f1cf	-0.26161048
105	0xbdb9759d	-0.09055636
106	0xbe78f737	-0.24313055
107	0xbe832cd5	-0.25620142
108	0x3b9eba01	0.0048439507
109	0xbe07acb2	-0.13249472
110	0xbcdf31b5	-0.027245382
111	0xbcfebb54	-0.031095184
112	0xbe13e2ff	-0.14442061
113	0xbcdc96e3	-0.026927417
114	0xbddfd585	-0.109293975
115	0x3ce33f17	0.027740045
116	0xbe1419aa	-0.14462915
117	0x3e04576f	0.12923978
118	0xbe13da0e	-0.1443865
119	0x3d4c2699	0.049841497
120	0xbc3fc9f8	-0.011705868
121	0xbd0222cf	-0.031771477
122	0x3c92af9b	0.017906
123	0xbe8803f1	-0.26565507
124	0x3de9db16	0.114187405
125	0x3e820f8b	0.25402483
126	0xbe3d713d	-0.18500228
127	0x3ddcbde2	0.10778405
128	0x3d889eac	0.06670889
129	0xbdb4254c	-0.08796176
130	0xbd93b4d5	-0.07212225
131	0x3d982d4f	0.07430517
132	0xbe800bd0	-0.25009012
133	0xbd186d25	-0.037213463
134	0xbe808779	-0.25103357
135	0xbd8d6159	-0.06903333
136	0xbc9ef94f	-0.019405989
137	0xbe1a3da6	-0.1506258
138	0xbce0eba3	-0.02745611
139	0x3e7969e9	0.24356808
140	0x3dd69b87	0.10478883
141	0xbd4397ef	-0.047752317
142	0xbe3b61d2	-0.18299034
143	0x3e17fa68	0.14841616
144	0xbdc49b9c	-0.09599993
145	0x3c081031	0.008304642
146	0xbd82f0ae	-0.06393562
147	0x3eaa28bb	0.332342
148	0x3eb04166	0.34424895
149	0xbdf71ea8	-0.12066394
150	0xbe02abe1	-0.12760879
151	0x3dd52bd9	0.10408754
152	0x3dda2c08	0.106529295
153	0x3dbb1085	0.0913401
154	0xbd05ec19	-0.032695863
155	0xbd4d2594	-0.050084665
156	0x3bebe522	0.0071989456
157	0xbe39ec9d	-0.18156667
158	0xbe21ff6d	-0.15820093
159	0x3d5eae83	0.054365646
160	0xbdbc3ec8	-0.09191662
161	0x3d16b310	0.03679186
162	0x3e76e525	0.24110849
163	0x3e272434	0.16322404
164	0xbd7d0bde	-0.061778896
165	0x3e9b6586	0.30350894
166	0xbd9a8090	-0.075440526
167	0x3c834a0c	0.01602652
168	0xbdd17c6e	-0.10228811
169	0x3d8f2dd1	0.06991161
170	0x3dab5331	0.08365477
171	0xbd8191c6	-0.06326632
172	0xbb55d6a8	-0.0032629166
173	0xbcc5a318	-0.02412562
174	0x3c69487e	0.014238475
175	0xbd6fdc23	-0.058559548
176	0xbcfc6df6	-0.030814152
177	0xbce1c460	-0.02755946
178	0x3d675c0e	0.056484275
179	0x3d06b4f2	0.032887407
180	0x3e157d25	0.1459852
181	0xbd723370	-0.059131086
182	0x3e5d9349	0.21638216
183	0x3e25419c	0.16138309
184	0x3aac72a2	0.0013156722
185	0x3e127fcb	0.14306562
186	0x3e044aaa	0.12919107
187	0xbdb52eff	-0.088468544
188	0xbdf3a7fd	-0.118972756
189	0xbd985903	-0.07438853
190	0x374f0b2b	1.2340762e-05
191	0x3b25e9f1	0.0025316442
192	0x3dfa412e	0.12219463
193	0xbc8a391a	-0.016872931
194	0xbe061a22	-0.13095906
195	0xbd3a5910	-0.045495093
196	0xbdbc74bf	-0.09201955
197	0xbbdc17fd	-0.006716727
198	0xbc548847	-0.012971944
199	0x3e41075c	0.18850464
200	0x3e214e87	0.15752612
201	0x3bb5eff6	0.005552287
202	0x3dd1f378	0.10251516
203	0xbdbabc9e	-0.09118007
204	0xbd90bb25	-0.07066945
205	0x3d122c4d	0.03568678
206	0xbd75e71d	-0.06003486
207	0x3da8553f	0.082193844
208	0xbe69b41e	-0.22822616
209	0xbde89b33	-0.11357727
210	0x3dbe0288	0.092778265
211	0xbdcc483f	-0.09974717
212	0xbdc62edf	-0.09676909
213	0xbd908a37	-0.070576124
214	0xbdf5bf70	-0.119994044
215	0xbe532f46	-0.20623502
216	0xbd660739	-0.05615923
217	0xbe2653d1	-0.16242911
218	0xbe59280f	-0.21206687
219	0xbdd04f7c	-0.101714104
220	0xbdc46d89	-0.09591205
221	0xbd0bbb76	-0.034114324
222	0x3dda03d3	0.10645261
223	0xbe54f570	-0.20796752
224	0x3e6f83da	0.23390141
225	0xbd55147b	-0.052021485
226	0x3db4e922	0.08833529
227	0x3c549516	0.012974998
228	0x3d4b602d	0.049652267
229	0x3d1193a4	0.03554119
230	0x3cd7b764	0.026332565
231	0xbd96d721	-0.07365251
232	0x3e2edfb9	0.17077531
233	0x3dc4e8d6	0.096147224
234	0x3da09479	0.07840819
235	0xbd4e4cc0	-0.050366163
236	0xbd368db3	-0.04456873
237	0xbe24c19c	-0.16089481
238	0x3df8c8ee	0.12147699
239	0x3daaba71	0.08336342
240	0xbd6ae0db	-0.057343345
241	0x3d717145	0.058945913
242	0xbd7959b8	-0.060876578
243	0x3e047611	0.12935664
244	0xbe2042ae	-0.15650436
245	0x3e42006c	0.18945473
246	0xbd628e32	-0.05531139
247	0xbda24021	-0.07922388
248	0x3e2e52a6	0.17023715
249	0x3d16f92c	0.036858723
250	0x3c7e0afc	0.015505549
251	0x3d94fc6c	0.07274708
252	0x38ca87c5	9.6574e-05
253	0xbe340b7d	-0.17582507
254	0x3dd928d8	0.106034935
255	0x3d01ff7a	0.031737782

graph_embed_generation.fc_metadata.weight f4 [32, 10]
0	0xbd547c0e	-0.05187612
1	0x3d911083	0.070832275
2	0x3d76db1b	0.06026755
3	0xbdb3947e	-0.08768557
4	0x3d78b466	0.060718916
5	0xbeaad3f5	-0.33364835
6	0xbd55c173	-0.05218644
7	0xbe069016	-0.13140902
8	0xbea70c14	-0.32626402
9	0x3dcabb28	0.098989785
10	0xbe58bb56	-0.21165213
11	0x3d3ef15d	0.0466169
12	0x3e1d35e7	0.15352593
13	0xbdd1de84	-0.102475196
14	0x3f14e5b1	0.5816298
15	0xbf0a0205	-0.5390933
16	0x3e8c6866	0.274234
17	0x3e25ea71	0.16202714
18	0xbe5f6593	-0.21816091
19	0x3ec6e06d	0.38843098
20	0x3de1acda	0.11019297
21	0x3e9849de	0.29743856
22	0x3ded38ea	0.11583121
23	0xbea4d2da	-0.32192117
24	0xbe95f547	-0.29288694
25	0xbeca5714	-0.3951956
26	0x3c7028cb	0.014658163
27	0x3c1b7eff	0.009490727
28	0xbd78f04f	-0.06077605
29	0xbea617e7	-0.3244011
30	0x3d816d10	0.0631963
31	0xbe367af2	-0.17820337
32	0x3e35e044	0.17761332
33	0x3d83c403	0.06433871
34	0xbeacfc20	-0.33786106
35	0x3ceeeed2	0.029166613
36	0xbe9fc4ba	-0.31204778
37	0x3e21db83	0.15806393
38	0xbdff693a	-0.12471242
39	0x3c1574c0	0.009122074
40	0x3de17f46	0.110106036
41	0x3e8450da	0.25842935
42	0x3e132c5a	0.14372388
43	0xbe559951	-0.20859267
44	0x3c574728	0.013139524
45	0x3eb34292	0.35011727
46	0x3f0309d7	0.5118689
47	0x3e12f894	0.14352638
48	0xbd78aec1	-0.060713533
49	0xbf0dd28d	-0.553994
50	0xbe899b55	-0.2687632
51	0xbdd98946	-0.10621886
52	0xbd856bee	-0.065147266
53	0xbf052497	-0.52008957
54	0xbd7b9593	-0.061421942
55	0x3e70e19e	0.23523566
56	0x3dfcca52	0.12343277
57	0xbea2bd3c	-0.31785
58	0xbd595d7c	-0.05306767
59	0x3c088565	0.008332585
60	0xbe0905a4	-0.13381058
61	0xbe57a9b1	-0.21060826
62	0xbd8757e3	-0.0660856
63	0xbe483326	-0.19550762
64	0x3ec1b8be	0.3783626
65	0xbda4ecf6	-0.08053009
66	0x3d9ce75a	0.07661314
67	0x3e24e997	0.16104732
68	0xbdeddf16	-0.11614816
69	0xbe43fe63	-0.1914001
70	0x3e834e12	0.256455
71	0xbefb3b72	-0.4906879
72	0xbe951317	-0.29116127
73	0x3e060859	0.13089122
74	0x3e7bc588	0.24587071
75	0xbe600c26	-0.21879634
76	0x3d87b088	0.066254675
77	0x3e458d5d	0.19292207
78	0x3da7e6d9	0.081983276
79	0xbea50857	-0.32232925
80	0x3d1aaf5b	0.03776489
81	0xbe4e2cb2	-0.20134237
82	0x3e114064	0.1418472
83	0x3c69657e	0.014245389
84	0xbe157d51	-0.14598586
85	0xbc5ca86f	-0.013467892
86	0xbd91cd4b	-0.07119235
87	0x3eb49856	0.35272473
88	0xbf1d0cf0	-0.61347866
89	0xbe8aac0c	-0.27084386
90	0x3c8ffa7b	0.017575493
91	0xbe228cfd	-0.15874095
92	0x3e881851	0.26581052
93	0xbe00992f	-0.12558435
94	0x3e9db7ce	0.30804294
95	0x3d4b61aa	0.049653687
96	0x3e2126d5	0.1573747
97	0x3d97d278	0.074131906
98	0x3b85daec	0.0040849354
99	0xbe879a2b	-0.26484808
100	0x3e1ab00f	0.15106224
101	0xbeaf1d5c	-0.34202087
102	0x3e9755df	0.29557702
103	0x3d539b0c	0.051661536
104	0x3ec4bd1c	0.3842553
105	0xbd0eee7f	-0.034895416
106	0xbdd471f4	-0.10373297
107	0x3e275e6b	0.16344611
108	0x3f045864	0.51697373
109	0x3da9dbe7	0.08293896
110	0xbed2ed31	-0.41196588
111	0xbdc905b0	-0.09815538
112	0x3f183f36	0.5947145
113	0xbbadba98	-0.0053017847
114	0xbe04850e	-0.12941381
115	0xbe3af1d9	-0.1825632
116	0x3def977d	0.11698816
117	0x3e09a133	0.13440399
118	0xbddedf86	-0.108824775
119	0xbe1169c2	-0.142005
120	0xbeeccd2e	-0.4625029
121	0xbec81cda	-0.39084512
122	0xbf0d9cd0	-0.553174
123	0x3e6ec5e1	0.23317672
124	0x3d079fcb	0.033111375
125	0xbe89c036	-0.26904458
126	0xbe4118b3	-0.18857078
127	0x3e927b74	0.28609812
128	0xbe80c271	-0.25148347
129	0xbecedee8	-0.4040444
130	0xbe53025b	-0.20606367
131	0x3e22ffa3	0.1591783
132	0xbe3c33d7	-0.1837915
133	0x3ea83573	0.3285328
134	0x3e0df8bc	0.13864416
135	0xbd012b6e	-0.03153556
136	0x3ea4b3e9	0.3216851
137	0x3e4b5852	0.1985791
138	0x3db0beec	0.086301655
139	0x3d600039	0.054687712
140	0x3d945d5a	0.07244368
141	0x3f02d1f0	0.5110159
142	0xbe1540e6	-0.14575538
143	0x3f0f032a	0.558642
144	0xbe02d3bc	-0.12776083
145	0x3d0c3604	0.0342312
146	0x3e893a7e	0.26802438
147	0x3f08d50f	0.534501
148	0xbdc47a32	-0.095936194
149	0x3eb73708	0.35784173
150	0xbe8c26bb	-0.273733
151	0x3e8e9ff3	0.27856407
152	0xbe84b52f	-0.25919482
153	0x3e43b7ec	0.1911313
154	0x3e89085c	0.2676419
155	0x3ef06278	0.46950126
156	0x3e0bbd5c	0.13646454
157	0xbe381d65	-0.17979963
158	0xbeacdecb	-0.33763728
159	0x3e5c2d9d	0.21501775
160	0xbebf69c9	-0.37385395
161	0x3e6c9a57	0.23105751
162	0x3e005a30	0.12534404
163	0xbea19a3b	-0.3156298
164	0x3b2ade85	0.0026072573
165	0xbd0e2b0e	-0.03470903
166	0xbdc991de	-0.09842275
167	0x3f14a864	0.58069444
168	0xbe0e81c1	-0.13916685
169	0xbd12151c	-0.035664663
170	0xbeb57a5e	-0.3544492
171	0xbe99b291	-0.30019048
172	0xbc34cf92	-0.011035817
173	0x3da1d29f	0.07901501
174	0x3a7f54a9	0.00097400934
175	0x3e275450	0.16340756
176	0x3d5e189d	0.05422269
177	0x3d4d3afe	0.050105087
178	0x3e465aad	0.19370528
179	0x3dd19b62	0.10234715
180	0x3d5f71ba	0.054551817
181	0x3f218448	0.6309247
182	0xbe8c90d0	-0.27454233
183	0xbd9bd9fb	-0.07609936
184	0x3d97ead9	0.074178405
185	0xbee21403	-0.44155893
186	0xbdeb2129	-0.11480934
187	0xbdfe1cc3	-0.124078296
188	0xbd908035	-0.070557036
189	0xbe45ed8a	-0.19328895
190	0xbee3d508	-0.44498467
191	0xbe409460	-0.188066
192	0xbe61bf74	-0.2204569
193	0xbdd58a8c	-0.10426816
194	0xbe748256	-0.23877844
195	0x3e9780e4	0.29590523
196	0x3ea85c8d	0.3288311
197	0x3d8aee68	0.06783754
198	0x3dc75712	0.09733404
199	0xb9f36dc2	-0.00046430348
200	0x3efef135	0.497934
201	0x3e51b2a9	0.2047831
202	0x3e2003ee	0.15626499
203	0x3ddb0fc2	0.10696365
204	0xbd9b10ca	-0.07571562
205	0xbca720de	-0.020401414
206	0x3db2d368	0.08731729
207	0x3d69e6eb	0.057104986
208	0xbeb54f5f	-0.35412118
209	0x3e1b9aee	0.1519582
210	0xbd91f970	-0.071276546
211	0x3e1ea4fb	0.15492623
212	0x3e60eae6	0.21964607
213	0x3ef64813	0.48101863
214	0x3d0f667b	0.035009842
215	0x3e7a5cb1	0.24449421
216	0xba10a485	-0.00055176794
217	0xbd14e975	-0.036355454
218	0x3e148a60	0.14505911
219	0xbf2c7374	-0.6736367
220	0xbd430975	-0.04761644
221	0x3d57d7e6	0.05269613
222	0xbebc7194	-0.36805403
223	0xbeb04c4d	-0.34433213
224	0xbcb6e7e5	-0.022327373
225	0xbe1b33da	-0.15156499
226	0x3ee6b039	0.45056322
227	0xbcb871c0	-0.022515178
228	0x3e00b719	0.12569846
229	0x3d1ce72b	0.038306396
230	0xbd28c89e	-0.04120695
231	0x3a8cc2fe	0.0010739265
232	0xbdb85829	-0.0900119
233	0xbe8df5dc	-0.27726638
234	0xbcbb9fc0	-0.022903323
235	0x3daf249e	0.08551906
236	0x3e4feff6	0.20306382
237	0x3e4c81d2	0.19971398
238	0x3e9848f2	0.29743153
239	0xbde1e374	-0.11029711
240	0xbdc3d1d7	-0.09561508
241	0xbcaa1386	-0.020761263
242	0x3db18dff	0.08669662
243	0x3bde68be	0.0067873886
244	0xbe017215	-0.12641175
245	0xbe7f0ec2	-0.24907973
246	0x3db5a75a	0.088698104
247	0x3e812301	0.25222018
248	0x3efd1b95	0.49435106
249	0xbd77e4bc	-0.060520872
250	0xbda0244d	-0.07819424
251	0x3cffbf34	0.031219102
252	0x3ddade64	0.10686949
253	0x3c488685	0.012239103
254	0x3e8cf44e	0.2753014
255	0x3eaa94a3	0.33316526

graph_embed_generation.fc_metadata.bias f4 [32]
0	0xbe8d514b	-0.27601084
1	0x3e6bce6e	0.23027965
2	0x3dc4edac	0.09615645
3	0xbdd4dbe9	-0.10393507
4	0xbdde9689	-0.10868556
5	0x3eb83c9c	0.3598374
6	0x3d87c5a6	0.06629495
7	0xbe2c3df7	-0.16820513
8	0xbd729fbd	-0.05923437
9	0xbe6efe85	-0.23339279
10	0x3d0069f6	0.031351052
11	0xbe0cea0a	-0.13761154
12	0x3dba9a4e	0.091114625
13	0x3db919a5	0.090380944
14	0xbe93d825	-0.28875843
15	0x3df82055	0.12115542
16	0x3e57c0ac	0.21069592
17	0x3d15c6d1	0.03656656
18	0xbe35e48a	-0.17762962
19	0x3e3f6d37	0.18694006
20	0x3e7a2ffa	0.24432364
21	0xbd7665b9	-0.060155604
22	0x3e85e04e	0.26147693
23	0xbd0e67bf	-0.03476691
24	0xbe1ce54d	-0.15321846
25	0x3e593317	0.21210895
26	0x3e31ba5e	0.1735625
27	0xbe6687e8	-0.22512782
28	0x3e06f426	0.13179073
29	0x3e1de7df	0.15420483
30	0x3c2bf844	0.010496203
31	0xbe15c78b	-0.14626901

graph_embed_generation.mlp.0.weight f4 [32, 96]
0	0x3e283116	0.16424975
1	0xbd33a411	-0.043857638
2	0xbe9581f7	-0.29200718
3	0xbe144add	-0.14481683
4	0x3cf92826	0.030414652
5	0x3da71152	0.081576005
6	0xbdece7c3	-0.115676425
7	0xbda8e6e2	-0.082471624
8	0x3c64a9f0	0.013956532
9	0xbeba2e34	-0.36363375
10	0xbe844611	-0.25834706
11	0x3d0109fb	0.03150366
12	0x3ccf0b09	0.025273817
13	0x3e81ef54	0.25377905
14	0xbc6ac6e0	-0.014329642
15	0x3d3e3ae3	0.046442878
16	0xbd403d77	-0.046933617
17	0x3e38ee24	0.18059593
18	0x3e533851	0.20626952
19	0xbe87bc36	-0.2651078
20	0x3f08dbb7	0.5346026
21	0xbd7492a2	-0.059710152
22	0xbdb57637	-0.08860438
23	0x3de455e6	0.11149196
24	0x3e728d82	0.23686793
25	0xbdf3e0f3	-0.1190814
26	0x3daa1384	0.083045036
27	0x3e1c20f4	0.15246946
28	0x3df8b9b4	0.12144795
29	0xbe09526c	-0.13410348
30	0xbdc0f82f	-0.09422337
31	0x3de3647d	0.11103151
32	0x3c3513d4	0.011052091
33	0xbd895dfd	-0.0670738
34	0x3d2070c8	0.039170057
35	0xbe45d3f0	-0.19319129
36	0xbcfa5297	-0.03055696
37	0xbdb82441	-0.0899129
38	0xbd5b4796	-0.053535067
39	0x3d9b2706	0.075758025
40	0x3d662bf4	0.05619426
41	0xbe437d67	-0.19090806
42	0x3db6f489	0.0893336
43	0xbc09630c	-0.008385431
44	0x3db06f36	0.08614962
45	0x3dedaf24	0.11605671
46	0xbe0065b0	-0.1253879
47	0xbd8ca6f6	-0.06867783
48	0xbdb57a98	-0.088612735
49	0x3de233a6	0.110450074
50	0xbdfb4f55	-0.12270991
51	0x3da24700	0.079236984
52	0xbd89a8ff	-0.067216866
53	0xbd618ccd	-0.05506592
54	0x3d1ea7f1	0.03873438
55	0xbd6dca5a	-0.058054306
56	0xbea0046b	-0.3125337
57	0xbe94bbec	-0.29049623
58	0x3e5404ed	0.20705004
59	0x3e0d7a80	0.13816261
60	0xbe87b5e9	-0.26505974
61	0xbdb7430e	-0.089483365
62	0x3e522c98	0.20524824
63	0xbd1b507c	-0.037918553
64	0x3dc5065b	0.09620353
65	0x3e66bd5f	0.22533177
66	0xbce4c248	-0.027924672
67	0x3d6c56b3	0.05769987
68	0x3df76115	0.12079064
69	0xbd7da0fa	-0.061921097
70	0x3e245b64	0.16050488
71	0xbe323e11	-0.17406489
72	0xbd361fc3	-0.044463884
73	0xbea2fb28	-0.31832242
74	0xbe19151d	-0.1494946
75	0x3dc46060	0.095886946
76	0xbe3aeff3	-0.18255596
77	0x3d1a35ff	0.03764915
78	0xbd057d62	-0.032590277
79	0xbcac8c9b	-0.02106314
80	0xbe4c13e0	-0.19929457
81	0xbe01736c	-0.12641686
82	0xbbf7cf9a	-0.00756259
83	0x3d0e3f19	0.034728143
84	0x3dc90541	0.09815455
85	0x3ee9891c	0.4561242
86	0xbd2eee65	-0.04270782
87	0x3e36698d	0.17813702
88	0xbdad35ca	-0.08457525
89	0x3e2a7dc2	0.16649535
90	0xbaed1651	-0.0018088316
91	0xbd3431f6	-0.04399296
92	0x3d3a7a1d	0.045526613
93	0xbe3220f3	-0.17395382
94	0xbe6a2099	-0.22863998
95	0x3e0da0a7	0.13830815
96	0x3b828c65	0.0039840215
97	0x3e858049	0.26074436
98	0x3d9c59f5	0.076343454
99	0xbe30bd36	-0.17259678
100	0x3dfe62c6	0.12421183
101	0x3dbd7385	0.09250549
102	0xbc7ff0b2	-0.015621351
103	0xbe910b59	-0.2832897
104	0xbdf3bdac	-0.119014114
105	0x3c9d103a	0.019172776
106	0x3e182705	0.14858635
107	0xbdee49b8	-0.116351545
108	0xbd809a71	-0.06279457
109	0x3e4ddfb3	0.20104866
110	0xbd258699	-0.040411565
111	0xbe263553	-0.16231279
112	0xbd86408b	-0.06555279
113	0xbea692de	-0.32533926
114	0xbe760678	-0.24025905
115	0x3e031c4a	0.1280376
116	0x3dfe19cb	0.12407263
117	0x3e0b5ac9	0.1360885
118	0xbe114337	-0.14185797
119	0xbdc45e37	-0.095882826
120	0x3da5bf3b	0.08093115
121	0xbda60c22	-0.08107783
122	0x3d492583	0.04910804
123	0x3e5fb27c	0.2184543
124	0xbd11ee30	-0.035627544
125	0x3c98774a	0.018611569
126	0xbe2d18f7	-0.16904055
127	0x3d30cdbc	0.043164954
128	0x3c35dbaa	0.011099735
129	0x3e29f9e5	0.16599233
130	0xbd03778f	-0.03209644
131	0x3ca3aab3	0.019978857
132	0x3e4999e0	0.19687605
133	0x3c80cba9	0.015722113
134	0xbe13375d	-0.14376588
135	0xbe3ba9d1	-0.18326499
136	0x3df33e43	0.1187711
137	0xbd612a2e	-0.054971866
138	0xbe4915da	-0.19637242
139	0x3d100298	0.035158724
140	0xbe58e14b	-0.21179692
141	0xbcd530b1	-0.026024194
142	0xbe4895c6	-0.19588384
143	0xbe2813a6	-0.16413745
144	0xbc302160	-0.010750145
145	0xbc7ab52c	-0.015301984
146	0xba86a449	-0.001027235
147	0xbeb57a4b	-0.35444865
148	0x3e9f4454	0.31106818
149	0xbe080ef6	-0.13286957
150	0xbe16b9ad	-0.14719267
151	0x3e589dd2	0.21153954
152	0xbe2eee92	-0.17083195
153	0x3d491927	0.049096253
154	0x3e8283d7	0.2549121
155	0xbcb2959f	-0.02179986
156	0x3dac23eb	0.08405288
157	0xbeaf5743	-0.34246263
158	0xbdc590c0	-0.096467495
159	0xbc7dc5c0	-0.015489042
160	0xbea77fa3	-0.32714567
161	0xbe395469	-0.18098606
162	0xbe04ce15	-0.12969239
163	0xbe686926	-0.22696361
164	0xbd8c698c	-0.06856069
165	0xbdcc304f	-0.09970152
166	0xba6aab48	-0.00089519145
167	0xbb50cf7f	-0.0031861959
168	0x3e7f2390	0.2491591
169	0x3e985fc6	0.2976057
170	0x3e7ab796	0.24484095
171	0xbb838622	-0.0040137926
172	0xbdbabff6	-0.09118645
173	0xbcdae011	-0.026718171
174	0xbe52575f	-0.20541142
175	0xbe714a87	-0.23563586
176	0xbe592577	-0.21205698
177	0x3de25bb3	0.110526465
178	0xbdb27bd4	-0.087150246
179	0x3d730d57	0.059338894
180	0xbdb9fd66	-0.09081535
181	0x3d908364	0.07056311
182	0xbe4754f5	-0.19466002
183	0x3dca3588	0.098734915
184	0x3d26deb7	0.04073974
185	0x3da64ab2	0.08119716
186	0xbe33479d	-0.17507787
187	0x3e3ebc91	0.1862662
188	0x3e498ca0	0.1968255
189	0x3e5a04ec	0.2129094
190	0x3e1d58e4	0.1536594
191	0x3e16d728	0.14730513
192	0xbd76d317	-0.060259905
193	0x3e424840	0.18972874
194	0xbdc420da	-0.095765784
195	0xbe6d9277	-0.23200403
196	0x3e895110	0.26819658
197	0x3db966c3	0.09052803
198	0x3e7ae82b	0.24502628
199	0xbe89a06a	-0.268802
200	0x3de12c93	0.1099483
201	0x3d8b6b25	0.068075456
202	0xbec201f8	-0.37892127
203	0x3be65755	0.0070294538
204	0xbcbf922b	-0.023385128
205	0x3e615929	0.22006668
206	0xbd9431f8	-0.07236093
207	0xbd1508e7	-0.036385443
208	0x3d55dd8e	0.052213244
209	0x3e5d76a6	0.21627292
210	0x3e0f2dbd	0.13982292
211	0xbe248cfe	-0.16069409
212	0xbcb1587c	-0.021648638
213	0x3e33ad80	0.17546654
214	0xbedd330a	-0.43203002
215	0xbe66a387	-0.22523318
216	0xbdd09ea9	-0.10186512
217	0xbadb59b9	-0.0016735113
218	0x3df777b1	0.12083376
219	0xbea2d354	-0.31801856
220	0x3e5924e1	0.21205474
221	0x3e107b61	0.14109565
222	0xbdc75377	-0.097327165
223	0x3e8f2eeb	0.27965483
224	0x3e1b6846	0.15176496
225	0xbe20b3c3	-0.15693574
226	0x3d8feb3a	0.07027288
227	0xbe22cc6f	-0.15898298
228	0x3e0b5f28	0.13610518
229	0x3deb293d	0.11482475
230	0x3db4fcc5	0.088372745
231	0xbdd6b5ac	-0.1048387
232	0xbd4a76d2	-0.049429722
233	0xbe87a2a6	-0.26491278
234	0xbe806518	-0.25077128
235	0xbecaff53	-0.39647922
236	0xbc891c44	-0.01673711
237	0xbe92f43c	-0.2870196
238	0xbe03dfdd	-0.12878366
239	0x3d12d7d9	0.03585038
240	0xbe7a26a0	-0.24428797
241	0x3e17cb0f	0.14823554
242	0x3e07b982	0.1325436
243	0x3d9881d0	0.07446635
244	0x3e4b8d47	0.19878112
245	0x3eaf3fb9	0.34228304
246	0x3cc2c96b	0.023777684
247	0x3e2212b8	0.15827453
248	0xbe04afb9	-0.12957658
249	0xbe15a751	-0.14614607
250	0x3e1a1193	0.15045767
251	0x3d608b12	0.054820128
252	0xbde3d330	-0.11124265
253	0x3c846ecc	0.016166113
254	0x38aee525	8.339648e-05
255	0x3d6c8c67	0.057751086

graph_embed_generation.mlp.0.bias f4 [32]
0	0xbc69f0f0	-0.014278635
1	0x3c5313a5	0.012883102
2	0x3d8b2a9f	0.06795239
3	0xbdef7a2a	-0.11693223
4	0xbdc2061e	-0.09473823
5	0xbb1fb451	-0.0024368952
6	0xbdd182f9	-0.10230059
7	0xbca9d543	-0.020731574
8	0xbd4dc246	-0.0502341
9	0xbd8aba60	-0.067738295
10	0x3d08b8b8	0.033379287
11	0xbe0173d8	-0.12641847
12	0xbd9613ad	-0.073279716
13	0xbd134bf4	-0.035961106
14	0xbdb16c9b	-0.08663293
15	0x3d7e5f51	0.06210262
16	0xbdbe576e	-0.0929402
17	0x3dc4780c	0.095932096
18	0xbdfd368c	-0.123639196
19	0x3beaa237	0.007160451
20	0x3d7506f4	0.059821084
21	0xbce1cf94	-0.027564801
22	0x3d490805	0.049079914
23	0xbc774672	-0.015092479
24	0xbdf3f4dc	-0.119119376
25	0x3c3b0ecd	0.011417103
26	0x3c5b1ab4	0.013373066
27	0x3c8e2acd	0.017354393
28	0x3d31c324	0.04339899
29	0x3dbbf690	0.091778874
30	0xbc6adb20	-0.01433447
31	0x3c61951d	0.0137684615
