results/checkpoints/mapzero_MESH_8x8.pth (torch, 64214 bytes, 25 tensors)

graph_embed_generation.gat_dfg.att_src f4 [1, 4, 32]
-0.047449015 0.19909963 -0.18541625 -0.13185385 -0.09512977 0.0082732905 -0.19610453 0.023113051
-0.11149557 -0.17911586 -0.015777566 -0.08801449 0.12012486 -0.006437366 0.047350064 -0.0036297059
-0.12413569 -0.15259284 0.33912998 0.052408412 0.29012474 0.037493527 -0.05595729 -0.19987828
0.10496229 0.0064854715 -0.10686893 0.015828913 -0.19343615 -0.07862287 -0.2043682 -0.0573751
0.03914957 0.1916376 -0.079832785 -0.0094619375 0.14680359 0.17895523 -0.073925 0.25757098
-0.1889184 -0.053590477 0.11947178 0.06248397 -0.10322379 0.1231225 0.3869766 -0.10301116
0.059394095 0.24123812 -0.19222571 0.25531644 -0.142472 0.0036229782 0.1880903 0.019375943
-0.036446903 -0.16414876 -0.3791546 0.061747957 0.21311209 -0.12591055 0.11771307 -0.099687345
0.132637 -0.09213246 0.008392105 0.03379098 0.063509054 0.040132996 0.11096736 -0.24609841
-0.04454214 -0.07391338 -0.062856235 -0.0012653203 -0.023982048 0.09348575 0.07234423 0.17637324
0.03747697 -0.034538087 0.074752115 -0.07582156 -0.0013884965 -0.03858985 0.23080118 0.08556963
-0.032183632 0.08022595 0.091024965 -0.16063194 0.0013993413 -0.08303255 0.014466941 -0.08791028
0.20856434 0.34190437 -0.08309663 -0.050705034 0.19388041 0.03762512 -0.21698296 0.065637
0.061054606 -0.13812593 0.08122993 -0.123355545 -0.11433903 -0.019892653 0.07304456 -0.12893443
-0.13774797 0.04277386 0.26196954 -0.040389623 0.10499013 -0.000310466 -0.03400445 0.11574295
-0.06856923 0.14826179 0.055505432 -0.060604855 0.08517389 -0.1875562 0.3619922 0.027958993
00000000: e659 42bd c6e0 4b3e c2dd 3dbe b204 07be
00000010: 66d3 c2bd b28c 073c a0cf 48be 9557 bd3c
00000020: ca57 e4bd 266a 37be f43f 81bc f140 b4bd
00000030: 0604 f63d 8af0 d2bb 24f2 413d 5ce0 6dbb
00000040: da3a febd 4c41 1cbe 72a2 ad3e 34aa 563d
00000050: 3b8b 943e d092 193d 7933 65bd e4ac 4cbe
00000060: 78f6 d63d 1484 d43b 19de dabd a3ab 813c
00000070: 2014 46be 0705 a1bd e645 51be 2702 6bbd
00000080: 4d5b 203d a63c 443e 5f7f a3bd 3e06 1bbc
00000090: ae53 163e 0a40 373e fe65 97bd 58e0 833e
000000a0: d373 41be b081 5bbd 9fad f43d 31ef 7f3d
000000b0: ff66 d3bd a627 fc3d cc21 c63e 84f7 d2bd
000000c0: 3947 733d 2007 773e d1d6 44be d6b8 823e
000000d0: 2ee4 11be 7d6f 6d3b be9a 403e 4cba 9e3c
000000e0: 5949 15bd 9d16 28be 8d20 c2be 6deb 7c3d
000000f0: 0e3a 5a3e b2ee 00be 8d13 f13d e128 ccbd
00000100: fed1 073e f1af bcbd 0a7f 093c 6968 0a3d
00000110: 0911 823d 7f62 243d db42 e33d 3901 7cbe
00000120: d271 36bd e65f 97bd c5ba 80bd 1bd9 a5ba
00000130: 0076 c4bc 7575 bf3d 3629 943d 309b 343e
00000140: 7481 193d cf77 0dbd a317 993d 5648 9bbd
00000150: 36fe b5ba 6410 1ebd 2557 6c3e 213f af3d
00000160: fcd2 03bd 814d a43d 4c6b ba3d b37c 24be
00000170: 1a6a b73a f80c aabd c006 6d3c 4e0a b4bd
00000180: e491 553e 170e af3e 912e aabd 15b0 4fbd
00000190: 9688 463e cc1c 1a3d c830 5ebe b16c 863d
000001a0: 6514 7a3d e270 0dbe e15b a63d d5a1 fcbd
000001b0: 952a eabd ebf5 a2bc 6398 953d 6307 04be
000001c0: ce0d 0dbe a533 2f3d df20 863e 976f 25bd
000001d0: 1105 d73d 0bc6 a2b9 4048 0bbd a40a ed3d
000001e0: 066e 8cbd f0d1 173e aa59 633d cc3c 78bd
000001f0: a66f ae3d bc0e 40be 0b57 b93e 420a e53c

graph_embed_generation.gat_dfg.att_dst f4 [1, 4, 32]
0.07030783 0.22732249 -0.0007636571 0.06428652 -0.07567128 0.10575326 0.12840748 -0.2139497
0.06388093 0.2070213 0.0826896 -0.18917517 0.05299015 0.11623431 0.08541689 -0.25321484
0.14330572 0.004478929 0.01315333 0.0016904135 -0.022462657 -0.13869701 -0.06215981 0.092755884
-0.08404045 -0.07191821 -0.23998949 -0.08843176 0.041065417 0.048680574 -0.040503845 0.10184693
0.072628066 -0.16962169 -0.12076526 0.14475875 -0.119647056 0.2959259 0.1350455 0.109671414
-0.044887304 -0.0923941 -0.1452277 -0.13617106 -0.17056033 0.11497133 0.054078486 0.01463501
-0.1404 -0.109227665 -0.104176424 -0.017990591 0.08194549 0.21817335 0.04606374 0.008289319
-0.28421506 0.25347176 -0.23330694 0.03524304 -0.20185544 0.056928035 0.14714618 -0.08933965
-0.14759402 -0.11238389 0.12288082 0.19026178 0.10329554 -0.10187581 0.106077105 0.2316436
-0.09334255 -0.10538432 0.13124165 -0.041644953 -0.13072082 0.14283912 -0.23150046 0.29188934
0.24144398 0.026728634 -0.22347228 -0.090745956 -0.060289755 -0.020440081 -0.01000673 0.014456877
0.01280294 0.009982854 -0.041351534 0.027656628 -0.0042617144 0.15631205 0.015311929 -0.17298576
0.049114835 0.027148044 -0.172394 0.14826043 0.0018916002 0.059670463 -0.006965094 -0.14813311
-0.03482261 -0.07718667 0.02269665 -0.094210565 0.078826085 0.1431463 -0.15836608 0.15724847
-0.12574457 -0.3000716 0.07606016 -0.0455811 0.072712086 0.21763149 -0.2207879 0.18473999
0.15553638 0.24730818 0.1433393 -0.03999752 0.13755259 0.004714402 -0.008144674 0.042030256
00000000: 8dfd 8f3d 3ac7 683e 2930 48ba a7a8 833d
00000010: 8bf9 9abd 2a95 d83d 407d 033e a115 5bbe
00000020: 01d4 823d 64fd 533e 2a59 a93d 23b7 41be
00000030: 330c 593d 410c ee3d 0def ae3d 60a5 81be
00000040: bcbe 123e fbc3 923b 1181 573c dd90 dd3a
00000050: 9b03 b8bc 9706 0ebe 499b 7ebd ccf6 bd3d
00000060: 661d acbd db49 93bd cebf 75be b61b b5bd
00000070: 3634 283d 4865 473d 5ce7 25bd 2095 d03d
00000080: 06be 943d 4fb1 2dbe c753 f7bd a33b 143e
00000090: 8409 f5bd 9983 973e 5e49 0a3e 689b e03d
000000a0: c0db 37bd 1e39 bdbd 92b6 14be 6d70 0bbe
000000b0: 5ea7 2ebe 1776 eb3d 6781 5d3d aec7 6f3c
000000c0: 05c5 0fbe c1b2 dfbd 735a d5bd 0161 93bc
000000d0: 09d3 a73d d668 5f3e 55ad 3c3d edcf 073c
000000e0: a384 91be 0dc7 813e 04e8 6ebe 025b 103d
000000f0: 31b3 4ebe 5f2d 693d 7dad 163e b5f7 b6bd
00000100: e322 17be 8629 e6bd f0a8 fb3d fcd3 423e
00000110: 9d8c d33d 44a4 d0bd f43e d93d fb33 6d3e
00000120: 612a bfbd bcd3 d7bd 3664 063e e693 2abd
00000130: aedb 05be 6b44 123e 750e 6dbe 8572 953e
00000140: 173d 773e 02f6 da3c ebd5 64be 04d9 b9bd
00000150: 64f2 76bd f571 a7bc 45f3 23bc 89dc 6c3c
00000160: 6cc3 513c 208f 233c 3a60 29bd 2790 e23c
00000170: daa5 8bbb 4410 203e e3de 7a3c 2e23 31be
00000180: a32c 493d 9365 de3c 0e88 30be 95d1 173e
00000190: 92ef f73a 0469 743d 713b e4bb 35b0 17be
000001a0: 27a2 0ebd 0b14 9ebd 53ee b93c 78f1 c0bd
000001b0: 926f a13d f294 123e b82a 22be be05 213e
000001c0: 2fc3 00be fca2 99be 6ec5 9b3d 3fb3 3abd
000001d0: 13ea 943d cada 5e3e 3916 62be 7b2c 3d3e
000001e0: ee44 1f3e 5b3e 7d3e 8ac7 123e 71d4 23bd
000001f0: 96da 0c3e 457b 9a3b 3d71 05bc eb27 2c3d

graph_embed_generation.gat_dfg.bias f4 [32]
-0.026352696 -0.003052132 0.02345823 0.0043070465 0.008347743 0.010673632 0.019614004 0.031303603
-0.0011083335 0.022063829 0.0007250137 0.0033922542 0.021269197 0.019317076 0.008794114 0.012998769
0.015919702 0.005105312 -6.2743993e-06 0.00036570753 0.020724352 -0.0028971583 0.0218387 0.02012061
-0.010321917 -0.010287053 0.03153682 -0.018898658 -0.0047080163 0.027521942 0.01182475 0.0062096394
00000000: 9ce1 d7bc 4706 48bb 792b c03c 2022 8d3b
00000010: f9c4 083c 75e0 2e3c 8cad a03c 3538 003d
00000020: 8045 91ba 34bf b43c d90e 3e3a 9550 5e3b
00000030: bd3c ae3c d83e 9e3c 3015 103c caf8 543c
00000040: 096a 823c 764a a73b ae88 d2b6 6fbc bf39
00000050: 1ec6 a93c 40de 3dbb 13e7 b23c fad3 a43c
00000060: 421d 29bc 078b 28bc c12c 013d 5cd1 9abc
00000070: b445 9abb b275 e13c 99bc 413c 3b7a cb3b

graph_embed_generation.gat_dfg.lin.weight f4 [128, 10]
0.004630601 0.27264154 -0.12791361 0.22285587 0.06099867 -0.19462879 -0.21710216 0.046383183
-0.21918124 0.048656855 0.019156754 0.4493593 0.15050794 -0.06808411 0.05721592 -0.003840563
0.071273506 -0.03406184 -0.33286655 0.05007539 0.12793313 -0.30085167 0.22136979 -0.17670324
-0.07749157 -0.053260565 0.10586566 0.07713771 0.21169092 0.06617817 0.011628615 -0.21716207
-0.30580592 -0.039506674 0.17579271 -0.19044662 -0.014080993 0.0029334521 0.13732648 -0.04170951
0.20167354 0.11526738 -0.16800454 -0.044699088 -0.03908798 0.10444807 0.06534389 -0.074578956
-0.20347576 -0.026938802 0.13441825 0.18889765 -0.19303493 -0.24600378 0.33416763 -0.058686685
0.07625142 -0.0053887176 -0.14777069 -0.11125479 -0.06845225 -0.05861256 0.22088955 0.18992901
0.08807683 0.06626458 0.04929782 0.01956338 0.19062762 0.17116427 0.026274435 -0.21512388
0.012181199 0.062285732 -0.062260777 -0.19771884 -0.037075073 0.09027374 0.27156386 -0.06895718
0.2707314 0.083279796 -0.1642917 -0.08738178 -0.23203516 0.21781251 -0.1522541 -0.11089298
-0.14186174 0.20609334 0.1421843 -0.06002417 0.1445813 -0.15775526 0.21118045 0.2716991
-0.18120599 -0.015906919 0.29822397 0.080708526 -0.23020214 -0.14957485 0.10948886 -0.015342306
-0.08702879 -0.0420896 -0.10534501 -0.14842689 0.3064627 0.01536066 -0.11732961 -0.057124488
-0.22466509 0.334345 -0.035634454 0.046521123 0.06604841 0.009475384 0.0069586765 -0.1002528
-0.11455413 0.23252434 -0.041814577 0.2906087 -0.1109961 0.03678736 -0.004902412 -0.06345842
-0.06414967 0.192351 0.0531578 0.23043509 -0.061536625 0.08338769 0.0006297659 -0.018814117
-0.047649756 -0.1315054 -0.20173164 0.17385982 0.10153056 0.13656221 -0.015342427 -0.108227216
0.032910787 -0.1605971 0.04135687 0.10819209 -0.08970338 0.076622054 -0.1929965 0.020144206
-0.19242194 0.11894064 0.013399885 0.051830046 -0.025860183 -0.10484727 0.19836424 0.119091526
0.16943647 -0.13086687 0.20421463 -0.05584569 0.067076966 0.053397294 -0.04120564 -0.053020872
-0.031043017 -0.039171625 0.20426674 0.11588507 -0.09446331 0.003792509 0.016179575 0.07665629
-0.025292385 0.06189998 -0.22196028 0.0125472 -0.13322148 0.30220655 0.0979343 -0.001929291
-0.010537754 -0.15837291 0.08790829 0.08697527 -0.06649921 0.15003009 0.0027332539 0.04818866
-0.13011757 -0.052121405 -0.045975827 0.31911245 -0.10425106 -0.026201824 0.07362371 -0.15911485
0.019468836 0.16319662 -0.06042273 -0.041518074 -0.12271034 -0.1587228 0.14959826 0.16233511
0.12482971 -0.054611776 0.113621324 0.26207557 0.018123664 -0.034746844 -0.17340423 -0.027282724
0.23513678 -0.07005039 -0.10626819 -0.118008144 0.021766478 -0.18018724 -0.06304898 -0.081718005
-0.08394436 0.09443031 0.1833205 0.17197911 0.14379056 -0.16558066 0.095979154 -0.19748309
-0.124555334 -0.062480453 0.05547083 0.2930623 -0.041401118 0.1419676 0.14027706 0.07966402
0.0040521524 0.061490145 0.07590099 -0.0142373275 -0.19859897 0.029821688 0.041036893 0.16624855
-0.07304149 -0.082561664 0.028454298 -0.009769992 0.06379316 -0.093604505 0.08003599 0.052282684
00000000: 4cbc 973b ac97 8b3e c9fb 02be 5434 643e
00000010: bed9 793d c54c 47be 0750 5ebe 4bfc 3d3d
00000020: 0c71 60be 694c 473d a0ee 9c3c 6c12 e63e
00000030: c11e 1a3e af6f 8bbd 3e5b 6a3d f4b1 7bbb
00000040: d8f7 913d 6e84 0bbd 7c6d aabe da1b 4d3d
00000050: e700 033e 3b09 9abe c3ae 623e b2f1 34be
00000060: e6b3 9ebd c027 5abd 18d0 d83d 60fa 9d3d
00000070: 81c5 583e 6c88 873d f285 3e3c bc5f 5ebe
00000080: 9892 9cbe c0d1 21bd 0103 343e 7004 43be
00000090: f7b3 66bc 293f 403b 509f 0c3e 97d7 2abd
000000a0: 8283 4e3e 4e11 ec3d 6209 2cbe 6416 37bd
000000b0: b81a 20bd dfe8 d53d 04d3 853d dabc 98bd
000000c0: f35b 50be c3ae dcbc f0a4 093e 636e 413e
000000d0: f3aa 45be 6ae8 7bbe 0518 ab3e 7361 70bd
000000e0: b429 9c3d d793 b0bb 3351 17be 8dd9 e3bd
000000f0: b130 8cbd b913 70bd df30 623e c07c 423e
00000100: a061 b43d b9b5 873d 83ec 493d 6243 a03c
00000110: e333 433e b045 2f3e 7c3d d73c 6f49 5cbe
00000120: a793 473c 531f 7f3d 2805 7fbd cf76 4abe
00000130: 08dc 17bd 70e1 b83d 6b0a 8b3e 6c39 8dbd
00000140: 4e9d 8a3e 998e aa3d 153c 28be 38f5 b2bd
00000150: a09a 6dbe 3e0a 5f3e 80e8 1bbe dc1b e3bd
00000160: 3444 11be 220a 533e c398 113e e7db 75bd
00000170: 1f0d 143e 988a 21be b03f 583e 251c 8b3e
00000180: 108e 39be 3a4f 82bc d0b0 983e 834a a53d
00000190: 1cba 6bbe 262a 19be b23b e03d 4c5e 7bbc
000001a0: 263c b2bd 2566 2cbd 20bf d7bd 38fd 17be
000001b0: aee8 9c3e 47ab 7b3c 824a f0bd 5efb 69bd
000001c0: 9b0e 66be 452f ab3e 6ff5 11bd ef8c 3e3d
000001d0: 6444 873d a43e 1b3c 9c05 e43b 5751 cdbd
000001e0: 5b9b eabd dc1a 6e3e c345 2bbd aaca 943e
000001f0: ec51 e3bd 58ae 163d 6aa4 a0bb 7df6 81bd
00000200: e760 83bd a9f7 443e febb 593d 2df7 6b3e
00000210: d40d 7cbd 2ac7 aa3d e016 253a 1020 9abc
00000220: 642c 43bd 5aa9 06be bd92 4ebe 4f08 323e
00000230: 41ef cf3d f7d6 0b3e ce5e 7bbc 3ba6 ddbd
00000240: 76cd 063d 9173 24be d265 293d d193 dd3d
00000250: 68b6 b7bd 06ec 9c3d e0a0 45be 7605 a53c
00000260: 420a 45be 2697 f33d 318b 5b3c be4b 543d
00000270: bcd8 d3bc 2aba d6bd ff1f 4b3e 42e6 f33d
00000280: c180 2d3e f701 06be a41d 513e 73be 64bd
00000290: a65f 893d 1fb7 5a3d 3fc7 28bd 6a2c 59bd
000002a0: ed4d febc 6d72 20bd 4d2b 513e 2755 ed3d
000002b0: fb75 c1bd be8b 783b 078b 843c f9fd 9c3d
000002c0: fa31 cfbc d58a 7d3d 8e49 63be c592 4d3c
000002d0: 366b 08be d1ba 9a3e c791 c83d 43e0 fcba
000002e0: 8ba6 2cbc 822c 22be 4309 b43d 1720 b23d
000002f0: bd30 88bd 7da1 193e 6420 333b 7961 453d
00000300: 8a3d 05be 417d 55bd 2651 3cbd b562 a33e
00000310: 9481 d5bd 35a5 d6bc 07c8 963d 01ef 22be
00000320: 1c7d 9f3c 041d 273e d37d 77bd db0e 2abd
00000330: 8f4f fbbd 3b88 22be 4930 193e 2d3b 263e
00000340: b8a6 ff3d 99b0 5fbd 4cb2 e83d c52e 863e
00000350: 1478 943c b552 0ebd e190 31be 0580 dfbc
00000360: b2c7 703e 9476 8fbd 23a3 d9bd 41ae f1bd
00000370: 9d4f b23c 0183 38be d31f 81bd c55b a7bd
00000380: 05eb abbd ae64 c13d 5fb8 3b3e 4b1b 303e
00000390: d53d 133e fa8d 29be b890 c43d 0239 4abe
000003a0: de16 ffbd 81eb 7fbd 6235 633d 430c 963e
000003b0: 3894 29bd f45f 113e caa4 0f3e e426 a33d
000003c0: ebc7 843b 17dd 7b3d fa71 9b3d ae43 69bc
000003d0: 875d 4bbe 9d4c f43c 4d16 283d 0f3d 2a3e
000003e0: c796 95bd 1716 a9bd fd18 e93c 5112 20bc
000003f0: fda5 823d b8b3 bfbd e9e9 a33d 5e26 563d

graph_embed_generation.gat_cgra.att_src f4 [1, 4, 32]
0.071205586 -0.20445956 0.04712113 0.03688203 -0.17168525 0.0968328 0.116868354 -0.057995707
0.0660136 -0.12826923 0.21897866 -0.055333234 0.33815286 0.016388597 -0.095734 -0.03307685
-0.0946838 -0.024726775 -0.11996333 0.11108777 -0.0039626895 0.09756125 -0.021799725 0.15666147
0.15194125 -0.052042563 0.05310567 0.0823176 0.016585454 0.13868095 -0.09234957 0.1244079
-0.17033115 -0.28171465 -0.25942117 0.13872473 0.05105991 0.3359338 0.002154402 0.07238609
0.022771925 0.2561778 -0.09097096 0.030068994 -0.11050496 0.22502719 0.118189484 0.17443897
-0.10448703 0.05685143 0.0706248 0.24919719 0.07672487 -0.23206444 -0.15302995 -0.08457325
-0.3777968 0.08580375 0.069549225 0.018978372 -0.14764439 -0.19697905 0.27389956 -0.09407611
0.054463934 -0.07157767 -0.20204225 -0.11012613 -0.1662478 -0.24854608 -0.06452844 0.15792535
0.1216352 0.1447049 0.13887677 0.014817538 0.05527613 0.079976894 0.010075745 0.063308455
0.28431052 0.17039074 -0.023924667 0.019575395 0.14492318 -0.0633535 -0.10102257 -0.0034647873
0.17610632 -0.056326352 0.007755873 0.2601244 -0.019614983 0.041657075 -0.07282061 -0.21115485
0.031747505 0.064958625 -0.18469784 -0.18136658 -0.3474034 0.002922124 0.09826607 0.004393994
-0.2845533 0.022695055 0.12848337 -0.20475812 0.1367375 -0.11107404 0.10396171 0.032724403
-0.014536047 -0.084009856 0.036567077 0.034584224 -0.06356122 -0.027494514 -0.105214514 0.11498439
0.05671854 0.022424256 0.10350145 -0.023834655 -0.22443576 -0.18525991 0.09727467 -0.09297551
00000000: 3cd4 913d d95d 51be 1602 413d 9d11 173d
00000010: 42ce 2fbe 4650 c63d ad58 ef3d e88c 6dbd
00000020: 2332 873d 0259 03be f13b 603e 1aa5 62bd
00000030: 5f22 ad3e 6141 863c 3010 c4bd 977b 07bd
00000040: 95e9 c1bd ce8f cabc 56af f5bd fc81 e33d
00000050: 73d9 81bb 31ce c73d 5695 b2bc dd6b 203e
00000060: 7d96 1b3e 952a 55bd 5585 593d 2196 a83d
00000070: 38de 873c 6102 0e3e c521 bdbd 92c9 fe3d
00000080: 4a6b 2ebe e73c 90be dad2 84be db0d 0e3e
00000090: 3224 513d 84ff ab3e de30 0d3b 293f 943d
000000a0: 308c ba3c bd29 833e fc4e babd 4053 f63c
000000b0: 6d50 e2bd 876d 663e 540d f23d 21a0 323e
000000c0: 4cfd d5bd 0cdd 683d bca3 903d 8c2d 7f3e
000000d0: ee21 9d3d 4da2 6dbe e2b3 1cbe bd34 adbd
000000e0: 956e c1be e0b9 af3d d36f 8e3d 8878 9b3c
000000f0: 1730 17be e0b4 49be 903c 8c3e faaa c0bd
00000100: 9315 5f3d 5097 92bd 2ae4 4ebe cf89 e1bd
00000110: dd3c 2abe dd82 7ebe 7d27 84bd 2fb7 213e
00000120: e01b f93d 852d 143e b635 0e3e 42c5 723c
00000130: 3969 623d edca a33d bd14 253c dda7 813d
00000140: 2691 913e e97a 2e3e aafd c3bc 945c a03c
00000150: be66 143e 7bbf 81bd ece4 cebd 7c11 63bb
00000160: 3755 343e 76b6 66bd fa24 fe3b 062f 853e
00000170: 9aaf a0bc 9ca0 2a3d f922 95bd fa38 58be
00000180: ac09 023d 0709 853d 6e21 3dbe 29b8 39be
00000190: dcde b1be 1b81 3f3b b93f c93d 7efb 8f3b
000001a0: f8b0 91be fbea b93c 2591 033e 1dac 51be
000001b0: ea04 0c3e c97a e3bd e1e9 d43d 060a 063d
000001c0: 9a28 6ebc 5c0d acbd 5cc7 153d 30a8 0d3d
000001d0: 632c 82bd 2d3c e1bc b57a d7bd f07c eb3d
000001e0: b351 683d 13b3 b73c 91f8 d33d e540 c3bc
000001f0: 7dd2 65be c6b4 3dbe f137 c73d f269 bebd

graph_embed_generation.gat_cgra.att_dst f4 [1, 4, 32]
-0.12463025 -0.25002655 -0.016756078 -0.010273859 0.17682916 -0.0054519963 -0.2113604 0.002865866
-0.20912696 -0.10307774 0.08895375 -0.117032975 0.40835088 -0.10053942 0.17070526 -0.06740621
-0.007140963 -0.23079765 0.09482073 0.041633952 -0.13928598 -0.036969654 -0.28563693 0.042538945
-0.014328517 0.13983417 -0.013188402 -0.1222238 0.23434147 -0.04347158 -0.11706331 0.089885324
0.03735436 0.0976647 0.16910014 -0.19021733 0.01254153 -0.0840116 0.014687698 0.30167556
-0.20502856 -0.26226074 0.1145728 -0.08963863 0.0150485635 0.03700012 -0.16300787 -0.061174992
-0.077361226 -0.12918742 0.052898005 0.29317316 0.12758404 0.18676524 -0.07721555 -0.21831964
-0.21039435 0.045049164 0.21814136 0.30263057 0.01537149 0.21143803 0.069811724 -0.13999178
-0.21484521 0.11721363 0.08633203 0.091730416 0.1512541 -0.0889004 0.022391733 0.21041767
0.07888159 0.058865014 0.021950383 0.042787965 0.0075238626 0.08433742 -0.01782216 -0.104465514
-0.20074002 -0.2603239 0.07222866 0.06977841 -0.09745622 -0.016451316 0.1444584 0.10662718
-0.14560907 0.32486218 0.037999447 -0.13218042 0.07480426 -0.09436589 -0.1911836 -0.063070595
-0.044773415 -0.017239517 0.2777825 -0.06477639 -0.15650913 -0.098421216 0.03280985 -0.0316628
-0.13499686 0.028034037 0.08139647 0.03031298 0.22487615 -0.026123663 0.09734724 0.19258611
-0.12739614 -0.13433686 -0.16687432 0.032258518 0.22560017 -0.00028641056 0.120854296 0.08586067
0.026098007 -0.060319167 0.0127976565 -0.11854932 -0.06562556 0.11897207 0.02362284 0.09770847
00000000: 253e ffbd 7b03 80be 0b44 89bc b053 28bc
00000010: b412 353e a9a6 b2bb dc6e 58be 41d1 3b3b
00000020: 6125 56be 6c1a d3bd 622d b63d fcae efbd
00000030: 5e13 d13e 9de7 cdbd 5ccd 2e3e 440c 8abd
00000040: bdfe e9bb 3856 6cbe 5f31 c23d 5d88 2a3d
00000050: fca0 0ebe 7e6d 17bd 013f 92be 513d 2e3d
00000060: 28c2 6abc b030 0f3e 2b14 58bc 7950 fabd
00000070: 36f7 6f3e 410f 32bd e4be efbd cc15 b83d
00000080: e300 193d 6e04 c83d 9628 2d3e 55c8 42be
00000090: fd7a 4d3c 460e acbd aca4 703c 3875 9a3e
000000a0: 02f3 51be 0a47 86be 25a5 ea3d 7594 b7bd
000000b0: 408e 763c 708d 173d 89eb 26be a192 7abd
000000c0: 906f 9ebd b549 04be 94ab 583d cb1a 963e
000000d0: 64a5 023e 633f 3f3e 3023 9ebd 2f8f 5fbe
000000e0: 9e71 57be 7985 383d 7360 5f3e 65f2 9a3e
000000f0: b4d8 7b3c 3683 583e 73f9 8e3d 015a 0fbe
00000100: 6200 5cbe b30d f03d d9ce b03d 28dd bb3d
00000110: 5be2 1a3e 6a11 b6bd de6e b73c bb77 573e
00000120: ac8c a13d 711c 713d 4ad1 b33c 6f42 2f3d
00000130: bc8a f63b 19b9 ac3d c7ff 91bc 04f2 d5bd
00000140: cb8e 4dbe 2d49 85be 9fec 933d fce7 8e3d
00000150: 2097 c7bd e9c4 86bc e7ec 133e 5a5f da3d
00000160: 8b1a 15be 5654 a63e 4fa5 1b3d 4e5a 07be
00000170: fa32 993d e742 c1bd a2c5 43be 282b 81bd
00000180: 5464 37bd e339 8dbc 8239 8e3e 7ca9 84bd
00000190: ee43 20be 1091 c9bd 9f63 063d dab0 01bd
000001a0: 9e3c 0abe a3a7 e53c 31b3 a63d ed52 f83c
000001b0: ef45 663e 4b01 d6bc fd5d c73d 4b35 453e
000001c0: 2274 02be 9a8f 09be 1ae1 2abe 8221 043d
000001d0: bb03 673e 6029 96b9 7582 f73d b8d7 af3d
000001e0: 7dcb d53c 3b11 77bd 43ad 513c fcc9 f2bd
000001f0: b266 86bd a1a7 f33d b084 c13c 611b c83d

graph_embed_generation.gat_cgra.bias f4 [32]
-0.013018532 -0.011562429 -0.0043267854 -0.036524445 -0.0012017232 -0.016401144 -0.0033563112 -0.004399419
-0.018941453 -0.011785117 0.009573469 -0.0025278172 0.019500725 0.014452482 -0.022733038 0.014195323
0.011830688 0.004578067 0.0076428605 -0.0009398817 -0.0056086746 0.01618755 0.03243935 -0.018088175
-0.017040072 0.013662843 0.012376019 0.013722809 -0.0076568453 -0.032621816 0.029902805 0.01460228
00000000: ae4b 55bc 5870 3dbc b5c7 8dbb a89a 15bd
00000010: 2483 9dba b15b 86bc 8ff5 5bbb 0029 90bb
00000020: 1b2b 9bbc 5d16 41bc 0ada 1c3c bca9 25bb
00000030: fcbf 9f3c 1aca 6c3c a33a babc 8093 683c
00000040: 81d5 413c 9c03 963b f670 fa3b 6562 76ba
00000050: f9c8 b7bb c19b 843c 20df 043d a72d 94bc
00000060: 9f97 8bbc 1eda 5f3c c9c4 4a3c a2d5 603c
00000070: 46e6 fabb 749e 05bd baf6 f43c 673e 6f3c

graph_embed_generation.gat_cgra.lin.weight f4 [128, 7]
0.06333124 0.11701685 0.04711659 0.04149817 -0.026272822 0.17331043 -0.086814344 -0.036886744
-0.23293757 0.06362767 -0.14232342 0.15914348 -0.2282061 -0.08557036 0.020496944 0.050779555
-0.0742485 -0.084973365 -0.02335778 -0.07276707 0.08937168 -0.19717284 -0.17988808 -0.115047716
-0.1697592 0.076414935 0.13446179 0.050835628 0.081252255 -0.104537144 -0.06781307 -0.21024789
-0.066767395 -0.2393244 -0.16338909 0.21901762 -0.05938166 -0.04918239 -0.06313148 -0.091329634
-0.02009385 -0.04039426 0.17234072 0.05898395 0.029708842 -0.08956507 0.2729346 0.4340588
-0.011608748 0.06381061 -0.10380451 0.14089438 -0.014783267 0.19600496 0.074885726 -0.11076543
0.20615895 -0.0628364 0.0122214835 -0.0746564 0.08446754 -0.08335776 0.07781538 0.01421284
0.088902965 0.14615297 0.0354858 -0.08880949 -0.054591823 -0.17854783 0.033876017 -0.08948172
-0.0827389 0.21444929 -0.029175835 -0.03291135 0.11075337 -0.20579135 0.0066443887 0.07868834
-0.06671458 -0.0021907191 -0.087826796 0.15880522 0.20828499 0.08949687 -0.12791964 -0.0040011797
0.019313063 -0.038805444 0.13244794 -0.08213305 0.10883947 0.24092516 -0.23812291 -0.14801712
0.23490271 0.18883812 0.12369994 -0.058494743 0.16487688 -0.21622622 0.06355452 -0.14633192
-0.20496093 -0.07710391 -0.22272009 -0.23578177 0.027492303 -0.10975346 -0.0045746337 0.028843638
-0.096683234 0.039640028 -0.042666767 0.095591724 -0.07665518 0.19702442 -0.018475438 0.037915148
-0.020239007 -0.040291835 0.006439247 -0.27692333 0.102654435 0.22550435 -0.23154436 0.05527684
0.014233067 -0.13857426 -0.12274109 0.023580395 -0.17114474 0.035491504 -0.17672364 0.005163356
0.047341213 -0.08378458 0.03929788 0.12953676 0.086262025 -0.06285044 -0.19799654 0.13611653
-0.1081309 -0.0038965866 -0.037660677 0.31855395 0.31723145 -0.1473588 -0.15370744 0.07783566
0.080275565 0.103855446 -0.04003873 -0.059958354 -0.0027175886 -0.18742548 -0.16407499 0.04834338
-0.09024263 -0.005435266 0.18846627 0.11063415 -0.112819254 0.25220317 -0.12645932 0.10493405
-0.096818775 0.06154524 0.075280964 -0.072783574 -0.012816126 -0.03366392 0.04950224 -0.068932295
-0.046019536 -0.042766612 0.048401296 0.024822079 0.13783705 0.039915685 0.1826871 0.12276333
-0.037191782 0.1077383 0.09387833 -0.12363475 -0.12731175 -0.036211777 0.030904904 0.033422984
0.14874043 0.009762899 -0.10424699 0.013176474 -0.06922139 0.01945638 0.013205963 0.2112553
0.18029249 0.028423978 0.08696774 -0.09531442 -0.08210342 0.024179162 -0.07465109 0.067482606
-0.24271338 -0.09630422 0.14152136 -0.0355916 -0.032615073 -0.0028745537 -0.052260235 -0.13843632
0.014515517 -0.1442128 -0.2043289 -0.0940515 -0.08805552 -0.026301373 0.114166185 -0.16566159
0.1971856 -0.085379854 0.054879215 -0.017802047 0.018849896 0.0047487295 0.045699332 -0.07680835
0.16227977 0.08770985 0.065532014 -0.06314637 -0.057354357 -0.22396356 0.13148658 0.0811339
-0.059473746 0.055420615 -0.06431982 0.12577587 -0.18166548 0.10183687 -0.14850028 -0.17239504
0.07808266 -0.05520133 -0.07654032 0.040623084 0.023928147 -0.15447704 0.12718509 0.053949237
00000000: cfb3 813d 88a6 ef3d 53fd 403d fcf9 293d
00000010: 1a3a d7bc 4a78 313e b8cb b1bd 8e16 17bd
00000020: 3087 6ebe 394f 823d 3bbd 11be 82f6 223e
00000030: dcae 69be 833f afbd 35e9 a73c 39fe 4f3d
00000040: 990f 98bd 8406 aebd d158 bfbc e706 95bd
00000050: 8008 b73d ade7 49be 9534 38be 239e ebbd
00000060: 5bd5 2dbe 6f7f 9c3d 5ab0 093e 0539 503d
00000070: 9567 a63d 9217 d6bd 94e1 8abd 394b 57be
00000080: 58bd 88bd 7511 75be 784f 27be 2846 603e
00000090: 2f3a 73bd 7973 49bd 144b 81bd 080b bbbd
000000a0: dc9b a4bc 7474 25bd 167a 303e 2899 713d
000000b0: f55f f33c e46d b7bd 15be 8b3e f43c de3e
000000c0: 9e32 3ebc 23af 823d 7597 d4bd 9e46 103e
000000d0: 8435 72bc 86b5 483e b05d 993d fcd8 e2bd
000000e0: 551b 533e 5fb0 80bd 9e3c 483c 74e5 98bd
000000f0: 51fd ac3d 79b7 aabd ac5d 9f3d f9dc 683c
00000100: c212 b63d 20a9 153e 8f59 113d c0e1 b5bd
00000110: ad9b 5fbd 3ed5 36be 94c1 0a3d 3142 b7bd
00000120: 0373 a9bd 9898 5b3e 2902 efbc 0dce 06bd
00000130: aad2 e23d f8ba 52be 2cb9 d93b 5a27 a13d
00000140: a7a1 88bd 2b92 0fbb 89de b3bd d69d 223e
00000150: a948 553e 234a b73d 5efd 02be 541c 83bb
00000160: 6e36 9e3c 75f2 1ebd 6fa0 073e 5f35 a8bd
00000170: 3ae7 de3d 16b5 763e 7ed6 73be cd91 17be
00000180: 568a 703e c85e 413e 6556 fd3d 2f98 6fbd
00000190: 7cd5 283e 686a 5dbe df28 823d 09d8 15be
000001a0: 47e1 51be a8e8 9dbd bc10 64be c770 71be
000001b0: 8a37 e13c 6cc6 e0bd cfe6 95bb 7e49 ec3c
000001c0: dc01 c6bd 955d 223d 59c3 2ebd 98c5 c33d
000001d0: 64fd 9cbd c5c0 493e cd59 97bc ea4c 1b3d
000001e0: 46cc a5bc 0d09 25bd 5200 d33b e5c8 8dbe
000001f0: 7d3c d23d 9dea 663e f719 6dbe f869 623d
00000200: cf31 693c 69e6 0dbe ae5f fbbd ac2b c13c
00000210: 9140 2fbe 8a5f 113d 0bf7 34be 5f31 a93b
00000220: dce8 413d 4097 abbd d0f6 203d 49a5 043e
00000230: 25aa b03d bbb7 80bd 9bbf 4abe 2262 0b3e
00000240: bc73 ddbd e05d 7fbb 1542 1abd 8119 a33e
00000250: 296c a23e 3ae5 16be 7c65 1dbe 4d68 9f3d
00000260: 8467 a43d 2ab2 d43d a7ff 23bd e496 75bd
00000270: 9219 32bb 77ec 3fbe 4603 28be b503 463d
00000280: 21d1 b8bd 511a b2bb 4dfd 403e 2894 e23d
00000290: c80d e7bd c620 813e 8d7e 01be aae7 d63d
000002a0: ec48 c6bd dd16 7c3d e82c 9a3d 8e0f 95bd
000002b0: bbfa 51bc 2ee3 09bd dcc2 4a3d 602c 8dbd
000002c0: fb7e 3cbd 0b2c 2fbd 7040 463d ac57 cb3c
000002d0: 2825 0d3e a17e 233d 5412 3b3e 576b fb3d
000002e0: 6956 18bd e6a5 dc3d 4843 c03d 3734 fdbd
000002f0: 035e 02be cd52 14bd 482c fd3c 8ae6 083d
00000300: 694f 183e 91f4 1f3c 727f d5bd 23e2 573c
00000310: f2c3 8dbd fc62 9f3c d35d 583c 4f53 583e
00000320: 989e 383e 67d9 e83c 241c b23d 3534 c3bd
00000330: d625 a8bd 6113 c63c ace2 98bd 5234 8a3d
00000340: db89 78be 263b c5bd faea 103e 7fc8 11bd
00000350: 6297 05bd 0263 3cbb d40e 56bd 40c2 0dbe
00000360: 7ed2 6d3c 85ac 13be 983b 51be 139e c0bd
00000370: 7456 b4bd fa75 d7bc f6cf e93d 31a3 29be
00000380: 06eb 493e a2db aebd 07c9 603d 99d5 91bc
00000390: 196b 9a3c 3b9b 9b3b 392f 3b3d b24d 9dbd
000003a0: ab2c 263e 39a1 b33d a635 863d e252 81bd
000003b0: 67ec 6abd b456 65be 6ba4 063e 8829 a63d
000003c0: be9a 73bd ba00 633d 1cba 83bd 64cb 003e
000003d0: 8406 3abe d98f d03d 7510 18be 5388 30be
000003e0: cde9 9f3d ca1a 62bd 2cc1 9cbd 6464 263d
000003f0: f604 c43c 3b2f 1ebe cf3c 023e e0f9 5c3d

graph_embed_generation.fc_metadata.weight f4 [32, 10]
-0.022703748 0.09587856 -0.0039764135 -0.15183124 0.19432575 -0.23835997 -0.05215028 -0.13131753
-0.32603765 0.034717556 -0.19859415 0.06791683 0.17943293 -0.076390974 0.66908824 -0.57161385
0.2740434 0.16191484 -0.21801043 0.41418684 0.09312308 0.23550434 0.12934835 -0.30810702
-0.25757676 -0.413436 0.01464805 0.009484197 -0.06073413 -0.31058654 0.050909676 -0.22890611
0.17088094 0.0576825 -0.40417013 0.08106544 -0.31183362 0.15795442 -0.12462663 0.002503038
0.12442727 0.24411727 0.13237357 -0.21970037 0.103186585 0.4066122 0.51151454 0.14342777
-0.06067142 -0.5648427 -0.2844129 -0.12321508 -0.014390028 -0.46901911 -0.09919947 0.23586173
0.12334646 -0.31762907 -0.05303132 0.059039015 -0.162533 -0.245266 -0.03933574 -0.16866586
0.2411892 -0.094937116 0.076560274 0.16093634 -0.11606754 -0.16456342 0.24854925 -0.45906588
-0.25134853 0.17039664 0.19145042 -0.22422637 0.06620885 0.192788 0.08192612 -0.2825256
0.02459469 -0.21364845 0.14896654 0.021452276 -0.073337495 0.028389448 -0.07114298 0.35248148
-0.6130527 -0.263436 0.040358376 -0.07577663 0.283439 -0.10769505 0.32996324 0.06099765
0.15726607 0.074081086 0.0040820963 -0.24685524 0.1405885 -0.31249604 0.356662 0.112910494
0.27403092 -0.113378756 -0.103661485 0.16333225 0.5166139 0.14417048 -0.39494896 -0.0561126
0.59648067 -0.00312886 -0.16577317 -0.15531743 0.11690789 0.13431105 -0.10874972 -0.13974203
-0.45644423 -0.35110995 -0.5201298 0.26566476 -0.048538838 -0.2714312 -0.18844004 0.28590044
-0.25130758 -0.37111342 -0.23812799 0.16202426 -0.13251519 0.37945145 0.03481551 -0.11106705
0.32146358 0.1984432 0.08624172 0.10579601 0.08910908 0.47718814 -0.17614907 0.5277485
-0.11196038 0.04542488 0.26784074 0.5341311 -0.09586994 0.3270908 -0.2648972 0.2741384
-0.25234053 0.19766474 0.2872441 0.43671963 0.13636969 -0.17967477 -0.3374042 0.22153053
-0.31513256 0.3284972 0.09672988 -0.34394217 0.09064204 -0.0017732917 -0.09835451 0.58029354
-0.13907115 -0.0641694 -0.3818577 -0.30219737 0.038769454 0.1287577 -0.11467249 0.12898168
0.05418556 0.05007055 0.19357085 0.1520717 0.07560254 0.57916784 -0.33051997 -0.1322105
0.16827315 -0.38584304 -0.114729546 -0.12399208 -0.07050858 -0.24931744 -0.4773263 -0.15818757
-0.17711808 -0.061007895 -0.31292546 0.25242284 0.32860264 0.067791186 0.09726722 0.042721532
0.48960304 0.08193992 0.14184068 0.09257273 -0.16544598 -0.022157323 0.08725709 0.057065487
-0.35387516 0.13753277 -0.08300633 0.09567607 0.22394928 0.48513237 0.054373797 0.24657142
-0.00055138423 -0.0363303 0.14495832 -0.66871816 -0.026963193 0.07430428 -0.37886822 -0.3551568
0.09257381 -0.13682957 0.4502497 -0.022499535 0.12561075 0.027212342 -0.033432115 -0.06498661
-0.08478641 -0.2718987 -0.15608779 0.06711226 0.20292689 0.19957647 0.29722828 -0.10505632
-0.1028042 -0.020301072 0.10453225 0.024679948 -0.20530407 -0.2680712 0.08863753 0.25204352
0.49400547 -0.04258484 -0.08297285 0.05057362 0.13537656 0.040813886 0.37023938 0.29643804
00000000: 36fd b9bc fa5b c43d 934c 82bb a679 1bbe
00000010: 54fd 463e a314 74be 889b 55bd 1a78 06be
00000020: 68ee a6be ff33 0e3d 445c 4bbe fb17 8b3d
00000030: 44bd 373e df72 9cbd 5e49 2b3f 4955 12bf
00000040: 6b4f 8c3e 01cd 253e 203e 5fbe 4c10 d43e
00000050: 50b7 be3d 0d28 713e e573 043e 34c0 9dbe
00000060: 1ae1 83be e2ad d3be 60fe 6f3c 9b63 1b3c
00000070: 5ac4 78bd 3305 9fbe aa86 503d 5d66 6abe
00000080: 6afb 2e3e 7c44 6c3d 63ef cebe a305 a63d
00000090: a8a8 9fbe cebe 213e 3f3c ffbd 020a 243b
000000a0: b9d3 fe3d e1f9 793e f08c 073e 22f9 60be
000000b0: 7d53 d33d 792f d03e 9ef2 023f bbde 123e
000000c0: 9882 78bd 8899 10bf 919e 91be 3058 fcbd
000000d0: 27c4 6bbc 4623 f0be 1729 cbbd bd85 713e
000000e0: 129d fc3d 47a0 a2be 5f37 59bd e5d2 713d
000000f0: 0d6f 26be 0327 7bbe 831e 21bd beb6 2cbe
00000100: 4dfa 763e 646e c2bd a2cb 9c3d 7fcc 243e
00000110: d2b4 edbd 5083 28be b283 7e3e af0a ebbe
00000120: c1b0 80be 757c 2e3e 940b 443e 999b 65be
00000130: 8198 873d 386a 453e e2c8 a73d 32a7 90be
00000140: ce7a c93c a9c6 5abe af8a 183e afbc af3c
00000150: f831 96bd fd90 e83c 69b3 91bd 7478 b43e
00000160: 06f1 1cbf 15e1 86be d34e 253d c730 9bbd
00000170: eb1e 913e 398f dcbd f1f0 a83e acd8 793d
00000180: 5b0a 213e d3b7 973d 1bc3 853b 9fc7 7cbe
00000190: 6ff6 0f3e 7bff 9fbe 679c b63e 9e3d e73d
000001a0: c84d 8c3e 1f33 e8bd 794c d4bd 9240 273e
000001b0: cf40 043f 6da1 133e c036 cabe 53d6 65bd
000001c0: f5b2 183f 8f0d 4dbb 71c0 29be 880b 1fbe
000001d0: 676d ef3d d688 093e 2cb8 debd 8918 0fbe
000001e0: 0fb3 e9be afc4 b3be 3a27 05bf 3605 883e
000001f0: a9d0 46bd 08f9 8abe 6df6 40be 8b61 923e
00000200: 63ab 80be 9402 bebe d3d7 73be b0e9 253e
00000210: 10b2 07be 7647 c23e b59a 0e3d 1f77 e3bd
00000220: e096 a43e b234 4b3e 809f b03d 94ab d83d
00000230: d27e b63d 0152 f43e 6c60 34be 871a 073f
00000240: 7c4b e5bd 700f 3a3d 6c22 893e d1bc 083f
00000250: 7657 c4bd 7278 a73e 9ba0 87be de5b 8c3e
00000260: c732 81be a068 4a3e a911 933e b799 df3e
00000270: 7fa4 0b3e aafc 37be 3ec0 acbe e6d8 623e
00000280: 0e59 a1be c930 a83e 511a c63d 3019 b0be
00000290: 89a2 b93d cc6d e8ba 176e c9bd 1e8e 143f
000002a0: ab68 0ebe 3f6b 83bd da82 c3be 9db9 9abe
000002b0: b8cc 1e3d 0fd9 033e 69d9 eabd c613 043e
000002c0: aef1 5d3d c716 4d3d 7037 463e afb8 1b3e
000002d0: 81d5 9a3d 5844 143f ea39 a9be 3062 07be
000002e0: cc4f 2c3e 388d c5be 53f7 eabd 8fef fdbd
000002f0: cd66 90bd 124d 7fbe 1d64 f4be ecfb 21be
00000300: 715e 35be 6ae3 79bd c437 a0be 913d 813e
00000310: 9b3e a83e 1bd6 8a3d 0934 c73d c6fc 2e3d
00000320: 40ad fa3e 1ed0 a73d af3e 113e c596 bd3d
00000330: ac6a 29be 4683 b5bc d8b3 b23d 80bd 693d
00000340: 202f b5be 64d5 0c3e 39ff a9bd d1f1 c33d
00000350: f652 653e 4563 f83e 0fb7 5e3d 387d 7c3e
00000360: c58a 10ba 15cf 14bd f46f 143e 1d31 2bbf
00000370: eae1 dcbc d82c 983d 04fb c1be 1dd7 b5be
00000380: 5697 bd3d 0d1d 0cbe 2187 e63e f250 b8bc
00000390: 1ba0 003e 6bec de3c 1df0 08bd b317 85bd
000003a0: 7fa4 adbd 4e36 8bbe 7ad5 1fbe 2772 893d
000003b0: 11cc 4f3e c65d 4c3e 4e2e 983e c527 d7bd
000003c0: 028b d2bd 6f4e a6bc 0115 d63d 9a2d ca3c
000003d0: 3b3b 52be a140 89be 9887 b53d d90b 813e
000003e0: 49ee fc3e 716d 2ebd abed a9bd 4926 4f3d
000003f0: 27a0 0a3e 762c 273d 0490 bd3e bac6 973e

graph_embed_generation.fc_metadata.bias f4 [32]
-0.21161848 0.20411082 0.08248619 -0.097250804 -0.09735592 0.30888113 0.039544642 -0.20768762
-0.0664106 -0.25102192 -0.02995746 -0.1396869 0.05840223 0.03917295 -0.25804353 0.114415
0.23906949 -0.013256281 -0.12133751 0.14362599 0.25847477 -0.06456763 0.2723718 -0.03990789
-0.17100793 0.1833771 0.14831778 -0.23542376 0.09690362 0.15148003 0.0200169 -0.1825918
00000000: 84b2 58be 6d02 513e 85ee a83d 6e2b c7bd
00000010: 8a62 c7bd ab25 9e3e 90f9 213d 10ac 54be
00000020: 4802 88bd f285 80be 5969 f5bc 150a 0fbe
00000030: 2d37 6f3d d173 203d 481e 84be 6952 ea3d
00000040: a2ce 743e df30 59bc cd7f f8bd b112 133e
00000050: ce56 843e 093c 84bd 5174 8b3e 7576 23bd
00000060: b41c 2fbe 35c7 3b3e 9ee0 173e ed12 71be
00000070: 6875 c63d 951d 1b3e 7bfa a33c 58f9 3abe

graph_embed_generation.mlp.0.weight f4 [32, 96]
0.09531403 -0.016336806 -0.2680087 -0.113919795 0.09979803 0.018475143 -0.122402616 -0.11162134
0.016496751 -0.38287908 -0.20925699 0.0040038363 0.0066207764 0.25744134 0.066867575 -0.06410202
-0.010793882 0.089026354 0.083273456 -0.20485814 0.5018522 0.03429951 0.05273279 0.30231678
0.18040183 0.10479786 0.03397651 0.13629608 0.23973085 -0.10507363 -0.08278312 0.05830787
0.025064012 -0.05184518 0.12172293 -0.2085189 -0.053607505 -0.17814153 -0.120637216 0.08781966
0.06330062 -0.1682746 0.08274778 -0.03272274 0.09258618 0.003537673 -0.12979548 -0.097940594
-0.112571105 0.076684736 -0.09999798 0.021178385 -0.07042874 -0.029783862 0.044425048 -0.020281415
-0.3376893 -0.26021826 0.22226828 0.16891123 -0.3085746 -0.120244056 0.18768132 -0.04667798
0.06296699 0.24190132 -0.09743508 0.103410065 0.08370404 -0.015325659 0.2328575 -0.09751514
0.024811555 -0.19949952 -0.081049204 0.117051445 -0.13455926 0.010016474 -0.119859904 -0.0515885
-0.21273035 -0.08526502 -0.071395315 0.072535545 0.060138118 0.39973652 -0.03790998 0.20036723
-0.07743912 0.21745144 -0.040093068 -0.080047235 0.06426875 -0.112071574 -0.23109092 0.17454311
-0.020033602 0.09156684 0.1278226 -0.13515201 -0.059600018 0.041574467 -0.046396166 -0.1608793
-0.14558902 0.028249279 0.22554204 -0.103129156 -0.045314327 0.15129174 -0.1188816 -0.012406373
-0.0613034 -0.37317884 -0.2891748 0.20029135 0.11464547 0.058344577 -0.12572446 -0.11925371
0.06723723 -0.23574328 0.23576176 0.23509634 -0.21602345 0.050578885 -0.09776672 0.01082501
-0.03565086 0.16920725 -0.08728218 0.052809305 0.2128783 0.11387845 -0.05841199 -0.20718873
0.083322674 -0.110656425 -0.18065865 0.08310313 -0.24509285 0.1028284 -0.14805883 -0.104494356
0.05025595 -0.025859773 -0.013829301 -0.24036683 0.29585567 -0.19021194 -0.13641033 0.14176367
-0.12005535 0.04691395 0.20734963 -0.014278116 0.14624256 -0.2904072 -0.08466913 0.021474661
-0.23532031 -0.1368888 -0.10346983 -0.2393482 -0.085400365 -0.084116764 -0.016669279 -0.09669019
0.21016143 0.17631996 0.16149002 0.038712457 -0.07455923 0.06614318 -0.16766179 -0.1775633
-0.1372514 0.12764484 -0.063494265 0.084002405 -0.116436556 0.11833465 -0.19352096 0.09095975
0.10513639 0.036304533 -0.19450639 0.2048985 0.11589861 0.10517593 0.10760442 0.035285596
-0.038770374 0.2557816 -0.13288622 -0.3086855 0.30260897 0.11636472 0.26812685 -0.2992666
0.1880963 0.13071246 -0.39991087 -0.074455015 0.053670093 0.30408958 0.035229933 -0.056742232
0.05238096 0.2380629 0.11740896 -0.12580131 0.03821616 0.16653556 -0.37584868 -0.20426054
-0.21438612 0.057109676 0.123008676 -0.40922302 0.28676093 0.099639684 -0.061494607 0.32827526
0.16445468 -0.22913603 -0.014639 -0.2161589 0.14235802 0.20430706 0.072907284 -0.10130448
-0.040859774 -0.24433827 -0.25906217 -0.3992405 0.0045932326 -0.2157727 -0.16305266 0.04762418
-0.23898417 0.20458335 0.07504956 0.167246 0.22293778 0.3368387 -0.015089235 0.21533361
-0.15937382 -0.26899457 0.17577212 0.18943353 -0.13924223 -0.0368458 0.033879984 0.04498014
00000000: 0134 c33d c4d4 85bc 7038 89be c84e e9bd
00000010: e962 cc3d 2f59 973c 39ae fabd bb99 e4bd
00000020: 3224 873c ba08 c4be 7747 56be 9d32 833b
00000030: 19f3 d83b 5acf 833e def1 883d eb47 83bd
00000040: d3d8 30bc 7353 b63d 468b aa3d 55c6 51be
00000050: 6379 003f a57d 0c3d 57fe 573d 44c9 9a3e
00000060: 42bb 383e 43a0 d63d f42a 0b3d 3391 0b3e
00000070: 017c 753e d830 d7bd 328a a9bd 3cd4 6e3d
00000080: 0b53 cd3c 9d5b 54bd df49 f93d fb85 55be
00000090: 8b93 5bbd bc6a 36be a510 f7bd cbda b33d
000000a0: c1a3 813d 2d50 2cbe ab77 a93d 4808 06bd
000000b0: d39d bd3d 4ed8 673b 1be9 04be 1495 c8bd
000000c0: ae8b e6bd e30c 9d3d becb ccbd 4b7e ad3c
000000d0: f13c 90bd 49fd f3bc 0af7 353d 3625 a6bc
000000e0: 9de5 acbe 543b 85be 4c9a 633e 11f7 2c3e
000000f0: 7dfd 9dbe 8442 f6bd 882f 403e 6931 3fbd
00000100: d6f4 803d fbb4 773e 0b8c c7bd a8c8 d33d
00000110: 066d ab3d 7918 7bbc 3272 6e3e 05b6 c7bd
00000120: 9a41 cb3c 9a49 4cbe 20fd a5bd abb8 ef3d
00000130: e7c9 09be 231c 243c 1c79 f5bd 774e 53bd
00000140: fcd5 59be 6d9f aebd b537 92bd 848d 943d
00000150: 6353 763d 44aa cc3e 7f47 1bbd 112d 4d3e
00000160: 6798 9ebd 97ab 5e3e a138 24bd ceef a3bd
00000170: 569f 833d c885 e5bd 19a3 6cbe 6ebb 323e
00000180: 821d a4bc 6587 bb3d ede3 023e 4a65 0abe
00000190: 261f 74bd fd49 2a3d e809 3ebd 8bbd 24be
000001a0: 4a15 15be 086b e73c 7ef4 663e 6135 d3bd
000001b0: 849b 39bd 39ec 1a3e 3278 f3bd 1a44 4bbc
000001c0: 4619 7bbd 4c11 bfbe b80e 94be 2d19 4d3e
000001d0: 3fcb ea3d b9fa 6e3d eabd 00be 4a3b f4bd
000001e0: acb3 893d b066 71be 886b 713e 18bd 703e
000001f0: 4035 5dbe ce2b 4f3d eb39 c8bd 625b 313c
00000200: a306 12bd aa44 2d3e 00c1 b2bd 924e 583d
00000210: c5fc 593e 1b39 e93d 6941 6fbd 4829 54be
00000220: 14a5 aa3d d69f e2bd 95fe 38be f931 aa3d
00000230: 9ff9 7abe b297 d23d bc9c 17be 2301 d6bd
00000240: 2fd9 4d3d e0d7 d3bc 4b94 62bc b922 76be
00000250: 657a 973e ebc6 42be 26af 0bbe 7f2a 113e
00000260: 94df f5bd d828 403d 7653 543e c2ee 69bc
00000270: 9cc0 153e 41b0 94be 0267 adbd a1eb af3c
00000280: cff7 70be 942c 0cbe fde7 d3bd b217 75be
00000290: 63e6 aebd 6945 acbd 038e 88bc 8205 c6bd
000002a0: 8f34 573e 388d 343e a45d 253e f490 1e3d
000002b0: 82b2 98bd 1376 873d 88af 2bbe 27d3 35be
000002c0: a28b 0cbe 54b5 023e 4809 82bd 7409 ac3d
000002d0: 4a76 eebd 7059 f23d 5c2a 46be 1b49 ba3d
000002e0: bf51 d73d 10b4 143d af2c 47be ead0 513e
000002f0: 405c ed3d 7a66 d73d b55f dc3d a187 103d
00000300: afcd 1ebd cef5 823e 5313 08be 070c 9ebe
00000310: 90ef 9a3e a050 ee3d ec47 893e 7939 99be
00000320: 519c 403e 7dd9 053e 1ec1 ccbe df7b 98bd
00000330: 2cd5 5b3d a1b1 9b3e 434d 103d 8b6a 68bd
00000340: 6b8d 563d c3c6 733e 1c74 f03d 0fd2 00be
00000350: 8c88 1c3d 4c88 2a3e 3d6f c0be ad29 51be
00000360: 0988 5bbe d6eb 693d f9eb fb3d ae85 d1be
00000370: 54d2 923e e40f cc3d c5e1 7bbd b213 a83e
00000380: cf66 283e a3a2 6abe 6bd8 6fbc c258 5dbe
00000390: 4dc6 113e df35 513e 6a50 953d b978 cfbd
000003a0: 945c 27bd d033 7abe cca3 84be 4069 ccbe
000003b0: d482 963b 85f3 5cbe 47f7 26be 9211 433d
000003c0: 44b8 74be 4c7e 513e 95b3 993d 8942 2b3e
000003d0: cd49 643e 1f76 ac3e d738 77bc 6a80 5c3e
000003e0: e432 23be a8b9 89be 9bfd 333e ddfa 413e
000003f0: 8495 0ebe 9feb 16bd bdc5 0a3d 183d 383d

graph_embed_generation.mlp.0.bias f4 [32]
0.008329203 -0.04419036 0.071035296 -0.06865311 -0.080094494 0.015406283 -0.05403212 -0.027922247
-0.059652656 -0.02248426 0.04535488 -0.10360634 -0.07154908 -0.017009798 -0.04482501 0.020039504
-0.13104777 0.091873765 -0.08722519 0.004277284 0.09613864 0.0062156906 0.046071537 0.016238336
-0.058186967 -0.028288731 -0.025665533 0.009217103 0.06260143 0.09968572 0.024000306 -0.0050915037
00000000: 3677 083c f300 35bd f47a 913d 009a 8cbd
00000010: 9508 a4bd a26a 7c3c c950 5dbd 32bd e4bc
00000020: 5856 74bd e930 b8bc 0ac6 393d 902f d4bd
00000030: 5388 92bd 2258 8bbc 6e9a 37bd e329 a43c
00000040: 6331 06be 5028 bc3d 1fa3 b2bd 7528 8c3b
00000050: 56e4 c43d feac cb3b 82b5 3c3d 4206 853c
00000060: 7555 6ebd c5bd e7bc 8640 d2bc 5503 173c
00000070: 2e35 803d 0728 cc3d 4a9c c43c a1d6 a6bb

graph_embed_generation.mlp.1.weight f4 [32, 32]
0.31629026 0.23020838 0.53788376 0.15826485 -0.20249358 0.16227002 -0.6556928 -0.45391998
-0.16815746 0.23801506 -0.26643693 0.20161656 -0.19136836 0.3231041 0.09452507 0.19871466
-0.09127769 -0.32772258 -0.3124501 0.24263951 0.17333408 -0.021447858 -0.08774017 0.3456859
-0.40132183 -0.38187188 0.054950774 -0.27173096 -0.14066325 0.004357777 -0.079568595 0.28636053
0.19717522 -0.13473764 -0.32829374 -0.36642075 -0.01349415 0.28016493 0.38758454 -0.18597685
0.1629008 0.38176852 -0.08615653 -0.07478233 -0.49341863 0.16504213 0.2818689 -0.21756405
0.24286854 -0.11753572 -0.07870639 -0.016139261 -0.2671794 -0.3991297 -0.38053432 -0.43015346
-0.092920974 0.022040553 -0.011597812 0.06712338 0.025364464 0.12177579 0.08408118 0.4138519
-0.19417797 -0.14143622 -0.019177457 0.13361172 -0.23884363 0.118889496 0.0900079 -0.17136553
0.2619351 -0.1126888 0.43004686 -0.11877123 -0.09438323 0.58341104 0.24510619 0.15502101
-0.42504227 0.0041756853 -0.027303036 0.040964603 0.31135044 0.10055133 -0.2716963 0.13162363
-0.16402496 -0.34606752 -0.40745687 0.5181697 -0.24103507 -0.43982667 0.2861527 0.026670052
0.18461177 -0.39143354 -0.12923941 -0.10222395 -0.05002396 0.15379931 -0.2502538 0.1560466
-0.37231207 0.08149217 -0.43830782 0.5334761 0.0991942 -0.05462695 -0.006232864 -0.09916228
0.045116786 0.35767344 0.12588374 -0.15435904 -0.20680992 0.1904038 -0.16024294 0.164911
0.17965122 -0.3124859 -0.3227873 0.1565471 0.20676608 -0.31990078 0.45844805 0.10944108
0.018022884 0.23066938 0.02455949 -0.1802313 0.5258704 -0.0997376 0.21793233 -0.23388854
-0.21954198 -0.101537555 -0.08105145 -0.55336404 -0.32517877 -0.24592029 -0.2592534 0.34137595
0.18237075 0.574196 -0.18975583 -0.14123996 -0.018775294 0.092341684 -0.11942447 0.1019936
-0.31951776 -0.109335385 -0.2612391 -0.18356471 0.040817056 -0.19889191 0.13942198 -0.078912795
0.07909212 0.13209896 0.38320073 0.024896916 0.12073941 -0.31779432 0.11095842 0.24663495
-0.057645444 -0.1964818 0.0625683 0.23126656 0.014841993 0.037687644 0.080585435 -0.11281149
0.5791214 0.102503404 0.15521678 0.04403812 0.052016377 -0.7519298 -0.30005875 0.21988386
-0.041541513 0.25950676 0.122943364 0.15165284 -0.15566099 -0.08194836 0.47358647 -0.40776953
-0.045761444 0.010942896 0.21161976 -0.041065928 -0.18565476 -0.0474017 0.19240811 0.04487066
0.102584355 -0.14707832 -0.05924726 0.119632885 -0.049283057 0.20690829 0.14841883 -0.3370593
0.31393316 -0.0067740106 -0.16414969 -0.50733536 0.16484891 0.23866662 0.4871126 0.032724947
-0.6071921 0.4791444 -0.18252635 0.17875823 0.33752632 -0.1304554 0.005623803 0.33815378
0.1666115 0.34183523 -0.052098386 0.6813993 0.14883186 0.04891439 0.03817481 -0.15234752
-0.21855943 0.08645918 -0.18043995 -0.32878882 0.23734452 0.022983247 0.012209668 0.03820327
-0.041741505 -0.05987059 -0.25059065 -0.15260646 -0.5219821 -0.09191632 -0.0104186665 -0.035992946
0.16940935 0.13628174 0.13385823 0.71548444 0.27191776 0.08945373 0.100733936 0.042363837
00000000: ccf0 a13e bfbb 6b3e c0b2 093f 2e10 223e
00000010: 7a5a 4fbe 1d2a 263e 7cdb 27bf 3368 e8be
00000020: 7831 2cbe 38ba 733e 6c6a 88be 9274 4e3e
00000030: 11f6 43be e76d a53e 5c96 c13d db7b 4b3e
00000040: ccef babd 41cb a7be 76f9 9fbe 7e76 783e
00000050: 7d7e 313e 6bb3 afbc 1eb1 b3bd befd b03e
00000060: 0e7a cdbe b684 c3be 1014 613d 5220 8bbe
00000070: 070a 10be afcb 8e3b dcf4 a2bd d99d 923e
00000080: 4de8 493e aaf8 09be 1e16 a8be 809b bbbe
00000090: 9116 5dbc c771 8f3e 7b71 c63e b770 3ebe
000000a0: 78cf 263e 2a77 c33e d672 b0bd 7a27 99bd
000000b0: 5ea1 fcbe ce00 293e 1f51 903e 1cc9 5ebe
000000c0: 88b2 783e 91b6 f0bd d130 a1bd 7c36 84bc
000000d0: bdcb 88be ba5a ccbe 65d5 c2be 133d dcbe
000000e0: 5a4d bebd 648e b43c c004 3ebc fc77 893d
000000f0: 23c9 cf3c 9665 f93d c132 ac3d 65e4 d33e
00000100: 97d6 46be a8d4 10be 0b1a 9dbc 83d1 083e
00000110: 6d93 74be 567c f33d 1056 b83d 727a 2fbe
00000120: 5c1c 863e 63c9 e6bd 1a2f dc3e 553e f3bd
00000130: ff4b c1bd 6d5a 153f 1efd 7a3e d4bd 1e3e
00000140: 249f d9be 30d4 883b 9eaa dfbc 80ca 273d
00000150: 5369 9f3e dbed cd3d c71b 8bbe 58c8 063e
00000160: 29f6 27be c32f b1be 309e d0be c5a6 043f
00000170: e6d1 76be f630 e1be 9b82 923e 277b da3c
00000180: de0a 3d3e fa69 c8be 5657 04be ca5a d1bd
00000190: ede5 4cbd 917d 1d3e 4421 80be aeca 1f3e
000001a0: b09f bebe 5ee5 a63d e269 e0be e491 083f
000001b0: 5426 cb3d 82c0 5fbd 0e3d ccbb 9815 cbbd
000001c0: 61cc 383d f920 b73e abe7 003e 4c10 1ebe
000001d0: fbc5 53be 37f9 423e ba16 24be 6ede 283e
000001e0: 7df6 373e 27fe 9fbe 6144 a5be e24d 203e
000001f0: 7dba 533e 09ca a3be b4b9 ea3e a522 e03d
00000200: baa4 933c 9834 6c3e fc30 c93c 8e8e 38be
00000210: 719f 063f 3a43 ccbd a729 5f3e 7a80 6fbe
00000220: 9dcf 60be ecf2 cfbd 4dfe a5bd 44a9 0dbf
00000230: d57d a6be 87d2 7bbe ddbc 84be d4c8 ae3e
00000240: 66bf 3a3e 82fe 123f 5a4f 42be 35a1 10be
00000250: a5ce 99bc a31d bd3d d194 f4bd 05e2 d03d
00000260: d597 a3be 3beb dfbd 22c1 85be 63f8 3bbe
00000270: c92f 273d 52aa 4bbe a3c4 0e3e 089d a1bd
00000280: 0dfb a13d f344 073e e332 c43e 9ef4 cb3c
00000290: 3946 f73d f0b5 a2be 2b3e e33d df8d 7c3e
000002a0: a11d 6cbd 8632 49be cf23 803d 24d1 6c3e
000002b0: d52b 733c 5c5e 1a3d fa09 a53d b609 e7bd
000002c0: 4d41 143f 4eed d13d 26f1 1e3e 5161 343d
000002d0: 200f 553d 797e 40bf 4da1 99be 3c29 613e
000002e0: 6f27 2abd 12de 843e bbc9 fb3d e24a 1b3e
000002f0: 9865 1fbe 8bd4 a7bd ed79 f23e 2bc7 d0be
00000300: 5a70 3bbd d549 333c dab2 583e bf34 28bd
00000310: 481c 3ebe 4928 42bd a206 453e 4cca 373d
00000320: bf17 d23d b39b 16be 41ad 72bd 1602 f53d
00000330: 08dd 49bd c4df 533e 1bfb 173e 0993 acbe
00000340: d9bb a03e 85f8 ddbb db16 28be bbe0 01bf
00000350: 27ce 283e 0665 743e d366 f93e 980a 063d
00000360: f170 1bbf 6a52 f53e 30e8 3abe 660c 373e
00000370: 40d0 ac3e 1a96 05be e147 b83b 7e22 ad3e
00000380: 349c 2a3e 0705 af3e 1e65 55bd 2f70 2e3f
00000390: 6167 183e 755a 483d 315d 1c3d fd00 1cbe
000003a0: 0bce 5fbe 8311 b13d 40c5 38be 0257 a8be
000003b0: 710a 733e 5d47 bc3c 0f0b 483c 087b 1c3d
000003c0: 24f9 2abd dd3a 75bd 6b4d 80be de44 1cbe
000003d0: 9ea0 05bf a03e bcbd 0eb3 2abc 576d 13bd
000003e0: a579 2d3e 718d 0b3e 2212 093e fd29 373f
000003f0: ce38 8b3e 8433 b73d 984d ce3d b485 2d3d

graph_embed_generation.mlp.1.bias f4 [32]
-0.10992178 -0.017850703 0.011730173 -0.11754743 0.04324887 -0.088464335 0.10943879 -0.035042424
0.18596728 0.04643891 -0.10911174 -0.15098599 -0.037352886 -0.1453392 0.15386863 0.08848031
-0.030709965 0.019983897 -0.18226936 0.05649428 0.06349378 -0.08301188 0.18341884 -0.01121357
0.12263822 0.14627649 -0.14127709 0.08625985 -0.08129791 -0.12065123 -0.14872794 -0.083221525
00000000: ac1e e1bd a33b 92bc e92f 403c b5bc f0bd
00000010: ba25 313d ca2c b5bd 7221 e03d a588 0fbd
00000020: 356e 3e3e ba36 3e3d fa75 dfbd 129c 1abe
00000030: 57ff 18bd cdd3 14be bd8f 1d3e 2a35 b53d
00000040: 7793 fbbc 45b5 a33c d2a4 3abe 8c66 673d
00000050: 0709 823d 2202 aabd 26d2 3b3e 1fb9 37bc
00000060: bf29 fb3d 81c9 153e f1aa 10be 01a9 b03d
00000070: 857f a6bd fe17 f7bd 234c 18be 0c70 aabd
