results/checkpoints/mapzero_ONE_HOP_4x4.pth (torch, 57968 bytes, 25 tensors)

graph_embed_generation.gat_dfg.att_src f4 [1, 4, 32]
000000 cc b7 0a be 56 7d d2 3d 0f 16 e5 bd 4c b5 10 bd
       -0.13546675 0.10277812 -0.11185848 -0.03532915
000010 dc cc 1e bd 32 12 eb 3c 89 cd 72 be a3 a2 c6 3d
       -0.038769588 0.0286952 -0.23711218 0.09698989
000020 c2 f1 3a 3d 7d 4b 45 bd 2f 82 8a bd d8 2e 22 be
       0.045640714 -0.048167694 -0.06763112 -0.15838182
000030 47 73 22 3d 47 d8 3e 3d 7e f5 c2 3d 7a c2 8b bc
       0.03966072 0.046592977 0.0951948 -0.017060507
000040 2b 1f 5a bd 7b fe d0 bd ab 16 4a 3e d2 51 17 3e
       -0.05325238 -0.10204788 0.1973521 0.14777306
000050 0f 0b ba 3e 2f a8 33 3d 26 7a d8 bc 5b 2f 06 3d
       0.36336562 0.043861564 -0.026425432 0.032760005
000060 69 fe 86 3d 08 6c c3 bd 36 5d 05 bd a1 77 86 bc
       0.06591494 -0.0954209 -0.032559596 -0.016414465
000070 2d 70 ff bd f1 19 de bd a1 61 44 be bf 35 65 3d
       -0.12472568 -0.10844792 -0.19177867 0.05595946
000080 a0 5f 46 3d 41 02 a3 3d 72 1a 03 be 8d c5 bb 3d
       0.04843104 0.07959414 -0.12803057 0.09168539
000090 80 1c 4b 3e c3 c2 67 3e 56 7b bc 3c 46 cb 1b 3e
       0.1983509 0.2263289 0.02300803 0.15214261
0000a0 8a 69 8c be 6b e2 5f 3d e9 4a 8a 3d 72 75 02 3c
       -0.2742427 0.05465929 0.06752569 0.007962571
0000b0 06 db 61 be fd 64 64 3e cb 6c 93 3e 0f 3d cd 3c
       -0.22056207 0.22304149 0.2879394 0.02505353
0000c0 fc be e9 bc 1e 42 0d 3e 9d 61 e8 bd 9b 6f 83 3e
       -0.028533451 0.13794753 -0.11346743 0.25671086
0000d0 a0 77 2e be d5 cd bc 3d b6 5a 9f 3d 62 aa 3c 3b
       -0.17037821 0.09218947 0.077809736 0.002878808
0000e0 d8 ee 93 bd e1 b9 89 be 18 95 c7 be 47 34 9a 3c
       -0.0722329 -0.26899627 -0.38980937 0.018823756
0000f0 ad 0a 78 3e cc 4e c6 bc aa 6f 4e 3e 27 71 3b bc
       0.24222822 -0.024207495 0.20159784 -0.011440552
000100 47 6c 71 3e a6 be 27 3d 5f 02 ae bd 24 79 e1 3c
       0.23576461 0.0409533 -0.08496546 0.027523585
000110 ec f1 1d 3d 51 4a 36 3e 72 24 ed 3a 28 5c d6 bd
       0.038560793 0.17801787 0.0018092527 -0.10466796
000120 2f 84 90 bd 5f 58 10 be b8 9c 38 bd 28 63 9a 3d
       -0.07056462 -0.14096211 -0.045071334 0.07538444
000130 fd 5b ab be 91 2c 9c 3d 50 33 f4 3d 50 84 e8 bc
       -0.3346862 0.07625688 0.119238496 -0.028383404
000140 cc 71 c1 3d d3 2a 22 3d f0 ed 38 3d 38 4c 11 be
       0.09445533 0.03959162 0.04514879 -0.14189231
000150 7e f8 73 3d 67 e7 b6 bd 66 2f 7c 3e 9b 06 30 3e
       0.059563152 -0.08930855 0.24627456 0.1719002
000160 03 88 ba 39 ef 24 90 bd 1d c7 c3 3d b3 47 a9 bd
       0.0003557802 -0.070382945 0.09559462 -0.08265629
000170 53 08 81 bd 44 3f a4 bc f5 94 04 bd a4 54 ce bc
       -0.06300416 -0.020049699 -0.03236862 -0.025186844
000180 38 b8 95 3e 99 f2 c0 3e a3 93 14 be 88 e8 ca bc
       0.2924211 0.37685087 -0.14509444 -0.024769083
000190 bb 10 c6 3d 47 5a 6e 3c f1 c2 7e be f9 e9 36 bd
       0.0967116 0.014547891 -0.24879052 -0.044656727
0001a0 7a 61 19 3e 0b 09 06 be ef 4c 93 3c 77 f5 58 bd
       0.1497859 -0.13089387 0.01798102 -0.05296847
0001b0 c0 3c 5a bd 90 d6 b4 bd dd 8c 85 3c 5d d9 ce 3d
       -0.053280592 -0.08829987 0.01630252 0.101000525
0001c0 95 83 5a bd 56 61 e0 3d de 47 8a 3e e6 f3 44 3d
       -0.053348143 0.10956065 0.27007955 0.048084162
0001d0 fd 53 93 3d b4 c7 54 3c b0 aa 27 be b6 91 90 3d
       0.07193754 0.012987066 -0.16373706 0.07059042
0001e0 10 e0 e1 3d 7b cd a5 ba ee d7 fa 3d 14 de 98 bd
       0.11029065 -0.0012649739 0.122482166 -0.07464233
0001f0 b4 fd e3 3c 83 46 99 be 24 c1 9d 3e 87 f0 56 be
       0.027830936 -0.2993661 0.30811417 -0.20990191

graph_embed_generation.gat_dfg.att_dst f4 [1, 4, 32]
000000 f3 1f b8 3d 80 e7 1c 3e 50 82 15 bd a8 87 46 3e
       0.08990469 0.15322685 -0.03650123 0.19387686
000010 3c 23 4b bc ac b6 2d 3e f7 0e b9 3d 51 03 26 be
       -0.012398537 0.16964215 0.090360574 -0.16212203
000020 ac f3 87 3d b4 f7 3f 3e 7a 0a 83 3d 9b 16 0b be
       0.066382736 0.18746835 0.063984826 -0.13582842
000030 b8 70 f5 3c b1 4d eb 3d 9c 5a da 3d 12 1e 71 be
       0.029960975 0.11489428 0.106618136 -0.23546627
000040 41 bc b2 3d 8c 3e a8 3c 14 9d 17 bd 96 0b 74 3d
       0.08727313 0.020537637 -0.037015036 0.05958136
000050 25 60 73 3d 98 4c b7 bd fc c9 2a 3c af 4a c1 3d
       0.059417862 -0.08950156 0.010424133 0.09438073
000060 89 c7 e3 bd bd 1a 93 bd 75 8d 3f be c5 d9 25 bd
       -0.11122043 -0.07182834 -0.18706305 -0.040490884
000070 37 4a 7f bd fb 72 81 3d f2 87 48 bd 71 bf cb 3d
       -0.062326636 0.06320759 -0.048957773 0.09948624
000080 82 df 0f 3d 46 b4 10 be c0 26 ad bc 11 0f fd 3d
       0.035125263 -0.14131269 -0.021136642 0.12356389
000090 21 f0 12 be cb 28 81 3e 77 09 cf 3d ec a2 4c 3e
       -0.14349414 0.25226435 0.10109227 0.19984025
0000a0 2d 10 f5 bc d4 c5 20 be 76 48 bd bd b0 88 19 be
       -0.02991494 -0.15700465 -0.092423365 -0.14993548
0000b0 d6 64 20 be 75 a3 9b 3d a7 74 38 bb 5e 73 5f bc
       -0.15663466 0.07599536 -0.0028145702 -0.0136383455
0000c0 ab 34 db bd 8a 2b 35 be c5 8b ee bd d5 fe 99 3c
       -0.10703405 -0.1769239 -0.11647753 0.018798271
0000d0 70 e9 21 3d 7d b6 50 3e c1 d2 b2 3d f1 cf 89 3c
       0.039529264 0.20382114 0.08731604 0.016822787
0000e0 c5 ae 5a be c7 45 28 3e 1a b7 59 be d3 df 1b 3b
       -0.21355732 0.16432868 -0.21261254 0.0023784533
0000f0 08 70 5d be 93 bb cd 3d 59 8a 28 3e b7 b8 d8 bd
       -0.21624768 0.100455426 0.16459025 -0.105821066
000100 33 a8 18 bc e7 fa 3c 3d 8b cf f5 3b 83 93 91 3d
       -0.009317446 0.046137717 0.0075015477 0.07108214
000110 69 63 02 3e f7 dc c5 3c 2f a2 20 3c a9 6e 29 3e
       0.12733234 0.024153216 0.009804293 0.1654612
000120 69 8a f8 bd 3b 0b 07 be 24 46 70 3d 03 77 3c bd
       -0.12135775 -0.13187878 0.05866064 -0.046011936
000130 b1 5a 4a bd dc 64 4d 3e 71 b0 97 bd 22 68 34 3e
       -0.049402896 0.20058006 -0.074067004 0.17617849
000140 29 89 96 3e 58 26 5b 3d fe c4 83 be 6a f2 3c be
       0.2940152 0.053503364 -0.2573623 -0.18451849
000150 c0 c0 8e 3d a5 93 9a bd 34 ce ec 3d 60 8d 67 bd
       0.06970358 -0.07547692 0.115627676 -0.05653131
000160 0b c9 34 3d 72 cf b5 3d b3 2e 63 bd c6 8d 5a bd
       0.044137042 0.08877458 -0.055464458 -0.053357862
000170 13 c4 b2 3d b4 d6 3a 3e c6 d1 cd bd 37 fd 9d bd
       0.087288044 0.18245965 -0.10049777 -0.077143125
000180 7b 18 dc 3d 7b f3 60 3d fe f4 5e be b9 af 2e 3e
       0.10746857 0.0549197 -0.21773145 0.1705922
000190 4f 28 82 bc 24 2e b0 3d 2c 48 9f 3c b2 20 33 be
       -0.015888361 0.086025506 0.019443594 -0.17492941
0001a0 bd 9f ed 3b de 5a 57 bd 39 88 e7 bc 2e 4a cf bd
       0.0072517083 -0.052576892 -0.028263198 -0.101215705
0001b0 57 d2 e6 3d ac e7 2b 3e cd c8 32 be da 8f 40 3e
       0.11270588 0.16787595 -0.17459412 0.18804875
0001c0 50 a5 11 be 64 36 82 be 3c c6 06 3e 75 6b 9e 3c
       -0.14223218 -0.25432122 0.13161558 0.019338349
0001d0 0d 97 b7 3d 77 c8 3a 3e 59 8c a0 be 9f 51 3d 3e
       0.089643575 0.18240534 -0.31357077 0.18488167
0001e0 cc 3c 48 3e b3 d3 48 3e 41 ce 07 3e d3 b7 92 bd
       0.19554442 0.19612007 0.13262273 -0.07163968
0001f0 a6 a5 27 3e 01 9a 22 bd fe 49 85 3c 3b ae 75 bb
       0.16371784 -0.03969765 0.016270634 -0.0037487883

graph_embed_generation.gat_dfg.bias f4 [32]
000000 8f ee be 3b aa d2 11 bd 71 fa 9c bc ae c5 31 bc
       0.0058267782 -0.035601296 -0.019162389 -0.010850353
000010 89 4c 70 bc b0 b1 c4 bc fe da 8d 3c ec f0 61 3c
       -0.014666685 -0.02401051 0.017316338 0.01379035
000020 51 6e b0 bc 42 57 f5 3b ad 34 a9 3c 5a f2 65 bb
       -0.021536978 0.0074872086 0.020655 -0.003508708
000030 1d 4d 3a 3c 59 ee 22 bc 51 e7 5b bb 21 cb 91 3c
       0.011370924 -0.009944522 -0.0033554623 0.017797055
000040 67 6d a0 3a 12 32 c7 bb 34 fc 2b bc 48 af b2 3c
       0.0012239636 -0.006078967 -0.010497142 0.021812096
000050 62 d0 bf bc de c9 6f ba 00 da 80 3c 4e 08 fb bb
       -0.023414794 -0.0009147207 0.01572895 -0.007660902
000060 b6 2e 12 bc fc 7b 7e bb 41 2a 88 3b ed 06 d9 3c
       -0.00892227 -0.0038831225 0.0041554277 0.02649256
000070 48 c5 09 3c 70 65 d2 3c a5 fd eb 3c 81 8a 89 b8
       0.008408852 0.025683135 0.02880747 -6.5584674e-05

graph_embed_generation.gat_dfg.lin.weight f4 [128, 10]
000000 9a 27 67 ba f4 36 8c 3e 48 b9 77 bd 07 60 26 3e
       -0.0008817852 0.27385676 -0.060479432 0.16247569
000010 7e 43 01 3e 9c e4 43 be 62 4d 60 be 38 b1 3f 3d
       0.12623402 -0.19130176 -0.21904519 0.04679987
000020 99 c3 16 be c3 f1 7f 3d cb 8f aa bc 13 f3 b5 3e
       -0.14723052 0.06248642 -0.020820519 0.35537013
000030 30 22 1b 3e f9 d3 82 bd 9d a6 df 3d 2f 2a 31 3d
       0.1514976 -0.06388087 0.10920451 0.04325312
000040 9c 46 93 3d 76 c4 0c bd 52 5b 95 be e1 6b cd 3a
       0.07191202 -0.034367047 -0.29171234 0.0015672409
000050 88 13 99 3d 05 66 9d be 27 78 44 3e a6 2f 06 be
       0.074744284 -0.30741897 0.1918646 -0.13104114
000060 4b cb 59 be e4 9c 24 be a6 c1 da 3d 3a 65 9f 3d
       -0.21268956 -0.16075474 0.10681467 0.07782979
000070 71 0a c7 3d eb d4 4b 3d b3 74 2c 3d 27 78 00 be
       0.097187884 0.0497636 0.04210348 -0.12545834
000080 92 6a 6d be 93 e9 73 bd ae 28 66 3e 23 5e 90 be
       -0.23185185 -0.059548926 0.22476456 -0.2819682
000090 3e c6 68 bc 9f f9 41 3b ba a0 23 3d 54 7f 43 bd
       -0.014207421 0.0029598249 0.039948203 -0.04772885
0000a0 6b 27 f3 3d 39 04 85 3c 27 0a e4 bd 15 ff ba bc
       0.11872753 0.016237365 -0.11134749 -0.02282671
0000b0 e4 e0 a1 bc 62 e6 91 3d b9 06 87 3d 55 1c 9a bd
       -0.019760557 0.0712402 0.06593079 -0.07524935
0000c0 73 e1 c5 bd 98 96 01 bd 49 b6 85 3d 35 36 b9 3d
       -0.09662142 -0.031637758 0.06528909 0.09043542
0000d0 c1 9f 1d be 7a ad 61 be 2f fb b9 3e 59 6f a3 bd
       -0.15392973 -0.22038832 0.3632445 -0.07980222
0000e0 b3 8f 9d 3d de 29 b2 bb ab 11 ac bd 37 62 fe bd
       0.07693424 -0.00543712 -0.084018074 -0.12421077
0000f0 27 a5 4d be b7 f5 af bd cd 59 61 3e fc 54 25 3e
       -0.20082532 -0.08591788 0.22006913 0.161457
000100 90 0b 30 bd 6a 7f 87 bd da bb 4b 3d 32 b4 a1 3c
       -0.042979777 -0.06616099 0.049739696 0.019739244
000110 12 b7 8b 3e 5b e4 14 3e d6 2e 69 3d 63 7f 30 be
       0.2728811 0.14540236 0.05692943 -0.17236094
000120 f7 7b 87 bb 16 28 0f 3e 9e 16 b3 bd 3b 97 47 be
       -0.004134651 0.13980135 -0.08744548 -0.19491284
000130 ad 38 19 bd 65 8a ba 3d 95 ab 6e 3e ad ad 02 bd
       -0.037407566 0.09108428 0.23307641 -0.03190391
000140 ed 19 3c 3e 25 ad 38 3d 67 11 0e be 5d 8b df bd
       0.18369265 0.045087 -0.13873826 -0.10915253
000150 f0 af 7d be 4f 97 0c 3e 0e 4e 1d be cf 25 e5 bd
       -0.24774146 0.13729595 -0.15361807 -0.11188852
000160 06 74 12 be c5 8d 2d 3e 96 1d 8e 3d 0c 77 83 bd
       -0.14302072 0.16948612 0.06939237 -0.06419191
000170 6e 6f c1 3d e2 03 45 be fe 9d e8 3d 24 e9 e7 3d
       0.09445082 -0.19239762 0.113582596 0.11323765
000180 4b 38 3b be 9e 7b 83 bc a7 f2 7b 3e 03 42 47 3d
       -0.18283193 -0.016050156 0.24604283 0.048646938
000190 8e 61 33 be 4b e4 7b bd eb 2d 1d 3d 57 a0 26 bd
       -0.17517683 -0.061497014 0.03837387 -0.040680256
0001a0 60 95 f3 bd ca b4 20 bd b6 ae d9 bd 03 5a 19 be
       -0.118937254 -0.039234914 -0.106290266 -0.14975743
0001b0 21 71 46 3e 39 52 81 3b fc f6 03 be 34 d2 fa 3b
       0.19379093 0.0039465693 -0.12887186 0.0076544527
0001c0 d8 5a 19 be ae 6f 88 3e 52 6d f4 bc 68 18 d7 bd
       -0.1497606 0.26647705 -0.029837284 -0.10502702
0001d0 4a 7b 88 3d 70 a2 1c 3c 6b 68 b6 bd 23 21 fa bd
       0.066641405 0.0095602125 -0.08906635 -0.122133516
0001e0 70 b6 37 be 2f 42 e4 3d 13 ed c5 bd 69 14 b3 3e
       -0.17940688 0.11145436 -0.09664359 0.3497651
0001f0 f5 1a 52 be 59 53 a6 3d fd 15 a2 bb 74 22 83 bd
       -0.20518096 0.08121366 -0.004946469 -0.06403056
000200 9f 55 02 3d 43 02 53 3e 92 e9 7c 3c 72 b2 2c 3e
       0.031819936 0.20606332 0.015436547 0.16864946
000210 16 5f 8e bd df 98 af 3d cf 91 c4 3c 88 33 38 bd
       -0.0695173 0.0857408 0.023995308 -0.04497102
000220 b7 ec 44 bd eb de 07 be 14 7f 31 be 19 c7 08 3e
       -0.04807731 -0.1326863 -0.17333633 0.133572
000230 a3 4c 2d 3d a2 1a a2 3c 4b 5f 4d bd 4d f4 de bd
       0.042309415 0.01978809 -0.050139707 -0.108864404
000240 bb 17 00 3d 6b 7b 16 be 46 ec 2a 3d b9 90 df 3d
       0.03127263 -0.14695518 0.041729234 0.109162755
000250 26 22 76 3b 86 1f 7b 3d 19 08 2a be 86 5f 93 3d
       0.0037556975 0.06130936 -0.16604652 0.07195954
000260 2d 4c 8c be 0d b6 fa 3d 37 46 48 bd d4 e8 2c 3d
       -0.27401868 0.12241755 -0.048895087 0.04221423
000270 05 be d5 bc 52 a7 d8 bd c4 35 fd 3d 16 2d ee 3d
       -0.026091585 -0.10578789 0.123637706 0.11629693
000280 ac a7 2b 3e 47 ae 24 bd 5a db 7a 3e d9 c6 85 bd
       0.1676318 -0.040205266 0.24497738 -0.06532068
000290 6b 2e 8d 3d b8 05 22 bd 6b 4b 2a bd 85 1e 5b bd
       0.06893619 -0.039556235 -0.04157583 -0.053495903
0002a0 5e 1e ff bd 19 9d 94 bd 3c 87 03 3e f6 a1 24 3d
       -0.12456964 -0.072565265 0.12844557 0.04019352
0002b0 b7 e9 31 bd 46 7a 2c bc 47 19 40 3d 34 21 23 3d
       -0.04343578 -0.010527199 0.046899106 0.039826587
0002c0 0a 0d d1 bc 5a d2 7f 3d a1 4a 13 be 8d 90 4e bc
       -0.025518913 0.062456466 -0.14383937 -0.012607706
0002d0 92 2a 29 be 98 71 4f 3e ad 33 ce 3d b3 a1 12 3d
       -0.16520146 0.20258176 0.1006845 0.03579874
0002e0 f6 2f 53 3d 61 53 0a bd 2f a7 b5 3d bd b8 b3 3d
       0.05155941 -0.033770923 0.08869778 0.087754704
0002f0 ff 88 1c 3c 2d 7d 31 3e e4 75 b0 3d f5 61 db 3d
       0.009554147 0.17332907 0.08616236 0.10712043
000300 04 16 3f be 00 7d 22 bd 47 92 df bc f6 18 c3 3e
       -0.18660742 -0.03966999 -0.02729143 0.3810498
000310 87 6c d7 bd 3f 92 d8 bc a7 2f a4 3c 89 d9 05 be
       -0.10518747 -0.026436923 0.020042254 -0.13071264
000320 d6 6c 64 3d 5e af d3 3d ce 12 d7 bd 38 48 6b 3d
       0.055767857 0.10336183 -0.105016336 0.05744192
000330 16 16 84 bd b3 8e 25 b9 11 90 1a 3e ff b8 27 3e
       -0.06449525 -0.00015788786 0.1509402 0.16379164
000340 3c 33 41 3e dc 17 98 bd f0 50 c2 3d 6f fb 4f 3e
       0.188672 -0.07426426 0.09488094 0.20310758
000350 aa 12 b4 3c 9b 0f 24 bd 21 31 39 be 3f 81 0c bb
       0.021981556 -0.040053945 -0.18085147 -0.0021439341
000360 71 f1 72 3e 6a bf 90 bd fe 2e 9a bd a5 24 ef bd
       0.23724915 -0.07067759 -0.07528494 -0.11676911
000370 e9 c9 74 3c 06 f3 1a be 59 ec c4 bd af f5 3c bd
       0.014940717 -0.15131769 -0.09615392 -0.04613274
000380 4c cd 16 be c2 53 5b 3d 75 67 3d 3e d6 af 31 3e
       -0.14726752 0.053546675 0.18496497 0.17352232
000390 53 7a 0a 3e 58 ff 19 be bf 1c a2 3d 25 7d 0f be
       0.13523225 -0.15038812 0.07915639 -0.14012583
0003a0 e9 63 44 bd 80 a3 ab bd c8 0a 9a 3d c6 e4 19 3e
       -0.047946844 -0.083807945 0.075215876 0.15028676
0003b0 be 1a 2b bd 7b ae 12 3e c9 3a d2 3d c0 f9 9f 3d
       -0.04177355 0.14324372 0.10265119 0.07811308
0003c0 a3 d5 43 3d cc 2f 6e 3d b1 39 40 3e 1b 0e 27 3d
       0.04781116 0.05815105 0.18772008 0.040784936
0003d0 f6 f0 d6 bd 0c 1d 15 3e 28 98 29 3d 4f c4 2b 3e
       -0.104951784 0.14561862 0.041404873 0.16774105
0003e0 4b e0 17 bc 3e d0 6f bc 76 98 49 bd 59 cb bb bd
       -0.009269784 -0.014637051 -0.049217664 -0.09169645
0003f0 ac 5a df 3d 90 8f fd bd 90 bc f6 3d 6a ee 61 3d
       0.10905966 -0.12380898 0.12047684 0.05515901

graph_embed_generation.gat_cgra.att_src f4 [1, 4, 32]
000000 5e 14 7b 3d 26 4e 0b be ca e3 1a bd 15 92 97 3d
       0.06129872 -0.1360403 -0.037814893 0.0740091
000010 3d 97 4d be 6f 6c 69 3d d6 0a bd 3d 33 33 9c bd
       -0.20077224 0.056988176 0.092305824 -0.07626953
000020 14 f8 a7 3c 98 39 6c bd 66 45 e2 3d 29 39 33 bd
       0.020504035 -0.057672113 0.11048393 -0.043755684
000030 2c d8 8d 3e 9a 0e a7 3c b4 8d b7 bd b3 68 d7 bb
       0.2770399 0.020392705 -0.089625746 -0.0065737604
000040 04 21 10 bd 3e d9 16 be 11 cb 78 bd bc e4 c2 bb
       -0.035187736 -0.14731309 -0.060740534 -0.0059476774
000050 a9 b0 31 bd 34 61 33 3d 9b aa 20 3d 23 47 7b 3d
       -0.043381367 0.043793872 0.039225202 0.061347138
000060 f2 3a 5e 3e c6 86 90 bc 25 af d8 3c 9e 94 05 3e
       0.21702173 -0.01764239 0.026450703 0.13044974
000070 a7 24 90 3d 70 8a 65 3e e7 12 24 be ca 9d 46 3e
       0.07038241 0.22416091 -0.16022836 0.19396129
000080 57 ba 28 be 00 0c 68 be 12 04 02 be 42 a1 07 3e
       -0.16477333 -0.22660828 -0.12696865 0.13245109
000090 56 d3 dc bc c8 4a 23 3e b7 c3 ef bd 89 7c f0 3d
       -0.026956242 0.15946496 -0.117072515 0.11742503
0000a0 e5 3a ee bd b3 19 ea 3d d5 54 3f 3b 01 c6 42 bc
       -0.11632327 0.11430683 0.002919485 -0.011888028
0000b0 f3 bc de bd f7 b1 df 3d 8d e0 b5 3d c9 38 d4 3d
       -0.10875883 0.10922616 0.0888072 0.103623934
0000c0 1d 58 d6 bd c0 40 a8 bc e0 fb 3b 3e 00 06 35 3e
       -0.10466025 -0.020538688 0.18357801 0.1767807
0000d0 a4 87 20 3e b4 8f a8 bd da 08 ec bd 84 4e ec bd
       0.15676743 -0.08230534 -0.11525126 -0.11538413
0000e0 ea 45 97 be e2 3d 1e 3e 16 f0 97 bb 86 0c 47 bc
       -0.29545528 0.15453294 -0.004636775 -0.012148982
0000f0 a2 bf 01 bc ee fa 37 be bc cb 5d 3e 61 3e c3 bd
       -0.007919224 -0.17966816 0.2165975 -0.09533382
000100 8f 70 f8 bb f2 58 b3 3c 31 06 14 be bc 5d ad bc
       -0.0075817774 0.021892998 -0.14455487 -0.02116286
000110 e8 08 5f be 34 9c a8 be 8a fc 0b bd 31 57 f8 3d
       -0.21780741 -0.32931674 -0.034176387 0.121260054
000120 99 e2 92 3d 8b 66 91 3d 8b ee 6c 3e f2 2f 86 bc
       0.07172126 0.07099637 0.23137872 -0.016380284
000130 80 ae 40 bc 2c 3a fa 39 61 92 9a 3d 5c b3 0e 3d
       -0.011760354 0.00047727057 0.07547451 0.03483902
000140 0b a9 63 3e b4 b2 b9 3d ea d2 42 3d d0 3e 01 3e
       0.22232454 0.09067288 0.047564425 0.12621617
000150 1e 40 46 3d 50 e1 c9 bd d1 e0 42 bd d5 23 0a 3d
       0.04840099 -0.09857428 -0.047577683 0.03372558
000160 22 3b 9e 3d 83 47 bf bd 57 37 a3 bd e1 8f b0 3e
       0.077261224 -0.09339812 -0.079695396 0.3448477
000170 c5 2f 99 bd 29 cb a1 3d aa e7 f9 bd 54 51 30 be
       -0.074798144 0.07900078 -0.122023895 -0.17218524
000180 17 85 3f ba dc ec 09 3d 0d e2 4b be 21 64 22 be
       -0.0007305904 0.033673152 -0.1991045 -0.15858509
000190 ea 6f b0 be 9f 5b fb 3c 47 77 11 3e eb a1 2a 3d
       -0.34460384 0.030683337 0.14205657 0.041658323
0001a0 38 6a 9b be e7 31 65 3b 95 e4 1c 3e 9c 0f 40 be
       -0.30354476 0.003497237 0.15321572 -0.18755955
0001b0 e2 96 ed 3d 15 f1 bc bd ec 0a c3 3d a1 7e 8d 3d
       0.11601044 -0.0922567 0.095235676 0.06908918
0001c0 e0 f1 e9 bb 8f 29 ec bd 88 5d 7b 3d f3 d3 42 3d
       -0.0071394295 -0.11531364 0.061368495 0.04756541
0001d0 3c db 5d bd a6 10 70 bd 6d 3a 0e be e2 79 be 3d
       -0.054164156 -0.058609627 -0.13889475 0.09300591
0001e0 36 1e aa 3d 25 2f 59 3d 0e ec b4 3d 30 e2 d6 3c
       0.083065435 0.053023476 0.08834086 0.026230901
0001f0 38 cf 26 be 6b 2a 23 be a3 8d 30 3e 4e b1 be bd
       -0.16289985 -0.1593415 0.1724153 -0.09311162

graph_embed_generation.gat_cgra.att_dst f4 [1, 4, 32]
000000 41 46 f8 bd 81 c7 82 be de 11 4d bd 8d 60 24 bc
       -0.12122775 -0.25542834 -0.050065868 -0.010032785
000010 22 03 2d 3e 92 dd 96 bb 13 1c 65 be 9f 10 8a 3c
       0.16895726 -0.00460405 -0.2237399 0.016853629
000020 49 26 61 be 7d e0 f4 bd a7 44 b7 3d 01 cc c8 bd
       -0.21987261 -0.1195688 0.08948641 -0.09804536
000030 df da ce 3e a7 7f c0 bd fb 89 23 3e 08 65 8a bd
       0.4040136 -0.09399348 0.15970604 -0.067575514
000040 3c 6c 42 bc 61 31 7a be bc 3d ce 3d f1 8f f8 3c
       -0.011866625 -0.24432899 0.10070369 0.030342074
000050 00 41 22 be 16 ec 23 bd ef 57 92 be 70 69 2b 3d
       -0.15845108 -0.04002007 -0.28582713 0.0418486
000060 cf 84 4f bc b6 2a 05 3e 92 74 11 bc 94 84 fb bd
       -0.012665941 0.13004574 -0.00887789 -0.12281147
000070 ab db 8a 3e 94 50 45 bd e9 94 2e be 00 66 b9 3d
       0.27120718 -0.04817255 -0.17048992 0.09052658
000080 9d dc 35 bd d3 7f a1 3d b6 74 d8 3d 76 78 04 be
       -0.044399846 0.07885709 0.10569136 -0.12936577
000090 7f 4a e7 bc 8e 2e 58 bc 82 b2 f3 bc 11 81 2f 3e
       -0.028233765 -0.013194693 -0.029748205 0.17139079
0000a0 76 b8 04 be 90 4c 40 be 40 04 aa 3d 10 67 e5 bc
       -0.12960991 -0.18779206 0.08301592 -0.028003246
0000b0 16 95 7f bd 71 0b ea 3d 8a 05 b3 bd a9 2d b3 3c
       -0.06239804 0.114279635 -0.08741291 0.021872358
0000c0 fe e0 6e bd a5 18 44 be 96 22 bd bc 7e a3 6c 3e
       -0.058320038 -0.19150026 -0.02308778 0.23109242
0000d0 87 88 52 3d 0e e9 ec 3d 94 c1 e6 bd 55 2b 19 be
       0.051399734 0.11567889 -0.11267391 -0.14957936
0000e0 1a 54 11 be 9b fd 64 bc db 33 1a 3e 4f d8 3e 3e
       -0.14192238 -0.01397648 0.15058844 0.18637203
0000f0 55 b9 87 3d cf 52 27 3e 4b 57 ce 3c 75 e8 94 bd
       0.06627146 0.16340183 0.025188109 -0.072709
000100 cd 68 3e be 3b 5a cd 3c 6e 3f 73 3d 22 38 b6 3c
       -0.18594666 0.02506744 0.059386663 0.022243563
000110 90 34 fb 3d 50 bc 71 3d e4 b8 c4 3c 84 65 36 3e
       0.12265885 0.05901748 0.024013944 0.17812163
000120 b5 c6 bb 3d 78 62 e1 3d 87 66 8f bd 0b 11 c5 3c
       0.0916876 0.110051095 -0.070019774 0.024055978
000130 6a ad 71 3d f1 19 2c 3e ca d6 34 bd cb 02 9a 3d
       0.05900327 0.16806771 -0.04415015 0.07520064
000140 d7 1b dd bd 08 e5 23 be 76 8d c3 ba 33 ab bd bc
       -0.10796326 -0.16005337 -0.0014919478 -0.023152923
000150 26 94 9f bc 7d 50 30 be 04 e3 fb 3d a5 9d b9 3d
       -0.019479822 -0.17218204 0.12299159 0.090632714
000160 e2 e3 69 bd 63 4e 4d 3e 32 fb 12 3e b6 0f fe bd
       -0.05710209 0.20049433 0.14353636 -0.124053404
000170 c1 ee 8b 3d b6 ae a6 bd a0 69 55 be b2 71 97 bc
       0.06832648 -0.08138792 -0.20841074 -0.018486831
000180 ea 98 35 bd 11 c5 be bc de 3c 8f 3e 15 2a 16 bd
       -0.044335283 -0.023287328 0.27976125 -0.036661226
000190 58 d9 13 be b8 bf d2 bd 31 38 10 3d 30 0b 3c bd
       -0.14438379 -0.10290474 0.03520984 -0.045909107
0001a0 9d df 0a be 8d f7 ad 3c 28 8e 35 3d 15 07 f9 3c
       -0.13561864 0.021236205 0.044325024 0.030398885
0001b0 2d a0 4e 3e fc 7d 10 bd 3a 1e 42 3e 1c 37 3f 3e
       0.2017829 -0.035276398 0.18956843 0.18673366
0001c0 5e 99 ac bd 0c 20 42 be 0a f1 0f be b9 4e f9 bc
       -0.0842769 -0.18957537 -0.14056793 -0.030433046
0001d0 ff fe 6d 3e 84 2b 6a bb d1 7d 04 3e 28 24 89 3d
       0.23241805 -0.0035731504 0.1293862 0.066963494
0001e0 6b f1 37 3d 3b 91 da bd 4e 4a 5b bb b7 bb 04 be
       0.04490797 -0.10672232 -0.0033461037 -0.12962233
0001f0 4f bc 41 bd ef b9 04 3e 44 65 29 3b 79 83 73 3d
       -0.047298726 0.12961553 0.0025847713 0.059451554

graph_embed_generation.gat_cgra.bias f4 [32]
000000 73 a4 84 bb c9 d9 5b 3b e2 cb 8a bb 17 d2 09 3b
       -0.004047924 0.0033546558 -0.0042357305 0.0021029764
000010 db 56 a4 bc a1 ae b9 bc d3 80 ad bc bb 70 fc 3a
       -0.020060947 -0.022666277 -0.021179592 0.001925967
000020 87 e5 ec 3b 5a f7 23 3c 3c c5 21 3c ce 55 87 bb
       0.00722951 0.010007704 0.0098736845 -0.0041301018
000030 44 ef 97 bc ba f1 0c 3b 64 c4 53 bc d2 c9 d0 3b
       -0.018546708 0.0021506385 -0.012925241 0.006371715
000040 ac a0 96 3c 1c d4 8e b9 66 7c 9d 3c d6 e9 ce bb
       0.018387161 -0.00027242384 0.019224357 -0.0063144965
000050 61 3f c2 b8 6d e6 4f bc db 2b 0d 3b 46 48 0d 3a
       -9.262446e-05 -0.012689215 0.0021541032 0.0005389493
000060 ec b7 91 3c 8f cf 36 bc 5e 94 a1 39 97 52 73 3c
       0.017787896 -0.011157884 0.00030818855 0.014851234
000070 3e 62 04 3c a3 dd d2 ba ac fa 9b bc d9 dd 51 3c
       0.008080063 -0.0016087781 -0.019040428 0.01280924

graph_embed_generation.gat_cgra.lin.weight f4 [128, 7]
000000 2f 80 8c 3d 92 ef 00 3e 00 e2 62 3d e9 a4 4f 3d
       0.068603866 0.12591389 0.05539131 0.05069438
000010 c2 e0 90 bc e7 18 3c 3e a6 d8 d8 bd aa 7d 4c bc
       -0.017685298 0.18368874 -0.105881974 -0.0124811325
000020 9d 44 63 be e5 47 9e 3d 2d 3c 06 be 13 3d 31 3e
       -0.22194143 0.077285565 -0.13108893 0.17308454
000030 03 fa 5e be 79 cb 53 3c f7 3c a8 3c cf 60 56 3d
       -0.2177506 0.01292693 0.020536883 0.052338418
000040 7f 2a 97 bd c1 dc af bd b5 2c c2 bc b0 a3 96 bd
       -0.07381152 -0.08587027 -0.023702959 -0.0735544
000050 e6 84 da 3d d5 65 25 be 2d b0 10 be f6 64 9b bd
       0.106698796 -0.16152127 -0.14129706 -0.07587616
000060 12 27 07 be cb 5f ee 3d d2 28 33 3e ae ab 8c 3d
       -0.13198498 0.11639365 0.1749604 0.06868683
000070 4d d8 a2 3d 5d 9d 00 be ff 59 b5 bd e9 50 6c be
       0.07951412 -0.1256003 -0.08855056 -0.2307774
000080 40 28 b0 bd 66 2e 85 be 0e 0f b5 bd cd 05 59 3e
       -0.08601427 -0.26011962 -0.08840762 0.21193619
000090 3a 8c 88 bd 77 f0 66 bd 4d 24 8e bd fd 66 c8 bd
       -0.06667371 -0.05638167 -0.069405176 -0.097852685
0000a0 13 ce d4 bc d1 6a 48 bd 3d 91 17 3e b3 e4 2e 3d
       -0.02597717 -0.048929993 0.14801498 0.042698573
0000b0 ed 99 57 3c 94 09 de bd df c0 83 3e e2 fc d6 3e
       0.013159257 -0.10841671 0.25733086 0.4198981
0000c0 ab 52 ec bc f5 05 9c 3d 00 9d cd bd 75 02 16 3e
       -0.028848013 0.07618324 -0.10039711 0.14649375
0000d0 c4 1d 12 bc 6a a6 50 3e ea 05 a7 3d 4e 59 2e bd
       -0.0089182295 0.20375982 0.08155425 -0.042565636
0000e0 9d 86 6e 3e d4 e0 14 bd 80 52 21 3d 17 9c 4c bd
       0.23293538 -0.036347225 0.03938532 -0.049953546
0000f0 a4 80 e2 3d 89 92 70 bd 6c cc ef 39 42 a4 1c 3d
       0.110596925 -0.058733497 0.00045737938 0.038242586
000100 ee 79 de 3d 47 62 2a 3e a0 27 67 3d 6d 43 8d bd
       0.108631 0.16639052 0.056434274 -0.06897626
000110 ef 1b 0d bd 32 48 29 be 30 5a d0 3c 46 5e b6 bd
       -0.034450468 -0.16531447 0.02543363 -0.089047
000120 d9 6e a8 bd 25 70 5e 3e 02 2e ea bc 54 85 04 bd
       -0.082242675 0.21722467 -0.028586391 -0.032353714
000130 d9 98 00 3a d1 e4 51 be e1 34 6a 3b 56 31 9c 3d
       0.00049055886 -0.20497443 0.0035737085 0.076265976
000140 b6 a2 8d bd 3b de 84 bb 53 43 b9 bd 19 e6 8e 3e
       -0.069158 -0.0040548122 -0.09046044 0.27909926
000150 4a 44 25 3e db fc 73 3d d7 a3 23 be fb c1 08 bd
       0.16139331 0.059567314 -0.15980469 -0.03338812
000160 c6 a1 21 bc fe 4b 8c bd 2e 4d 83 3d 08 e8 c5 bd
       -0.00986523 -0.06850432 0.06411205 -0.09663397
000170 74 4d c8 3d 4c a0 6c 3e f6 a6 81 be dc 35 26 be
       0.09780398 0.23108023 -0.25322694 -0.16231483
000180 8c 6b 65 3e ee 9a 62 3e 2f 66 10 3e 53 70 47 bd
       0.22404307 0.22129413 0.1410148 -0.048691105
000190 a9 ed 34 3e 13 f9 54 be 15 32 98 3d 2f c2 0c be
       0.17668785 -0.2079814 0.074314274 -0.1374595
0001a0 cd 8d 1a be 4d cb ac bd a1 10 6d be 73 90 7a be
       -0.15093155 -0.08437214 -0.23150875 -0.24469166
0001b0 35 9e a0 3c a9 6f f3 bd 0c dc 50 bc fb 6d 97 3c
       0.019606689 -0.11886532 -0.012747776 0.01848506
0001c0 9f 1d b9 bd 9a 27 43 3d a3 00 11 bd c5 2b d2 3d
       -0.09038853 0.04764519 -0.035400998 0.102622546
0001d0 cf c1 91 bd bd e2 51 3e f5 be 26 bd 7b b6 35 3d
       -0.07117044 0.2049665 -0.040709455 0.04436348
0001e0 60 13 ff bc 3b 6a 52 bd 8c c9 68 bb 05 34 94 be
       -0.031137168 -0.05137084 -0.0035520522 -0.28945938
0001f0 6d 8b bf 3d b6 64 81 3e d5 f3 60 be 0c 9b 8b 3d
       0.09352765 0.2527215 -0.21968015 0.06816682
000200 e6 2f db 3c 93 31 03 be a7 ae e5 bd 79 5b 11 3d
       0.026756238 -0.1281188 -0.11214953 0.035487626
000210 73 d6 f3 bd 8a b3 d9 3c af e4 3b be b3 1f 0d 38
       -0.11906137 0.026574869 -0.18348955 3.3646542e-05
000220 46 32 2f 3d 4a 5c b7 bd 2e f3 0d 3d e4 c3 a0 3d
       0.042772554 -0.089531496 0.034655742 0.07849863
000230 07 71 bd 3d 89 b4 6f bd 31 8f 47 be df 55 11 3e
       0.09250074 -0.05852178 -0.19488217 0.14192913
000240 d2 08 d6 bd 3a e0 2c 3a 83 14 be bd 2c 2b 94 3e
       -0.10450901 0.00065946917 -0.09281256 0.28939188
000250 a9 88 94 3e 8a f2 36 be 6c 53 3c be ba 95 4b 3d
       0.29010513 -0.17865959 -0.18391198 0.049703337
000260 3a ad 55 3d 09 be df 3d fa c9 97 bd 6c 11 bc bd
       0.052167155 0.10924918 -0.07411571 -0.091830105
000270 33 92 0b bd 5d 24 62 be f6 03 4a be f6 a1 8b 3c
       -0.034074973 -0.22084184 -0.19728073 0.017045002
000280 b6 2a 96 bc d6 48 24 3c 6a ae 55 3e 45 43 05 3e
       -0.018330913 0.010027131 0.20867315 0.13013943
000290 25 d4 c1 bd 0f 1e 8c 3e 21 09 de bd f5 af 19 3d
       -0.094642915 0.27366683 -0.10841585 0.03752132
0002a0 7c ef 8c bd 86 53 cb 3d 0c b4 e7 3d b6 cd 19 bd
       -0.068816155 0.0992804 0.11313638 -0.037549697
0002b0 01 0c bc 3c 46 a3 fb 3a 11 74 31 bc cf 82 bd bd
       0.022954943 0.001919844 -0.010830895 -0.092534654
0002c0 ea a3 8e bd b0 ea 87 bd f4 1a c9 3c 5d c9 46 3a
       -0.06964858 -0.0663656 0.024548985 0.0007583106
0002d0 46 16 eb 3d a3 a1 97 3d 5d 0c 2d 3e f0 79 e2 3d
       0.11478858 0.07403877 0.16899247 0.11058414
0002e0 66 1e 50 bd 73 c3 c5 3d a5 20 a9 3d 8e 2b 0c be
       -0.05081024 0.096564196 0.082581796 -0.1368849
0002f0 af 52 00 be 89 8b 4b bd 87 35 02 3d 5a 9d 0c 3d
       -0.12531541 -0.049693618 0.03178933 0.03432975
000300 d0 a7 1a 3e f2 0d 31 3c af 74 d5 bd 89 55 f0 bc
       0.15103078 0.0108065475 -0.10422646 -0.029337661
000310 16 d2 68 bd a1 6b 1e 3d 06 95 04 3d 4f 45 6c 3e
       -0.05684098 0.03867686 0.032368682 0.23073314
000320 4d 49 4c 3e ab 80 3d 3d 92 10 00 39 00 77 9c bd
       0.19949837 0.046265285 0.00012213204 -0.07639885
000330 f6 9a 4c bd fa a3 6a 3d 42 6d 31 bd 14 fc cc 3d
       -0.04995247 0.057285286 -0.043317087 0.100090176
000340 08 03 5a be eb 61 39 be 6b 92 d8 3d d6 63 af bd
       -0.21290219 -0.18103759 0.10574802 -0.08563964
000350 7a 3d a9 bd 0d 6d 56 bd f8 42 d1 bd 41 ab 41 be
       -0.08263679 -0.052350093 -0.102178514 -0.18912984
000360 32 8c a2 3d 70 95 20 be 32 10 51 be 6e 40 be bd
       0.079368964 -0.15682006 -0.20416334 -0.09289633
000370 d1 1d b6 bd d4 0a da bc af bf eb 3d 9f c6 56 be
       -0.08892406 -0.026616491 0.1151117 -0.20974205
000380 60 46 4e 3e 05 4a a1 bd 77 88 80 3d d8 29 0d bc
       0.20144033 -0.07875446 0.062760286 -0.008615933
000390 b1 5b e8 3c f0 9d 67 3c f3 14 80 3d e5 c2 5d bd
       0.028364034 0.014136776 0.06253996 -0.054140944
0003a0 d2 0e 33 3e f3 04 cc 3d e2 12 a7 3d 43 ab 45 bd
       0.17486122 0.099618815 0.081578985 -0.04825903
0003b0 d8 ba 2d bd 97 d6 fa bd 9e 83 0c 3e 33 59 a5 3d
       -0.042414516 -0.12247961 0.13722083 0.08073654
0003c0 14 69 7a bd 2d c8 66 3d f9 09 84 bd 72 64 02 3e
       -0.061135367 0.056343246 -0.06447215 0.1273363
0003d0 b6 74 0d be 22 31 1a 3e 04 96 e0 bd 9f fb 08 be
       -0.13814053 0.15057805 -0.10966113 -0.13377236
0003e0 c0 82 f1 3d 59 9e 87 bc fa fe 1b bd 27 f6 b4 3d
       0.11792517 -0.016554998 -0.03808496 0.08836012
0003f0 83 5c 16 3a cb 33 33 be 2f a0 df 3d 9e fb 10 3d
       0.0005735831 -0.17500226 0.109192245 0.03539621

graph_embed_generation.fc_metadata.weight f4 [32, 10]
000000 a7 28 07 bc b1 74 d4 3d a4 33 34 bd 9d cf 45 be
       -0.008249438 0.103738196 -0.04399456 -0.1931748
000010 7f 7d 26 3e 30 48 6e be 9e 86 57 bd 6f ad 07 be
       0.1625881 -0.23269725 -0.052618615 -0.13249753
000020 9c 6e a8 be f2 50 a2 bb 45 f7 51 be 8f 16 84 3d
       -0.32896888 -0.004953497 -0.20504482 0.06449615
000030 5d 12 2c 3e 30 7b b8 bd 25 61 13 3f f3 f9 11 bf
       0.1680388 -0.09007871 0.57570106 -0.5702202
000040 69 91 8d 3e 1a 4a 27 3e 43 3d 61 be e6 4d cf 3e
       0.27650002 0.16336861 -0.21996026 0.4048912
000050 0f 00 9c 3d 30 17 62 3e ef 2b f5 3d f4 b0 a4 be
       0.07617199 0.22079158 0.1197127 -0.32166255
000060 4c de ae be 40 ea de be 1e 26 72 3c 1d c8 1c 3c
       -0.34153974 -0.43538094 0.014779596 0.009569195
000070 34 00 7b bd 6c f8 a5 be 79 c3 70 3d 79 19 24 be
       -0.06127949 -0.32416093 0.058780167 -0.16025342
000080 2b 52 24 3e 87 7c 3d 3d 60 ad 9e be 65 4f 53 3d
       0.1604697 0.046261337 -0.3099165 0.05158939
000090 00 16 a1 be 9c 32 23 3e c9 c2 00 be 01 3d 1a bc
       -0.31462097 0.15937275 -0.12574305 -0.0094139585
0000a0 60 d8 ea 3d 1a e1 68 3e 4b 2f d6 3d 35 53 80 be
       0.114670515 0.2274212 0.10458239 -0.25063482
0000b0 af d0 cd 3c b4 a2 e9 3e 33 20 04 3f f9 2f 14 3e
       0.025123922 0.45631945 0.5161163 0.14471425
0000c0 77 be 7a bd 69 51 19 bf 78 1c ad be a7 d9 14 be
       -0.061216798 -0.5988985 -0.33810782 -0.14536153
0000d0 f3 ce 83 3c 95 9f e2 be 20 b1 1c be 06 15 49 3e
       0.016089892 -0.44262376 -0.15301943 0.19636926
0000e0 22 e6 fe 3d 32 16 a4 be 82 29 5b bd 19 b0 b8 3d
       0.12446238 -0.32048184 -0.05350638 0.09017963
0000f0 41 65 16 be 70 01 55 be 06 80 5d bd 4e ff 3c be
       -0.14687063 -0.2080133 -0.05407717 -0.18456766
000100 68 f2 b8 3e 01 a5 62 bd e3 33 9e 3d 6f 47 26 3e
       0.3612244 -0.05533314 0.0772474 0.16238187
000110 a8 d7 ef bd 11 c2 38 be 1f e3 6c 3e ab 5b e1 be
       -0.11711055 -0.1804278 0.23133515 -0.4401525
000120 d8 ba 79 be 2d 05 3a 3e 8d 52 7d 3e 32 0b 95 be
       -0.24387681 0.18166037 0.24738522 -0.29110104
000130 01 d0 88 3d 87 2f 47 3e d5 4b a9 3d 5b f6 8c be
       0.066802986 0.19451724 0.08266417 -0.27531704
000140 d4 a9 4b 3d 79 14 45 be 86 f2 0b 3e 42 41 03 3c
       0.049722508 -0.19246091 0.13666734 0.008011164
000150 52 66 be bd df 4e 1b 3d 05 02 93 bd 07 17 b6 3e
       -0.0929686 0.037917014 -0.071781196 0.35564443
000160 93 59 1e bf 8e 12 8f be 09 d8 39 3d 35 3c e7 bd
       -0.6185543 -0.27943844 0.045372043 -0.112907805
000170 fe f4 98 3e e2 65 c4 bd 93 91 a6 3e bb e2 c0 3d
       0.29874414 -0.09589745 0.3253294 0.094182454
000180 8c 7c 22 3e f3 13 99 3d f7 f6 86 3b 4e fb 71 be
       0.15867823 0.07474508 0.004118796 -0.23631021
000190 92 99 28 3e 8f dd 91 be 57 08 ad 3e 50 73 bc 3d
       0.16464832 -0.28489348 0.33795425 0.092016816
0001a0 4c 94 be 3e ad 96 f0 bd 6d 32 d6 bd 05 c1 28 3e
       0.37222517 -0.11747489 -0.10458837 0.16479881
0001b0 59 71 05 3f 58 08 fd 3d 38 76 da be 9c 00 01 bd
       0.5212608 0.12355107 -0.4266832 -0.03149472
0001c0 68 09 18 3f 1b b4 35 bc 30 2c 8a bd 78 99 51 be
       0.5938935 -0.011090304 -0.06746709 -0.204687
0001d0 56 93 f1 3d 82 c4 0a 3e 56 b6 e0 bd 15 80 18 be
       0.1179568 0.13551524 -0.10972278 -0.1489261
0001e0 53 f0 eb be bd 83 a8 be 98 1b 0d bf 5e 72 77 3e
       -0.4608179 -0.32913008 -0.5512023 0.24164721
0001f0 60 c8 73 3d de 14 88 be 27 b2 42 be 8c b1 93 3e
       0.059517264 -0.2657842 -0.19013272 0.28846395
000200 40 d5 81 be c2 3a cd be 92 b8 52 be f8 a9 44 3e
       -0.2535801 -0.4008389 -0.2057822 0.19205463
000210 bd 68 39 be 45 c7 ab 3e da 43 c2 3d 76 b2 92 bc
       -0.1810636 0.33550468 0.09485598 -0.017907362
000220 71 11 a6 3e 5e 07 4d 3e 77 35 b2 3d 07 3e 73 3d
       0.32435182 0.20022342 0.08701604 0.059385326
000230 29 e0 a2 3d fd 84 e4 3e 20 b3 35 be ee 63 08 3f
       0.079529114 0.44632712 -0.17744112 0.5327748
000240 1e 57 13 be f6 00 a4 3d 9e 5d 8a 3e d4 f6 09 3f
       -0.14388701 0.08007996 0.2702455 0.53892255
000250 a7 1a c6 bd 92 1f a9 3e 06 80 8e be 01 d3 64 3e
       -0.09673052 0.330319 -0.2783205 0.22346117
000260 e3 24 87 be cb aa 42 3e 06 df 7c 3e bb 54 ef 3e
       -0.2639533 0.19010465 0.24694452 0.46744332
000270 f5 e4 0c 3e 0a a3 39 be b8 4c ae be 6b 53 5b 3e
       0.13759215 -0.181286 -0.34042907 0.2141854
000280 47 89 bb be fd 44 82 3e 52 79 f1 3d 4e 47 a7 be
       -0.36628172 0.2544326 0.11790718 -0.3267159
000290 ac 8c 71 3a b8 8a 79 bd 9a 3c cb bd 6c e2 15 3f
       0.0009214382 -0.060923308 -0.09923668 0.5854862
0002a0 83 af 0f be fa 03 36 bd 0d 42 c3 be 9d 49 97 be
       -0.14031796 -0.044437386 -0.3813633 -0.2954835
0002b0 57 d0 88 3d a1 61 21 3e 50 0f ba bd a7 59 f1 3d
       0.06680363 0.15759899 -0.09084952 0.11784678
0002c0 6c ee 5f 3d 2e ed 4e 3d f5 fe 47 3e 38 78 39 3e
       0.054670736 0.05051916 0.19530852 0.18112266
0002d0 e1 dc 72 3d d4 a4 13 3f 69 84 af be d5 24 12 be
       0.059292678 0.5767338 -0.34280708 -0.14271863
0002e0 db 33 d3 3d 6a 75 ba be 9f 13 ed bd 93 1a 00 be
       0.10312625 -0.36417705 -0.11576008 -0.12510137
0002f0 09 b2 91 bd ba 91 85 be 7a 26 ee be 18 c5 24 be
       -0.07114036 -0.26087743 -0.4651373 -0.1609081
000300 7d ff 39 be 33 11 84 bd 66 ce 7e be 8b ed 8d 3e
       -0.18163867 -0.06448593 -0.24883422 0.27720293
000310 ff c0 a9 3e 30 15 8c 3d 0e fd c8 3d 33 8d 24 3d
       0.33155057 0.06839979 0.09813891 0.04017372
000320 df 08 05 3f d6 2e 3d 3e 98 ef 05 3e 0b 12 a6 3d
       0.5196666 0.18474898 0.13079679 0.0810891
000330 d7 d1 8a bd ec 79 23 bd 2b 4d b4 3d fe d5 6b 3d
       -0.06778305 -0.039911196 0.08803781 0.057577126
000340 d0 cf b6 be 95 7b 01 3e 7c 2a 94 bd 38 c0 0f 3e
       -0.35705423 0.12644799 -0.07234666 0.1403817
000350 e8 f9 4a 3e e8 6b ec 3e e6 9d 3c 3d 6b b2 85 3e
       0.19821894 0.46176076 0.04604902 0.26112685
000360 c4 d6 11 ba d5 23 16 bd 35 c4 15 3e 81 d3 33 bf
       -0.00055633136 -0.036655266 0.14625628 -0.70244604
000370 db 90 41 bd 7d 3d 41 3d c0 a7 c5 be d0 68 b9 be
       -0.047257286 0.04717778 -0.38604546 -0.36212778
000380 53 41 0a bc 8b ae 05 be 8b 99 e8 3e f8 f7 b9 bc
       -0.008438426 -0.13054864 0.45429644 -0.022701249
000390 ec c9 01 3e 8d f5 c1 3c f8 b8 35 bc 06 40 e2 3b
       0.12674683 0.023676658 -0.011091463 0.006904605
0003a0 1f c7 b6 bd b0 5b 8e be 6a 81 29 bd 60 aa a3 3d
       -0.08924698 -0.27804327 -0.041383184 0.07991481
0003b0 94 a8 51 3e e3 32 4e 3e bc 8b 99 3e 1b aa e0 bd
       0.20474464 0.20136599 0.2998942 -0.10969945
0003c0 8c 79 b9 bd ac 7a 24 3c cd 09 5d 3d 13 f2 d9 bc
       -0.09056386 0.010039013 0.053964425 -0.026604688
0003d0 54 95 d3 bd 40 81 43 be bf 28 b7 3d 25 36 82 3e
       -0.103312165 -0.19092274 0.089433186 0.25431934
0003e0 23 37 ff 3e ad 7a c1 bd 10 f9 e9 bd 66 7f 03 3c
       0.49846753 -0.09447227 -0.11424458 0.00802598
0003f0 c6 e3 21 3e 9f 60 80 3d 30 95 81 3e ac 7c a7 3e
       0.15809545 0.06268429 0.25309134 0.32712305

graph_embed_generation.fc_metadata.bias f4 [32]
000000 f3 b2 31 be 2c 33 60 3e 9d 90 c0 3d 0a 81 b0 bd
       -0.1735342 0.2189452 0.09402583 -0.08618362
000010 18 d4 8d bd 2c e4 8f 3e 2a 5d 5e 3d 85 8b 60 be
       -0.06925219 0.2810377 0.054288067 -0.21928222
000020 d2 9d 5a bd 9b 38 88 be 70 42 08 bc 61 32 08 be
       -0.053373165 -0.26605687 -0.008316621 -0.13300468
000030 59 bf ae 3d bd ef b1 3d b3 75 85 be 19 87 ff 3d
       0.085325904 0.086883046 -0.2606636 0.1247694
000040 9c 37 62 3e f7 2f 28 bd 4c a6 e7 bd 03 64 17 3e
       0.22091526 -0.041061368 -0.113110155 0.14784245
000050 5e d5 8b 3e 2e 3b 19 bd cb a3 8e 3e b8 c4 15 bd
       0.27311224 -0.037409954 0.2785934 -0.03656456
000060 7c df f7 bd 75 71 27 3e e7 be 48 3e f0 31 79 be
       -0.12103173 0.16351874 0.19604073 -0.24335456
000070 29 d2 80 3d fc 11 f6 3d 86 12 e4 3c 37 3a 61 be
       0.06290085 0.12015149 0.027840864 -0.21994863

graph_embed_generation.mlp.0.weight f4 [32, 96]
000000 94 a2 e5 3d 62 32 17 bd 39 6a 89 be 1f 3d 98 bd
       0.1121265 -0.036913283 -0.26838854 -0.07433533
000010 8b 0c 0b bd 5b 1c b7 3b 59 ae 34 be d6 a3 cb bc
       -0.03394751 0.005588097 -0.17644633 -0.024858397
000020 4a d1 0b 3d e0 9b bc be 5c 1e 45 be 85 9a 56 3d
       0.03413514 -0.36837673 -0.19249862 0.052393455
000030 5d 9f 33 bd c8 c3 8a 3e 45 f0 45 bd 4b 13 9f bd
       -0.043853153 0.27102494 -0.048324842 -0.07767352
000040 a2 1f 23 3d 2f e2 53 3d 41 6f 99 3d 33 32 1e be
       0.03982509 0.051729377 0.07491923 -0.15448837
000050 37 73 0a 3f c0 0c 99 bd 6f d6 25 3d 62 34 aa 3e
       0.54082054 -0.07473135 0.040487703 0.3324309
000060 e0 bd 50 3e c3 ca be bc 35 c7 12 3e 6a f2 03 3e
       0.20384932 -0.023290044 0.14333804 0.12885442
000070 4b 00 bf 3d a4 3a 65 bd ce a7 8b bd 7e 12 59 3d
       0.09326228 -0.055964127 -0.068191156 0.05299615
000080 d4 0d 31 3c 35 14 d6 bc 85 38 9f 3d 8a 97 45 be
       0.01080652 -0.026132682 0.07774452 -0.19296089
000090 af da 88 bd ac 60 3a be 86 c2 c4 bd 98 06 80 3d
       -0.066823356 -0.1820094 -0.09607415 0.06251258
0000a0 16 84 76 3d ba 69 37 be 24 b1 77 3d 5a 0d 89 bc
       0.06018456 -0.17911425 0.06047167 -0.01673
0000b0 52 6e a2 3d 9b 42 70 3d 76 e5 ec bd ce 3a a9 bd
       0.07931198 0.05865727 -0.11567204 -0.08263169
0000c0 1f 50 c3 bd 42 37 98 3d 1f f7 c9 bd 5f 38 ad ba
       -0.09536766 0.074324146 -0.09861588 -0.0013215652
0000d0 8d c2 d0 bd ae 50 52 bd 8e eb 47 3d 0b 88 71 bc
       -0.101933576 -0.051346473 0.048808627 -0.014741908
0000e0 17 87 a4 be 25 57 95 be 86 3e 5b 3e 16 95 08 3e
       -0.32134315 -0.29168049 0.2141057 0.13338122
0000f0 ce 29 88 be c5 01 b6 bd 7b 3e 35 3e 7f ac 1d bd
       -0.26594394 -0.08887056 0.17699616 -0.038494583
000100 89 2e 91 3d 5f fb 66 3e 6f c0 a6 bd 1a d5 b6 3d
       0.07088954 0.22556828 -0.081421725 0.08927365
000110 28 0a ca 3d 73 6a 3c bd 20 20 4b 3e 6f 87 06 be
       0.098652184 -0.045999955 0.19836473 -0.13137601
000120 42 a5 44 bc 7f 92 60 be 7f af ca bd e5 d7 d4 3d
       -0.012002291 -0.21930884 -0.098967545 0.10392741
000130 56 08 28 be f3 28 15 3c 1f ec 8b bd 9f 4f 36 bd
       -0.1640943 0.009104001 -0.06832146 -0.044509526
000140 87 05 67 be 69 31 da bd 32 23 3d bd db 96 4c 3d
       -0.22560702 -0.106539555 -0.046176143 0.049948554
000150 ea 14 ad 3d 4d 13 d8 3e 2c 74 43 bd bd 24 49 3e
       0.08451255 0.42202225 -0.047718212 0.19642921
000160 2d a7 a7 bd 63 91 39 3e 69 a8 b9 bc e0 33 81 bd
       -0.08186183 0.18121867 -0.022663312 -0.063087225
000170 4d ea 93 3d b7 ad f6 bd 6c ff 64 be 6a ab 31 3e
       0.07222424 -0.12044852 -0.2236306 0.17350546
000180 df 84 bf 3b ab 58 0e 3e ea b9 c9 3d f0 77 0d be
       0.005844697 0.13901012 0.098499134 -0.13815284
000190 ab a7 a1 3d cc b5 a6 3d c1 b5 7a bd f8 63 77 be
       0.07893308 0.08140144 -0.06120849 -0.24159229
0001a0 d9 0c 15 be c4 a3 9c 3c e3 d4 36 3e 67 67 b6 bd
       -0.14555682 0.019121058 0.17854647 -0.08906441
0001b0 14 0e 16 bd cb 26 2f 3e 8e f4 27 bd 86 ee 39 bc
       -0.03663452 0.17104642 -0.04100471 -0.011348372
0001c0 92 23 91 bd 85 09 a3 be 99 60 73 be fe 0f 4a 3e
       -0.070868626 -0.318432 -0.23767318 0.19732663
0001d0 37 a1 ee 3d a2 6a 02 3e bf b8 10 be 82 d5 1b be
       0.11651843 0.1273599 -0.14132975 -0.15218166
0001e0 d5 fa bd 3d 90 b2 39 be 73 04 ef 3d 2e ec 63 3e
       0.09276358 -0.18134522 0.116707705 0.22258064
0001f0 bd 6a b1 bd 2c 1f 91 bb 42 3b 23 be 14 16 42 3d
       -0.08662937 -0.004428765 -0.15940574 0.047384337
000200 4d 62 12 bd 7f c8 15 3e a2 45 91 bd 41 ba 6a 3d
       -0.03573828 0.14627264 -0.070933595 0.05730653
000210 f6 ae 58 3e df 62 b1 3d ef 9d 83 bd c4 bf 54 be
       0.21160492 0.08661436 -0.06426608 -0.20776278
000220 3f 55 aa 3d 18 29 e9 bd bd f5 37 be d4 8b b1 3d
       0.08317041 -0.11384791 -0.17964835 0.08669248
000230 11 a6 88 be b9 77 aa 3d 79 23 18 be 1b 12 d7 bd
       -0.266892 0.083236165 -0.14857282 -0.105015
000240 e6 4b 61 3d f3 98 06 bd 49 4a 3d bc c4 8c 79 be
       0.055004023 -0.032860707 -0.0115533555 -0.24370104
000250 90 0a 91 3e 77 b5 4a be ea fc 09 be 06 5d 0c 3e
       0.2832837 -0.19795786 -0.13475385 0.1370736
000260 d4 78 f3 bd 8f f9 a0 bc 93 2c 59 3e bc d5 c5 b9
       -0.118882805 -0.019650249 0.2120841 -0.00037734013
000270 2a eb 0e 3e 50 ea 92 be 3e 04 c1 bd 21 73 c2 3c
       0.13956895 -0.2869439 -0.09424637 0.023736538
000280 d0 09 83 be b8 cd 2f be b5 c9 c9 bd 0e 43 7a be
       -0.25593424 -0.17168319 -0.09852926 -0.24439642
000290 7e 59 65 bd 6a 24 15 be a5 8d 86 bd 39 83 69 bd
       -0.05599355 -0.14564672 -0.06569985 -0.05700991
0002a0 66 9e 60 3e a6 c1 81 3e 7f f6 50 3e 9e 3c e3 bb
       0.21935424 0.25343055 0.20406531 -0.0069347164
0002b0 7a 0f 01 be 7b c2 0c 3c 1b a7 11 be b5 9a 5f be
       -0.1260356 0.00859129 -0.14223902 -0.2183636
0002c0 55 51 4c be fb 84 b4 3d c7 ca 55 bd 0a 6d 08 3d
       -0.199529 0.088144265 -0.052195337 0.033307113
0002d0 d3 83 8d bd 2c ef ef 3d c5 c0 66 be 35 2e 80 3d
       -0.06909909 0.1171554 -0.22534473 0.06258813
0002e0 2a 18 6e 3d 3a 54 32 3d 2d 26 23 be 53 29 58 3e
       0.058128513 0.043537356 -0.15932532 0.21109514
0002f0 09 c2 30 3e c3 a1 22 3e fe 5d 1b 3e fc 0e b2 3d
       0.17261519 0.1588202 0.15172574 0.08694264
000300 14 3c cf bd 80 5b 1c 3e 8c 06 70 bd 6d 0b 40 be
       -0.10118881 0.1526928 -0.058599994 -0.18754359
000310 91 90 28 3e 68 a5 d7 3c a9 a5 21 3e c5 4d 2b be
       0.16461398 0.026323989 0.1578585 -0.16728885
000320 6f f5 d8 3d 4d 0f 5c 3d 6e 86 9a be 04 6e 80 3d
       0.10593688 0.05372553 -0.30180687 0.06270984
000330 48 ff 99 bd 0d b1 55 3e b8 da b3 bd f7 33 06 be
       -0.07519394 0.20868321 -0.08781952 -0.1310576
000340 12 f4 fc 3d 73 2c 1a 3e f2 53 cb 3c c3 bc 0d be
       0.1235124 0.15056019 0.024820302 -0.13841538
000350 49 8b c9 bc 4f 01 0d 3e 78 37 9b be 5e 4c 9c bd
       -0.02460255 0.1377003 -0.30315757 -0.076317534
000360 4a 64 ca bd 89 e6 03 bc c0 f9 57 3e 8f 51 a3 be
       -0.0988241 -0.008050569 0.21091366 -0.31898162
000370 10 38 1d 3e 38 b1 1b 3e 21 63 c7 bd 2c 03 75 3e
       0.15353417 0.15204322 -0.09735704 0.23926991
000380 5b 9a cc 3d 73 45 08 be 90 94 3e 3d 45 49 0c be
       0.099903785 -0.13307743 0.0465284 -0.13699825
000390 9d be cc 3d fb b2 1c 3e f9 d8 1e 3e e0 1a 2e be
       0.09997294 0.1530265 0.15512456 -0.1700244
0003a0 52 e2 b6 bd a6 61 9f be df cf 51 be 98 b7 b0 be
       -0.08929886 -0.31129187 -0.20489453 -0.3451507
0003b0 55 ea fe bc 69 72 41 be bf b4 a3 bd dc d4 d0 3d
       -0.031117598 -0.188913 -0.07993459 0.1019685
0003c0 5b 3f 42 be ef 68 ec 3d 2a 3e 07 3e e3 50 d6 3d
       -0.1896948 0.11543452 0.13207307 0.10464647
0003d0 25 89 0c 3e f6 cf 8d 3e de f3 4d 3d 72 80 f3 3d
       0.13724191 0.27697724 0.050281398 0.118897334
0003e0 dc 25 ac bd c0 94 6c be e3 99 de 3d b2 9f c0 3d
       -0.084056586 -0.23103619 0.10869195 0.094054595
0003f0 bd 68 8b bd d0 0b 81 3d f1 b0 bc bc ba 37 d3 3d
       -0.068070866 0.06301081 -0.023033591 0.103133634

graph_embed_generation.mlp.0.bias f4 [32]
000000 67 57 8d bb 97 90 39 bd ec 90 85 3c 77 0b cc bd
       -0.0043133977 -0.045303907 0.016304456 -0.09963124
000010 d5 e5 73 bd 60 0e 81 3c 5e 2f 97 bd 7c de 32 bc
       -0.059545357 0.015753925 -0.073820814 -0.010917302
000020 99 b5 71 bd 4d 25 e0 3c e6 8d fb 3c d1 51 f2 bd
       -0.059011076 0.027361536 0.03070731 -0.118320115
000030 e2 57 67 bd ab 0f 1f bd d9 3d 90 bd f5 85 1c 39
       -0.056480296 -0.0388333 -0.070430465 0.00014927222
000040 75 c0 a6 bd 87 47 b7 3d 4f 30 c1 bd 35 02 85 3c
       -0.08142177 0.0894919 -0.09433042 0.016236404
000050 74 83 bf 3d 2b ec a6 bc 3d 8c 9c 3d 7e e8 cd ba
       0.093512446 -0.020376286 0.07643936 -0.0015709547
000060 54 23 8a bd 90 02 bc bb 14 3b b6 3c a6 15 0c bc
       -0.067450196 -0.00573761 0.022244968 -0.008550083
000070 5e d0 53 3d e3 42 aa 3d a1 1b 83 3d c6 e1 39 3d
       0.051712386 0.08313539 0.06401754 0.04538133
