results/checkpoints/smartmap_ONE_HOP_8x8.pth (torch, 61410 bytes, 26 tensors)

graph_embed_generation.gat_dfg.att_src f4 [1, 4, 32]
00000000: 9162 4cbe ba6e e83d 43a6 00be b2cc b5bd
00000010: 6a65 a1bd 8f70 343d edec 11be 8fdf 5f3e
00000020: 8f50 fdbd b94f a0bd d472 c2bc ebf8 7bbd
00000030: 9f72 323e b587 afbd d686 58bd 2d4f 013d
00000040: 3e59 8ebd afbb 51be 184b a23e 22d2 a83d
00000050: ee96 4f3e 22c2 193e e31b 41bd f6e0 863d
00000060: 981f 193e cff4 083d 7664 6cbd c2ef ae3d
00000070: 71b4 e3bd 28f3 5cbd 3d5b 9ebe 4098 263c
00000080: 6641 51be 45d7 273d bc99 14be 1aff 9f3c
00000090: 0146 763e 5491 433e 0a08 203d 83ff 8e3e
000000a0: 6155 49bd 1303 bdbd 5fa0 9a3d 88b7 c23d
000000b0: d2c0 a4bd 0718 50bd 2c8d 923e f5e4 82bd
000000c0: 07a8 f83d c4c7 ea3d c2c4 e8bd a6dc 9f3e
000000d0: 4021 e5bd e0e2 08bd 92b7 083e c04a 94be
000000e0: a2ba 49be 2b81 9fbd 7f5c 04bf 6add 5c3d
000000f0: 63d4 a33d e3f0 85be 7a47 663e da9b 9fbd
00000100: 1952 bb3d 175f e6bc f53a 413b 7385 983d
00000110: b3b6 f9bc eb8a c63d 316e 963d 8b3e 86be
00000120: 3b6b 473b 8b34 27bd 42c2 38bd 29cc bc3d
00000130: 715b 81be d504 d93d 14f4 983d c889 eebd
00000140: aba1 a03d 2052 ed3d 3afb ec3d e7e9 55be
00000150: 6e56 c43d 24b3 a4bd b47d e63d 9f60 103e
00000160: c8ef afbd 18c5 993c 5dd4 203e 8d92 01be
00000170: 0faf ddbd 0c25 f3bd 6bc1 513e 0846 cdbd
00000180: ee3c f13d ea59 313e c773 7dbc 65b1 383d
00000190: c7e8 683e e000 9b3c e770 2dbe 9b43 36bc
000001a0: 63cd 27bc 55bd 81be 519e 073e 2ffe 92bc
000001b0: 8d57 17be cb3a d8bd 29af da3d 3d1d 81bd
000001c0: 10e4 93bd ca1b 6dbc c01c 893e 09a6 bbbd
000001d0: 7a93 51bd 3c5c 483d c017 56bd 9bd9 843d
000001e0: 380f afbd 5680 193e 6f2a 433d 5a78 a1bc
000001f0: 0e6d 233e f97e edbd 6e2c c23e 44fa b8bd
-0.19959475 0.113492444 -0.12563424 -0.08876933 -0.07880671 0.044052657 -0.14250536 0.21862625
-0.12368881 -0.07827706 -0.023736395 -0.061516684 0.17426537 -0.08570806 -0.052862965 0.03156965
-0.06950615 -0.20481752 0.31697917 0.08243205 0.20272419 0.15015462 -0.047145735 0.06585877
0.14953458 0.033436593 -0.057712995 0.08541824 -0.11118401 -0.05394283 -0.30928984 0.010168135
-0.20435104 0.04097678 -0.1451177 0.019530822 0.24050142 0.19098407 0.039070167 0.27929315
-0.04915369 -0.09229102 0.075501196 0.09507662 -0.0804459 -0.050804164 0.2862333 -0.06391326
0.12141424 0.114638835 -0.113656536 0.3122303 -0.111879826 -0.03341949 0.13351277 -0.2896328
-0.19700101 -0.07788309 -0.5170364 0.053922094 0.07999494 -0.26160344 0.22488204 -0.07793398
0.09146518 -0.028121514 0.0029484604 0.074473284 -0.030482626 0.09694465 0.07345236 -0.26219591
0.0030428905 -0.040821593 -0.045107134 0.09218628 -0.25265077 0.10596625 0.07468429 -0.116473734
0.07843336 0.1158793 0.11571355 -0.20890008 0.09586798 -0.08041981 0.11254445 0.14099358
-0.085906565 0.01877074 0.1570601 -0.12653561 -0.108244054 -0.118723005 0.2048394 -0.10023123
0.117791995 0.17319456 -0.015469498 0.04509105 0.22745048 0.018921316 -0.169376 -0.011124517
-0.010241839 -0.2533976 0.13243987 -0.01794347 -0.14779492 -0.10558089 0.106779404 -0.06304405
-0.07221234 -0.014471957 0.26779747 -0.09162528 -0.051166035 0.048916087 -0.052268744 0.064868174
-0.085478246 0.14990363 0.04764789 -0.019710708 0.1595957 -0.11596484 0.37924522 -0.090321094

graph_embed_generation.gat_dfg.att_dst f4 [1, 4, 32]
00000000: af26 3a3d ad67 493e dbdf 90bd b48f 913d
00000010: 0768 96bd 60ba 183e 6c50 0f3e 4cab 4abe
00000020: 53bb ae3d 5aa9 833e ca4d a63d cada 39be
00000030: 3a7e d53d 5dce f83d 5e77 213d d1ff 86be
00000040: 7e97 4e3d 6f25 98bc d58b f03c e3bc 183e
00000050: df82 d63c ee51 c2bb 4e1b adbc b23b 613e
00000060: 1854 9ebd 3a10 d3bd c5de 1ebe f625 863b
00000070: 4d8c 943b 861a 453d eec8 97bc 8153 bd3d
00000080: 10cd 153d bfb8 0dbe 5b0a 043d f901 e23c
00000090: 074b 44be 4b67 473e c5c5 aa3d bd91 c03d
000000a0: a6ec d6bd c7f3 10be f74d a33d 5105 fbbd
000000b0: dc94 d4bd 1561 ab3d 0d61 643d b745 683c
000000c0: bcc3 86be b36f c43c 83ef 66be 7c41 003e
000000d0: 5845 213e 329f d13d 1332 e03d e1b8 233d
000000e0: aacb 07be d8e4 ce3d a653 4bbe cfdf 293d
000000f0: b3c2 62be 498b 603d cda4 3b3e ffb8 d8bc
00000100: e1ba 76bd 5eb1 d43d d7a4 71bd 5208 c03d
00000110: 8520 523d bc73 893d fe58 a1bd 0c9f 843d
00000120: 54b9 1dbe b90b 17be cc83 7b3d 0f91 3dbc
00000130: 368a a4bc aa25 353e 4c9d 98bd b633 b3bb
00000140: b4f2 773e 488d 623e 9db6 48be 5209 a1be
00000150: 62d5 503e add9 9dbd 4bc9 cd3d 89c7 163c
00000160: 5cb2 043d 34e8 2c3e 5626 1fbd 655b 6fbd
00000170: e3d3 943d 5476 ee3d 868c e1bb 8f86 8abd
00000180: bc92 3a3e d4c6 18bd d919 57be 2a9c 783e
00000190: 93ad 0c3d 6c92 ea3c 1cfc 523d e5ea 60be
000001a0: 471c 933a de9e 91bd aae9 a43c a2fc efbb
000001b0: 0cf1 d23c 99f5 393e f61e 73be d22a f63d
000001c0: 7f74 eabd de8e 97be 7715 1a3e e333 97bd
000001d0: c32c 843d 658d 933e 3ed1 6ebe cee2 f23d
000001e0: 82b4 423e f9a5 1a3e ffa9 183e 1a42 493d
000001f0: 1ae5 293e 9c6a fe3c 8b77 c2bd c78b 573d
0.045447048 0.19668455 -0.07073947 0.07107487 -0.073440604 0.14914846 0.13995522 -0.19791907
0.08531823 0.25715142 0.08120306 -0.18149868 0.104244664 0.12148736 0.039420478 -0.26367047
0.050437443 -0.018572537 0.029363552 0.14915805 0.026185451 -0.005930177 -0.021131184 0.21995428
-0.07730883 -0.10305829 -0.15514667 0.0040938808 0.0045333267 0.048120998 -0.018528428 0.09244443
0.036572516 -0.13840006 0.03223644 0.027588831 -0.19169246 0.19472997 0.08338503 0.09402797
-0.10494356 -0.14155494 0.07973855 -0.122568734 -0.10379955 0.08368126 0.055756617 0.014176778
-0.26321208 0.023979044 -0.22552304 0.1252498 0.15749109 0.10235442 0.10947051 0.039971236
-0.13261285 0.10102242 -0.19856128 0.041473206 -0.22144584 0.054820333 0.18324585 -0.0264554
-0.060236815 0.103853926 -0.058995094 0.09376587 0.051300544 0.06711528 -0.07878302 0.06475648
-0.15402728 -0.14750566 0.06140499 -0.011570229 -0.020085435 0.17690149 -0.07451877 -0.005468811
0.24213678 0.22124207 -0.19600911 -0.31452423 0.20393899 -0.07707534 0.10048159 0.009202846
0.03239666 0.16885453 -0.03885492 -0.05843677 0.07266977 0.11643663 -0.006883207 -0.06763946
0.18220037 -0.037298992 -0.21005954 0.24278322 0.03434522 0.028634273 0.05150996 -0.21964605
0.0011223637 -0.0711038 0.020130951 -0.0073238173 0.025749706 0.18160094 -0.2374228 0.12019886
-0.11448001 -0.29601187 0.1504725 -0.073829435 0.0645385 0.28818813 -0.23322007 0.11859666
0.19014171 0.15102376 0.14908598 0.049135305 0.16591302 0.031056695 -0.09495457 0.052623536

graph_embed_generation.gat_dfg.bias f4 [32]
00000000: 7d67 0f3d 8548 4d3d c8bc 413d 50a0 95bd
00000010: b30e 3b3d 74d3 67bd 7a58 69bd a602 b7bd
00000020: 1b2d b1bd e0bd 513d dc2f c8bd e7be 813d
00000030: fae8 18bd 0592 723c e6f9 77bd c880 f7bd
00000040: f0e4 b73c 9fea 30bd 6f0a 37bd f909 873d
00000050: cc81 6c3d e152 8d3d 5896 bc3d 8db0 51bd
00000060: da6c b03d 7192 43bd 412e 613d 53bb 263d
00000070: 55e6 843d 03c6 c43d 8cdf 8abd 47b7 483d
0.035010803 0.05011799 0.047299176 -0.07305968 0.045668315 -0.05659814 -0.056969143 -0.08936052
-0.08651181 0.05120647 -0.097747535 0.0633524 -0.03733156 0.014805322 -0.060541056 -0.1208511
0.022448033 -0.043192502 -0.044687685 0.06593699 0.05774097 0.069005735 0.09208363 -0.051193763
0.08614512 -0.04774708 0.05497575 0.04070599 0.06489245 0.0960808 -0.067809194 0.049002912

graph_embed_generation.gat_dfg.lin.weight f4 [128, 9]
00000000: af38 2ebd ae15 563e 82ff 97bd 7fd2 863d
00000010: ed21 333d 7128 20be e3fb 65be 5b10 3a3e
00000020: 3163 14be 51c4 db3c ed78 09be ec1d 953e
00000030: 6577 193e 6a3c f3bd 0aaf dcbc d932 083e
00000040: fd19 2c3e e8e3 0438 b8ba c3be 8394 18bd
00000050: 2e95 463e 2bc9 91be 3819 063e 617f 2bbe
00000060: b033 0fbe 2492 a63d 1918 a03d 17ee 6e3e
00000070: 37e3 493e b3aa 0fbc acc2 943d 7ca1 cfbd
00000080: 4609 83be 8d10 63bc 578f b03d d3de 95be
00000090: 1881 e0bc 2308 ebbc 0939 203e 9dcd 65bc
000000a0: aaca 433e b266 42bd b077 24be 50d0 913d
000000b0: 3b42 9cbd b10d 313e 7cc5 293e 3669 cfbd
000000c0: 7965 cfbc 1d8a 833d 9732 8d3d 5cbe 213d
000000d0: 4b32 aabe 1eae 85be 85d3 cf3e f7dc c13d
000000e0: 1ca4 473e 7c67 14bc a866 02bd 65b2 e8bd
000000f0: 0dbe dabd 50ab cfbd f609 4b3e 4595 3e3e
00000100: 2595 9e3c 9821 14be b452 473d 7c73 12bd
00000110: ce78 893e df34 1e3d 76ca 70be bd8a 6bbe
00000120: f850 fa3d 12ea 6c3e 4053 ea3b 41c2 44be
00000130: 2040 7dbd 1f06 1e3e 079d 733e 570e 1ebe
00000140: d30b 3e3e 57fe 48bd d86a 8abe 5f95 1bbe
00000150: 2204 aabe cd7a fe3d b774 0fbe 24f3 09be
00000160: 2ecf c43d 6c0d 693e 97a4 113e 8d48 2d3c
00000170: e1ed 313e d142 2fbe 78bf 0e3e dcb2 073e
00000180: aa08 1abe 2eca 5dbc f404 6a3e debb f0bd
00000190: 8a33 70be 671a 07bd cf61 5f3d bcd1 2fbd
000001a0: 451a 77bd f51e 28bd 57cf f4bc 5c81 c7bd
000001b0: a8f3 893e 4a9d e43c 4e70 38be ce56 b53d
000001c0: 774c 11be 7c5f 983e 73a8 a5bd d506 8ebe
000001d0: 6371 4f3d 7ed8 63bd 2238 f5bc 690a c0bc
000001e0: d1c4 35be d668 153e 5490 8abc 5544 993e
000001f0: 9781 7b3d 453f b53d 78ba 3e3d af07 303c
00000200: b3a1 813d 9ff3 803e 9b4c 883d 3816 c93d
00000210: 3b76 ffbd bd92 2dbd 0348 1abd e55f a03b
00000220: aada 2abc 522e 7fbd d057 4abe 6a31 d53d
00000230: d31b 6a3d bc84 25bd 5a56 3ebe 4c0e 32be
00000240: fe2e 81bd 9d75 54be 5d24 9f3d a2ea 9b3c
00000250: ad1e 69bc 2330 f43b 80c8 01be aa21 673e
00000260: 0dfe 49be 4d1f 6e3e 5792 253e 0e99 7b3d
00000270: 521a afbc 8548 e7bd b997 dd3d 84e9 073e
00000280: b97d 193e a87c e8bc 86ee 873e 2fd2 283d
00000290: 39a9 99bc 5f96 b33d 5693 253d 70fc ef3b
000002a0: 7e6f 00be c6e3 40be 4d4e b53d d344 fd3c
000002b0: ddc6 aabd fdde eebd fa91 0b3d c21e 8e3d
000002c0: 81c5 0fbd 7bbc 503d 4113 39bd 801a 943d
000002d0: 52a1 92be 1894 683d 4ea6 003d 87af 963b
000002e0: 7320 72bd 2870 36bd 4eb4 943d 5839 ff3d
000002f0: 43f7 93bc fbe5 e3bb 0750 71bd 548a 863c
00000300: b846 debd d126 a1bd df84 edbc e951 ac3e
00000310: bcef bebc 00f6 883c 5441 82bd 5388 1abe
00000320: e38f 7fbd 24f1 4f3d 7ec2 82bd 035a 103d
00000330: 2333 abbd b62d e13d 767f 393e e036 2f3e
00000340: a20f 873e a5dc 7cbd 7ec9 203e cf7e 8c3e
00000350: cd8d 913d d2e6 5fbd 7f01 a1be 5525 c43c
00000360: 3c49 113e ef1d 33be 195a 69be 079a 17be
00000370: 9a5e 3abc a5f0 e9bd 505e 89bd b4e1 a13d
00000380: 9c2f d1bd 8835 1d3e b902 963e b6af 123e
00000390: eff0 2b3e 4ba4 0dbe 8df6 223d 1ce3 f6bd
000003a0: 4193 4abe f0c7 a1bd 847a c7bd 3df6 813d
000003b0: b8c5 d7bb 9d8d 653d 04d4 c03d 7686 c53d
000003c0: d8a2 d73c 2724 723d 93f3 e33d c31f 9bbd
000003d0: 8074 8bbe 1869 d23d 89de fbbc fbb1 163e
000003e0: 0e7d 4cbd 0ced 54bd df99 473d 12a6 ecbd
000003f0: c9b1 42bc 6509 20be 9ae1 a33d 11b9 9e3c
-0.042534526 0.20906708 -0.07421781 0.06583118 0.043733526 -0.15640427 -0.22459368 0.18170302
-0.14490964 0.02682701 -0.13425036 0.2912439 0.14986952 -0.118767574 -0.026938934 0.13300647
0.16806789 3.1683507e-05 -0.38228393 -0.037251007 0.19392845 -0.2847379 0.13095558 -0.1674781
-0.13984561 0.08133343 0.07817096 0.23333012 0.19715582 -0.008768725 0.07263693 -0.101382226
-0.25593013 -0.0138589265 0.0862109 -0.29271564 -0.027405307 -0.028690403 0.15646757 -0.014026073
0.19120279 -0.04746122 -0.16061282 0.071198106 -0.0762982 0.17290379 0.1657924 -0.10127489
-0.02531694 0.064228274 0.06894415 0.03948818 -0.33241495 -0.26109403 0.40591064 0.09465974
0.19496197 -0.009057876 -0.031836182 -0.11362151 -0.106807806 -0.10140097 0.19828019 0.1861163
0.019358227 -0.1446594 0.048662856 -0.035754666 0.2684998 0.03862464 -0.23514733 -0.23002143
0.12222475 0.23136166 0.0071510375 -0.19214727 -0.061828732 0.15432023 0.2379037 -0.15435158
0.18559198 -0.049070682 -0.2703464 -0.151937 -0.33206278 0.12425766 -0.14009367 -0.13471657
0.09609829 0.22759026 0.14222942 0.0105763795 0.173759 -0.17115332 0.13940227 0.13251823
-0.15042368 -0.013536973 0.22853452 -0.11754583 -0.2345716 -0.032984164 0.054536637 -0.042924628
-0.060327787 -0.041045148 -0.029884024 -0.0974147 0.26943707 0.027907033 -0.18011591 0.08854447
-0.14189325 0.2976035 -0.0808877 -0.27739587 0.050645243 -0.055626385 -0.029933993 -0.023442464
-0.17750861 0.14590773 -0.016914524 0.29934946 0.061402883 0.08849958 0.04656455 0.010744019
0.0632967 0.25185868 0.06655236 0.09818691 -0.124737225 -0.04237627 -0.037666332 0.004894244
-0.01042811 -0.062300034 -0.1976006 0.104098156 0.05715544 -0.04040979 -0.18587628 -0.17388266
-0.06307791 -0.20747991 0.077706076 0.01903278 -0.014228505 0.0074520274 -0.12674141 0.22571436
-0.19725819 0.23254128 0.16169105 0.06142526 -0.021374855 -0.11293129 0.108199544 0.13272673
0.14989366 -0.028379753 0.26549166 0.04121607 -0.01875745 0.087689154 0.040423714 0.007323794
-0.12542531 -0.18836889 0.08852825 0.030916607 -0.083387114 -0.116636254 0.03407476 0.0693946
-0.035100464 0.050961 -0.045184378 0.07231617 -0.28638703 0.05678186 0.0314086 0.004598561
-0.059112977 -0.044540554 0.07260953 0.12462109 -0.01806224 -0.006954906 -0.05891421 0.016423382
-0.10853332 -0.07868732 -0.028994022 0.33656242 -0.023307674 0.016718864 -0.063601166 -0.15091066
-0.06239308 0.05076708 -0.06384753 0.035242092 -0.08359363 0.10995047 0.18115029 0.17110777
0.26379114 -0.06173386 0.15701863 0.27440497 0.071071245 -0.054663487 -0.31446454 0.023943583
0.14188093 -0.17491888 -0.22788276 -0.1480485 -0.011375094 -0.114228524 -0.06707442 0.079043776
-0.10214159 0.15352452 0.29298952 0.14324841 0.16791128 -0.13832204 0.03978591 -0.120550364
-0.19782735 -0.07899463 -0.09740165 0.06345794 -0.006584849 0.056043256 0.09415439 0.09644787
0.026322767 0.05911651 0.111304425 -0.075744174 -0.2723732 0.10273951 -0.030745761 0.14716332
-0.04992395 -0.051983878 0.048730727 -0.11555113 -0.011883208 -0.15628584 0.080020145 0.019375356

graph_embed_generation.gat_cgra.att_src f4 [1, 4, 32]
00000000: 9726 b83d 9e1e 46be e9c1 e73d a08b b73b
00000010: cf81 2bbe 5d3d 123e 4e61 0f3e 9e6d 023a
00000020: 8dc0 d13d cd08 12be a593 953e c5b1 97bd
00000030: 9fb9 d63e 6d3d d33b 3a43 9dbd c78e cabc
00000040: 528a 1bbe 7413 1a3b 6362 4ebe 18f3 083e
00000050: 2371 083d 0e3e 243e bc44 d6bc c3c2 d53d
00000060: 1378 f03d 526c 8ebd 431b 993d 4e1a 623d
00000070: 1f37 e3bc ee27 993d d8ba 3ebd 4f14 d33d
00000080: 4a79 33be 8274 74be 0611 f5bd c3ec 233e
00000090: aeed 48bc f0be 103e 32da 12be cecb 033e
000000a0: 57ea d4bd ebe3 fe3d 81e8 4dbd 8d46 053d
000000b0: f4de f5bd 0712 e53d 720e ac3d 0f0f be3d
000000c0: 8b55 dabd b6f5 e3bd c6f6 423e fd64 2e3e
000000d0: c73a 173e 7f43 e4bd c75a f4bd 898f d9bd
000000e0: b021 94be 5f28 0e3e bdef 06bc 07d0 adbc
000000f0: e55d b83c 3355 40be dec3 413e fb46 88bd
00000100: a9fe 1f3c 13eb b9bc 40fa 0bbe 966c 93bd
00000110: 8506 44be 0ee4 58be bf93 533c f4d7 e53d
00000120: 55db 143e 527c 933d cdae 223e e9bc 243e
00000130: 5e5c 4e3d ca4d 943d 3d97 8b3d 233b 823d
00000140: 4147 6a3e ac76 233e 8699 2c3c 8f93 93bc
00000150: d636 bd3d 26f9 7abd da72 d2bc fd0f 4fbc
00000160: 55b2 013e a11e 75bd 98c6 813c b706 a23e
00000170: c3a7 08bd a9f4 923d 4b3f 0fbe 75b3 42be
00000180: 16f0 f33c d2ff 91bd 921a 71be daaa c6bd
00000190: 2cd6 80be a573 4abc f4b7 af3d 7ade 30bd
000001a0: 052d a7be b187 58bd 5f41 453d c1b5 77be
000001b0: 2359 873d 86dd cabc 5695 343e e92e a9bc
000001c0: 8109 ce3d 3dd6 fabc f5b8 0b3e a3eb f1bc
000001d0: 5f40 213c d33e 10bd ee91 dabd b47d a1bb
000001e0: 501a 183e eac2 2fbd 05bc 063d b90f cb3d
000001f0: 8363 83be 786e 45be 6067 d73d 0b1f 4dbe
0.089917354 -0.19347617 0.11316282 0.0056013614 -0.16748737 0.1428122 0.14001963 0.00049754407
0.10241804 -0.1426117 0.29214206 -0.07406954 0.41938493 0.0064465315 -0.07678838 -0.024726285
-0.15189484 0.002351013 -0.20154719 0.13373983 0.03331102 0.16039297 -0.026155822 0.104375385
0.11741652 -0.06954254 0.07475903 0.055200867 -0.027736245 0.07478319 -0.046564907 0.10306608
-0.17526737 -0.23872569 -0.119661376 0.16008286 -0.0122636985 0.14135337 -0.14341047 0.12870714
-0.10396259 0.12445816 -0.05027056 0.032537986 -0.120054156 0.11185079 0.08401193 0.09280216
-0.10660847 -0.1113085 0.19039449 0.17030711 0.14768516 -0.11145686 -0.11931377 -0.1062308
-0.28931952 0.13882588 -0.008235869 -0.02121736 0.02250571 -0.18782501 0.18922374 -0.066541635
0.009765306 -0.0226951 -0.13669682 -0.071984455 -0.19143112 -0.21180746 0.012913643 0.112228304
0.14536794 0.072014466 0.15886994 0.16087689 0.050381057 0.072413996 0.06815956 0.06358936
0.22878744 0.15963238 0.01053465 -0.018014697 0.09238975 -0.061272763 -0.025689531 -0.012638089
0.12665685 -0.059843663 0.015841767 0.31645748 -0.033363115 0.071755715 -0.13988988 -0.1901377
0.029777568 -0.07128872 -0.23545292 -0.09700556 -0.251634 -0.012356673 0.08580008 -0.04318092
-0.32651535 -0.05286378 0.048158046 -0.24190427 0.06608798 -0.024763834 0.17635092 -0.020652251
0.100604065 -0.030619735 0.13644774 -0.029531306 0.009842007 -0.035216164 -0.10672365 -0.004928315
0.14853787 -0.042910494 0.032894153 0.09915108 -0.2566186 -0.19280422 0.10517764 -0.20031373

graph_embed_generation.gat_cgra.att_dst f4 [1, 4, 32]
00000000: c6d0 ecbd b110 87be 4ed2 fbbb c6cb 8abc
00000010: 6374 223e 92ce ac3b 9f10 5bbe 1b5a ae3c
00000020: 467c 55be cb6a f3bd 973f b73d 9d4b bebd
00000030: cc21 d63e d417 a9bd 7880 263e 4ed8 9abd
00000040: 3991 c6bc abee 59be 62ac b33d 49bb 1f3d
00000050: 340b 28be dde1 eabc 751d 96be b131 523d
00000060: 55ae 25bd ea45 fb3d 0e5f 59bb a6e5 0bbe
00000070: cf93 7b3e 8b8a 75bd a43a dabd 6612 a23d
00000080: a8af 50bd 6524 963b 1682 bd3d f1b7 9b3c
00000090: f185 183d ce82 5abd 841c 9dbd a8bb 8c3e
000000a0: 99dd d0bd 0c75 4bbe c6ff e23d 0ea6 c63c
000000b0: b14c a2bd bbc2 e43d 9b35 9dbd bcfa 983c
000000c0: 7939 b73a 1e01 7bbe ac16 eabc 8dd0 503e
000000d0: f7c5 283d f0f4 d33d 4237 72be 1587 03be
000000e0: 536f d3bd 5b57 88bd dc3a 053e a98a 6e3e
000000f0: 92e8 483e 3373 513e 931e b4bd 7e8b 55bd
00000100: 51a0 a0bd bff9 9fbd e732 49bd e393 aabd
00000110: 2045 3c3e b7be e43d 54bb 4dbd 1497 893e
00000120: 819a 133e a0da 233e d4f3 cfbd 0887 1fbd
00000130: 8c30 183e ee9f 533e cd4e eabd a210 4cbc
00000140: f51b 93bd 6f27 22be e30b e1bd 6b9d 9bbd
00000150: 4ec8 a33d d3cf 12be 38b4 ee3c 7852 8d3d
00000160: a57e 4abd 0a6b 603e 8587 353e 42af 36be
00000170: b991 ae3d 089a 1dbe 691f e2bd 1d19 86bd
00000180: 28b1 65bd 932c 39bd fac8 7a3e 89a0 7ebc
00000190: ee2d 5fbd 41c9 9bbd ebd1 3e3d db26 b9bc
000001a0: 5dd3 26be 2f6d 10bb f4bc 01bd fb3f 8d3d
000001b0: 6681 3f3e 7935 a3bc 4c86 2c3e 56de 443e
000001c0: 17b2 7fbd e34c 58be f531 0abe cafe 36bd
000001d0: 793d 843e 3c05 b9bc 470d ba3d cb39 303d
000001e0: f2d8 723d 7798 91bd 9a52 cbbc 7f3e edbd
000001f0: c5ca 7fbd dca9 143e af26 cf3c 5d7c 703b
-0.11563258 -0.26379922 -0.0076849824 -0.01694287 0.1586471 0.0052736485 -0.21393059 0.0212832
-0.20848188 -0.118856035 0.08947676 -0.09291766 0.4182266 -0.08256498 0.16259944 -0.07560788
-0.02423917 -0.21282451 0.08773114 0.03899697 -0.16410524 -0.028672153 -0.2931935 0.05131692
-0.04044946 0.122691944 -0.003316823 -0.13661823 0.24568103 -0.059946578 -0.10655716 0.079136655
-0.05094877 0.0045819753 0.092533275 0.019008609 0.03723711 -0.0533474 -0.076714545 0.2748692
-0.101985164 -0.19868869 0.11083941 0.024249103 -0.07924784 0.111699544 -0.0767624 0.018674247
0.001397892 -0.24512145 -0.028575264 0.20392056 0.04120442 0.103494525 -0.23653892 -0.12844498
-0.10323968 -0.06657287 0.13010734 0.23295082 0.19619969 0.20454101 -0.08794894 -0.052134983
-0.07843078 -0.07811307 -0.04912081 -0.083289884 0.18385744 0.111691885 -0.05022748 0.26873076
0.14414407 0.16001368 -0.101539284 -0.038947135 0.14862269 0.20666477 -0.11440811 -0.012455137
-0.07183067 -0.15835355 -0.10988595 -0.075983845 0.079971895 -0.14337091 0.02913867 0.06900495
-0.049437184 0.21915832 0.17727478 -0.17840293 0.08523888 -0.1539079 -0.11041147 -0.06547759
-0.056077152 -0.045208525 0.24490729 -0.015541204 -0.05448716 -0.076067455 0.046586912 -0.022601536
-0.16291566 -0.0022037735 -0.03167434 0.06896969 0.18701705 -0.019922959 0.16848105 0.1922544
-0.0624257 -0.2112308 -0.1349562 -0.04467658 0.2582815 -0.022585504 0.09084564 0.043023866
0.059288926 -0.071091585 -0.024819661 -0.11584186 -0.062449235 0.14517921 0.025287 0.003669522

graph_embed_generation.gat_cgra.bias f4 [32]
00000000: f56a 67bb 52c3 e43c 11c8 4d3d 05a9 623b
00000010: 912c 82bb f3d0 623d 9b24 333d 8dfa 15bc
00000020: c404 523d dd5b 903c 7f42 b53d 7ab8 78bc
00000030: 19a6 803d 9a36 bcbd 186a 8fbc c60e 0c3c
00000040: 5727 7ebd 4726 15bd 7e26 973b 8272 04bd
00000050: aa86 2a3c 40e3 6e3d 5a84 1c3d 1cc9 a33d
00000060: 7797 94bc befe 223d deed 873d f336 d3bc
00000070: 4cc4 d03c 593b 723c f666 55bd 5038 603d
-0.0035311554 0.027925167 0.050239626 0.0034585607 -0.003972598 0.05537505 0.04373608 -0.009153974
0.051274076 0.017621929 0.08850574 -0.015180701 0.062816806 -0.09190102 -0.017506644 0.008548444
-0.062049236 -0.036413457 0.004612743 -0.032335766 0.010408083 0.05832219 0.038212158 0.07997343
-0.01813863 0.039793722 0.066371664 -0.025783038 0.025484227 0.014784657 -0.052100144 0.054741204

graph_embed_generation.gat_cgra.lin.weight f4 [128, 7]
00000000: 7612 a73d 13d9 e83d 7ac9 323d 2aa2 513d
00000010: df12 89bc 47a9 3b3e e3c5 f0bc 5bdf d7bb
00000020: a95b 36be 60e8 f33d 9419 d2bd 214c 4c3e
00000030: be2d 41be b595 0abe be3e 9b3d 9079 d83d
00000040: f174 a0bc 9e3b fbbc 718c fe3c 4909 97bc
00000050: ec37 9dbd c56c 1cbe b7cc 0fbe a988 9abd
00000060: e034 05be 33c7 ee3d 49f3 323e 336d f5bc
00000070: 0ec9 cd3c 9d95 86bd 50e1 ecbc ee68 5abe
00000080: a45d 8ebd 603f 78be be7d 28be 5d81 953e
00000090: cdcf 3abb eb8c f13b 770f 0f3c 34ea 9fbc
000000a0: 816f 543d e544 63bd 391a 6c3e d5dd c03d
000000b0: bac6 843d 4342 2fbd d613 a43e 1fbc f63e
000000c0: d84b ecbd 55d4 5f3d f9cb dabd 05b1 0d3e
000000d0: 4992 9fbc 7058 443e a821 903d d1d7 d6bc
000000e0: 3d3f 903e 1f37 c33b d03d a63d 5cfe 96bb
000000f0: 1e90 1e3e 0f63 5abc 7cd4 0abe cd9c d13c
00000100: 333a 0b3e d6f8 453e 5410 853d ab05 74bd
00000110: d329 cfbc 0b50 80be a9ee ec3d 9ea8 94bc
00000120: ac98 3abc 666d 963e 317b 4b3d cb26 3c3d
00000130: 1f9b 02bd 8be9 63be a2fc 23bb deba 8e3d
00000140: 0622 a3bd ecb5 75bc 6377 cebd 8d1f 813e
00000150: 3e3d 813e 97e7 bb3d 7c23 01be d0a7 203d
00000160: 6c2b 803d 966b 8e3b 6851 fd3d ec20 40be
00000170: 42ca ffba 5b8b 053e e4ab b0be ce6d 82be
00000180: 420b 043e 5a97 a83e ee8e f63d 65ad 2ebd
00000190: e28a 393e d982 58be 322a 8d3d 5bca 10be
000001a0: 2213 cbbd 5dea b5bd 6f72 5fbe a3da 6cbe
000001b0: 793d b43c 0d99 ecbd 3dfd 25bc 9bbb 0abc
000001c0: e9df 31be 10f9 f2bc 76a8 e5bd ec44 b23c
000001d0: b076 1abe 63ba fc3d 26ce 933d 5088 9aba
000001e0: 1f6c 8bbd 1d92 b4bd e29b 0cbd 7bf5 a2be
000001f0: 654c 7e3d 738f c73e 4907 86be 7f09 b13d
00000200: d89e 393d 7e5b 11be 891b 01be 2843 a83c
00000210: 8a88 44be 3336 5a3c 524e 63be 15a6 22bd
00000220: 965d 813c 6ac2 ecbd c050 fd3b 6c28 323e
00000230: 0c52 d13d 9961 49bd 6005 3dbe 9be4 1b3e
00000240: a979 bdbd c284 433c f8ae d4bd 416e ba3e
00000250: 8706 b33e a85a edbd a703 e5bd 3228 f63d
00000260: 8e2b fb3d 3a31 6a3d 6b51 2bbd 2d80 35bd
00000270: fbc9 553c f315 3abe 991f 22be 3960 5f3d
00000280: 4573 10be 9112 c83d 9a66 923e 5fef 543e
00000290: 09a3 73bc a5aa b33e 33dc e9bc 281c 13be
000002a0: 9ce6 96bd f33b 1d3d 1f99 553d dbfc 96bd
000002b0: d35a 5fbc 8268 0dbd efe5 653d 4c2f 46bd
000002c0: 0e9b 33bc 2263 fcbb 0d99 983d dc6a 503d
000002d0: 9311 283e 13cd 07be dbb1 6f3e 6529 313e
000002e0: f856 503c 14d6 253e f99d 173e e428 8fbd
000002f0: cd59 44be ec83 94bd 716f 9abc f9c2 85bc
00000300: ac93 e03d de8c f2bc f24e 13be e84f b23d
00000310: bf31 26bd 3bea 7a3d 3943 613d fe74 7a3e
00000320: 74b2 5a3e 796c 7b3d 14fb e0bd 1129 bfbc
00000330: ed3e 7cbd 2dfd 373d 7b57 dfbc 85da eb3d
00000340: 3462 48be 4a10 9dbd 14fb 463d 60d9 eebd
00000350: 66bd e8bd 4dc0 adbd c08c 09be fffa 61be
00000360: 7bfd 563e 2f07 b1bd f4cf 31be c64d 81bd
00000370: 5b55 42bd 298e 6c3c c4ec 1e3e df45 96be
00000380: 26eb 4f3e 0edd 7dbd eae8 a03d 96f0 76bc
00000390: 0d67 b13c 1995 f63b 1c8e 1a3e 0eb3 2bbd
000003a0: 7284 613e 5eff 143e 0f7f d13d 5c63 dabc
000003b0: 00d6 aabc ed34 5fbe d71f 2e3e 52ac 273e
000003c0: 0c1e bb3c d821 e23d 16e0 1cbc e844 393e
000003d0: 96f7 56be b420 113e 6b28 02be daaf 1abe
000003e0: 1ecb fb3d 35e1 2dbc ee0b 03bd 381c 11bd
000003f0: 9dcf 1a3c 3934 26be 00a2 f53d 7670 533d
0.08157818 0.113695286 0.043649174 0.051180042 -0.016732631 0.18326293 -0.029391235 -0.0065879053
-0.17808403 0.119095564 -0.10258785 0.19950916 -0.18865106 -0.13533671 0.075803265 0.10570061
-0.019587012 -0.030668076 0.031072827 -0.018437045 -0.07676682 -0.15275867 -0.14042936 -0.07545597
-0.13008451 0.11659088 0.17475618 -0.029959297 0.025120284 -0.06571505 -0.028916031 -0.2132909
-0.06951454 -0.24242926 -0.16454217 0.2920026 -0.0028505207 0.007371535 0.008731714 -0.019520856
0.05186415 -0.055485625 0.23056878 0.09417311 0.064832166 -0.0427878 0.32046384 0.481904
-0.115379035 0.054645855 -0.10683436 0.13837059 -0.019478934 0.19174361 0.070376694 -0.026225956
0.28173247 0.0059574987 0.081172585 -0.0046079587 0.15484664 -0.0133292815 -0.13557619 0.025587464
0.1359642 0.19333205 0.06497255 -0.059575718 -0.025288498 -0.25061068 0.11568958 -0.01814681
-0.011388939 0.2938034 0.04967803 0.045935433 -0.031886216 -0.22257058 -0.0025022407 0.06969236
-0.07965474 -0.014996987 -0.10081365 0.25219384 0.25242037 0.09175032 -0.12611192 0.03922254
0.06258282 0.0043463213 0.12369043 -0.18762559 -0.0019515234 0.13041441 -0.34506142 -0.254744
0.1289492 0.32927972 0.120389804 -0.04264583 0.18119386 -0.21143664 0.06892814 -0.14139692
-0.09915759 -0.08882592 -0.21820997 -0.23130278 0.022001969 -0.115526296 -0.0101311775 -0.00846758
-0.17370571 -0.029659778 -0.11213772 0.02176138 -0.15084338 0.12340238 0.07217054 -0.0011789892
-0.06807732 -0.088169314 -0.03432835 -0.31827912 0.062084574 0.3897663 -0.26177433 0.08644389
0.0453175 -0.14195058 -0.1260816 0.020539835 -0.1919271 0.013318586 -0.22197846 -0.03970917
0.015791696 -0.11560519 0.0077305734 0.17398232 0.10220727 -0.049165342 -0.18459082 0.15223925
-0.092517205 0.011933507 -0.10384935 0.36412242 0.34965917 -0.11589557 -0.11182337 0.120193854
0.12264167 0.057175852 -0.041825693 -0.04431169 0.013048644 -0.18172435 -0.15832366 0.054535124
-0.14106472 0.09769166 0.28593904 0.20794438 -0.014870414 0.3509113 -0.028547382 -0.1436621
-0.07368204 0.03838725 0.05214798 -0.07372447 -0.013632494 -0.034523495 0.056127485 -0.04838495
-0.010962261 -0.0077022472 0.07451067 0.05088316 0.16412954 -0.13261823 0.2340769 0.17300947
0.0127160475 0.16194946 0.14806356 -0.06990221 -0.19174881 -0.072517246 -0.018851968 -0.016328322
0.10965666 -0.029608186 -0.14385584 0.08706647 -0.040574785 0.061258536 0.05499575 0.24458691
0.21357137 0.061382744 -0.10985389 -0.023335012 -0.06158345 0.04491918 -0.027263394 0.11516289
-0.19568712 -0.076691225 0.04857929 -0.11662555 -0.1136425 -0.08483944 -0.13432598 -0.22068404
0.20995133 -0.08643948 -0.17364484 -0.06313662 -0.047444683 0.0144381905 0.15520006 -0.29350182
0.20304546 -0.061978392 0.07856925 -0.015072009 0.021655584 0.007525098 0.15093273 -0.041918807
0.2202318 0.1455054 0.10229313 -0.026658706 -0.020853996 -0.21797533 0.17004333 0.16374329
0.022841476 0.110416114 -0.009574911 0.18092692 -0.20992884 0.14172632 -0.1271073 -0.15106145
0.12294601 -0.010612776 -0.0319938 -0.035427302 0.009448913 -0.16230859 0.1199379 0.051620923

graph_embed_generation.fc_metadata.weight f4 [32, 9]
00000000: 56a0 afbc 78ab a93d f9df 0a3c 122b 16be
00000010: 3c2a 783e 3bf8 c8be 2208 a5be bb2c 2cbe
00000020: ec8e a3be ca5a 083d ca09 6abe 85d0 b1bc
00000030: c877 8f3e 0550 efbd c6fa 1d3f 2515 a9be
00000040: 08a0 523e 400f 873c 1084 f8be 1316 8e3e
00000050: 24c3 1e3e c5dc 413e d457 283e 03b8 15bf
00000060: b53e e3be 3877 08bf f94f c83e f6f7 ba3d
00000070: dc06 6ebe 0165 c7be d922 a53d 616e 7cbe
00000080: 6f3e c73e b71f 833e 4378 93be 8253 4cbc
00000090: c933 4dbe ec26 133e 2521 14be 7380 2fbe
000000a0: d4f8 783e c350 1a3d a947 41bc 9d8c 6abe
000000b0: 4c45 a33d f7c4 a43e 9f56 143f db92 573e
000000c0: 805a 9abe 1db7 2dbf 1f24 91bc 0982 adbd
000000d0: c462 a6bd 7c8e 9dbe bd98 15bd bb26 5a3d
000000e0: 643f 713e 3167 94be 68ff 8ebe 7137 ee3d
000000f0: 804d 28bd 37bd 51bd b9b0 d33d 4bfd 78be
00000100: 23b1 8a3e 0ac8 22be aa1f 9b3d f174 8c3d
00000110: 47e2 07bf 40b0 a5be c732 073d 9649 8cbe
00000120: 882f a8bd 4bd8 6a3d d974 043e 611d 8fbe
00000130: 755e 503e a3db 753e 1c72 a23e 12cc 843e
00000140: dca6 07be 7552 74be efdd 053e bef8 abbd
00000150: 7c7f 1fbe adeb 1d3d 5083 053e b189 db3e
00000160: 1e84 ffbe c9ef ecbe 35ed fb3c 2865 b8bd
00000170: aa35 943e f813 15be 6323 c33e b9e4 a93c
00000180: 6cd0 693e 9504 c53e 691f 41be c242 b1be
00000190: 49b6 2e3d 9836 c0be 0903 d63e 07c7 bfbd
000001a0: 58e0 9a3e 013a db3d 64e4 27be 6bcc c63c
000001b0: 741e 253f 99bd 5a3e f73e a7be 72b0 32be
000001c0: 6342 263f 3485 ea3d e9ff 23be dbec f1bc
000001d0: 7bde 8b3e 7d61 cdbb bc00 babe f1eb d8be
000001e0: 5b5b dfbe dc30 9abe eff7 9dbe 3b16 463e
000001f0: b380 083c 79e0 ddbd 86a1 63be 550a f23d
00000200: 1461 d3be a678 97bd e3d2 1fbe 9828 353e
00000210: 6312 8ebc 245d a93e 05fa 5d3e fa71 b53d
00000220: cbd3 533e d738 2d3e 2e24 803d e795 933e
00000230: f4c3 aebc c8c3 a73e 2b68 6fbe 47c3 053f
00000240: b03c 81be 0785 563e ba08 22bd 21a8 de3e
00000250: 807f c63d 556d b33e 6248 883c 6b89 1b3e
00000260: 36f6 e4be 1044 a53e 8e2d 563e 575c 103f
00000270: af94 e83c 2110 91be f04f 65be 6386 653d
00000280: 97e7 c4be 3000 803e fe03 ae3d 47ed 02be
00000290: 8853 123d 46fa 86bc 8958 94bd 01cd 5c3e
000002a0: 7726 23bf ebac d2be 85f6 24be f9c0 a0be
000002b0: faa0 4d3d 798b a63d 742f e5bd 8b1b f53d
000002c0: a0eb 943e 9b06 543e 4c97 b83e 62cf ea3d
000002d0: a9b6 733d 67c9 043f f03e debe 3067 49be
000002e0: 0259 493d a801 b23b e715 4abe 9218 ae3c
000002f0: cb80 043e 0077 bc3d 1e7f d6be 5969 45be
00000300: 7305 e13c f94d 70bb e54b d3be 5ac9 edbc
00000310: 1ecd 9c3e 8bb8 b3bd c287 e9bd edf3 eaba
00000320: 461c ee3e f878 603e a2df b13d 41f1 57be
00000330: 9284 88be 6448 76bd 1eee 8fbd e097 073e
00000340: 0d8c 80bd 4e59 863d 3fc6 a1bd 4ea1 c53d
00000350: 5a5b c83e 660f 253f 0ac3 693e 88a0 1f3d
00000360: 4a91 43bd 1543 10bd 1854 9c3e 1895 01bf
00000370: 433f 643d 67d3 633e 9686 bcbe fd55 c9bc
00000380: 3567 863e 7bfe 4fbe bdcd ce3e f72f ca3d
00000390: 9d07 0fbe e85c 8e3e 30eb 25be b1a9 e6bd
000003a0: 6811 abbd 1bbf 5abe 4d0a 31bc e652 db3c
000003b0: 5907 943e 98d0 5b3e 033c 313e 846e aabe
000003c0: 3ce8 a9be b4d3 d8bd ab30 2e3e b413 003d
000003d0: 2dc4 41bd e2dd 00be ec7c ea3d 998d 1b3e
000003e0: fbfc 933e 3971 993d 35ba 43be a438 a5bd
000003f0: 6056 003e 50ad 843d a82e 923e b1ac 493e
-0.021438759 0.08284658 0.008476251 -0.14664868 0.24234861 -0.39251885 -0.32232767 -0.16813938
-0.31944978 0.03328971 -0.22855297 -0.021705875 0.28021073 -0.116851844 0.61710775 -0.33023944
0.2056886 0.016486764 -0.48538256 0.27751216 0.15504128 0.18931873 0.16439754 -0.58483905
-0.4438378 -0.53306913 0.39123514 0.09129326 -0.23244804 -0.38944247 0.08063287 -0.24651481
0.3891482 0.25610134 -0.2880269 -0.012471082 -0.20039286 0.14370316 -0.14465769 -0.17138843
0.2431367 0.037674677 -0.01179687 -0.22905202 0.07972202 0.32181522 0.57944673 0.21052115
-0.3014717 -0.67857534 -0.01771742 -0.08472068 -0.08124307 -0.3077277 -0.036522616 0.053259593
0.23559338 -0.2898498 -0.27929235 0.11631668 -0.041089535 -0.05120584 0.103364415 -0.24315374
0.2708827 -0.15896621 0.07574399 0.06858242 -0.53079647 -0.3236103 0.03300741 -0.27399892
-0.08212191 0.05733518 0.12935199 -0.27952102 0.20348532 0.24009566 0.31727684 0.25936943
-0.13247246 -0.2385958 0.13072942 -0.08397053 -0.15575975 0.038554836 0.13038373 0.42878488
-0.49905485 -0.46276692 0.030752758 -0.09003669 0.28947192 -0.14558399 0.38112935 0.020738946
0.22833413 0.38480058 -0.18859638 -0.34621245 0.04265431 -0.37541652 0.4179919 -0.09364133
0.30249286 0.10704423 -0.16395718 0.024267396 0.6449959 0.21361388 -0.32665226 -0.17450121
0.6494505 0.11451188 -0.1601559 -0.029531887 0.27318177 -0.006267725 -0.36328685 -0.4236751
-0.43624386 -0.30115402 -0.3085322 0.19344418 0.008331466 -0.108338304 -0.22229585 0.11818377
-0.41285002 -0.07396059 -0.1560779 0.17691267 -0.017342752 0.33078873 0.21677406 0.0885963
0.20686261 0.16916214 0.06256901 0.28825304 -0.021333672 0.32766557 -0.2337958 0.52251095
-0.25241613 0.20949183 -0.039559104 0.43487647 0.096922874 0.3504435 0.016636077 0.1518914
-0.44719094 0.3227849 0.20915815 0.563909 0.02839121 -0.28332618 -0.22393775 0.056036364
-0.3845794 0.25000143 0.08496855 -0.12785827 0.035724193 -0.016476762 -0.07243449 0.21562578
-0.6373057 -0.4114755 -0.16109665 -0.31397226 0.050202347 0.08132071 -0.111906916 0.11968144
0.29086018 0.20705645 0.3605293 0.114653364 0.05950037 0.51869816 -0.43407393 -0.19668269
0.04915715 0.0054323263 -0.19734918 0.02125195 0.12939756 0.09202385 -0.41893858 -0.19278468
0.027468419 -0.003666757 -0.4126884 -0.029026676 0.30625242 -0.08775433 -0.11402847 -0.0017925479
0.46505946 0.21921146 0.08685233 -0.21088125 -0.26663643 -0.06012763 -0.07027839 0.1324153
-0.062767126 0.06560002 -0.078991406 0.09649907 0.39132196 0.6447662 0.22828308 0.038971454
-0.04774598 -0.035220224 0.30532908 -0.50618124 0.055724394 0.22248612 -0.3682143 -0.024577135
0.26250616 -0.2031192 0.4039134 0.0987243 -0.13967748 0.27805257 -0.16202998 -0.11262835
-0.08352929 -0.21361963 -0.010805679 0.026772927 0.28911856 0.21466291 0.17308049 -0.33287442
-0.33184993 -0.10587254 0.17010753 0.03126879 -0.04730623 -0.12584642 0.11449608 0.15190734
0.28903946 0.07492299 -0.19114001 -0.08067444 0.1253295 0.06478369 0.2855122 0.19694783

graph_embed_generation.fc_metadata.bias f4 [32]
00000000: 196f e33c 0d03 553b ddae 6ebe 642a 71bd
00000010: 98de 89be 9dd1 083d fd85 463e 8f1f 6f3d
00000020: 0a8a 4e3e 5544 cb3d 48ca 103e d9c8 d73e
00000030: 2388 ffbd 5834 2fbd e2c2 773e a7b8 cf3d
00000040: f68e d5bc be49 aabe 51a1 7d3d d612 3cbe
00000050: fc9a 8f3e d990 c7bd d8fc 273e 9c6d a83d
00000060: db94 f8bd b824 1ebe 115f 18be 2760 4f3d
00000070: b53a 2f3d 6613 b6be d232 86bd 8ab7 583e
0.027762936 0.003250304 -0.23308893 -0.058878317 -0.26927638 0.033403028 0.1938705 0.058379706
0.20169845 0.09925143 0.14139664 0.42145422 -0.12477138 -0.04277453 0.24195436 0.101426415
-0.026069146 -0.33259386 0.06192142 -0.1836656 0.2804793 -0.097444244 0.16405046 0.08224031
-0.12137767 -0.15443695 -0.14880015 0.050628807 0.042780597 -0.35561675 -0.06552662 0.21163765

graph_embed_generation.mlp.0.weight f4 [32, 96]
00000000: f3bd a53d 1109 55be 1b30 89be 66ad 42bc
00000010: 9b9b ccbd b2ce dd3b 51a7 a2bd 14d0 abbb
00000020: f3ed 643d 41d7 ddbe 9c57 c7bd d587 89bd
00000030: b692 273d e26e 4e3e 1ddd 94bc 52d0 1d3d
00000040: 6b36 fcbb 033a 883c 324e 1f3d 10a5 1dbe
00000050: 1105 dc3e 302c 40bd f0b2 d43c fcee 9f3e
00000060: 7b2d ac3d 9408 973d 6713 723e 91b7 cc3d
00000070: 2e08 ccbc 61a7 80bd db5b 903b b308 8fbd
00000080: 752b f73c b0c6 62bd d94f ce3d 3824 57be
00000090: 55cf 5abd 67a4 11be 6680 b8bd b266 a13d
000000a0: 375c b23d b0aa 17be 809a e43c a3b8 0ebd
000000b0: fe17 d33d 75b2 373d a422 0ebe fe53 ccbd
000000c0: 292a f3bd 524c a83d f382 f4bd 952c b43c
000000d0: bf72 87bd a26a c1bc bd08 013d fae0 203b
000000e0: 27d0 aebe 9573 92be a339 753e c142 243e
000000f0: 5f00 92be 6823 d6bd 42d9 353e ada6 62bd
00000100: f05b b53d a54a 663e 26e5 e7bd 2107 0c3e
00000110: 0993 053d 2611 93bc 8e99 493e 11e2 e6bd
00000120: 27d2 7f39 b839 8dbe 9ac0 18bd 1309 b83d
00000130: 46f8 f4bd e1fa 563c 97ac 13be 66e3 a6bd
00000140: d609 81be 134b a2bd fcbf 8bbb 6f90 273d
00000150: 1a55 9a3d 6ee1 c63e 5c2d adbd f4b0 633e
00000160: 909c 7abd 6996 fc3d 4bd4 ccbd 7759 d0bc
00000170: 340e b33d e99c c9bd c329 72be f436 0b3e
00000180: 7697 bbbc 6a27 8e3e e536 4c3e a147 8dbe
00000190: a0cd f73c 6951 1cbd 1be9 f2bd 0d7b 64be
000001a0: 0705 69be c039 083e 156c 0d3e c86a d03c
000001b0: b5f1 d5bd bfab 693e 8010 10be c916 ddbd
000001c0: a638 94bc bba9 b7be 4dea a4be d5bd 843e
000001d0: 92ef 673e 2d63 fc3d 5a0d 16bd 480f 73be
000001e0: b6bf 6d3e 59df a3be f60a 933d 79c6 a03e
000001f0: e74c c73c 5a7c f93d e06c 78be f44c 243e
00000200: 8fa7 a1bc 1e8f 7b3e bd97 a93c e765 203d
00000210: 39e4 673e 294f d33d e75d 48bd a457 38be
00000220: 79d3 d83d f842 b2bd 6724 8ebc b860 4f3d
00000230: 4ebb 6bbe 6916 51bc 4b28 25be 0e65 03be
00000240: 7312 0f3b 9fa7 e2bd 7394 babb 9204 95be
00000250: 4c4f 9b3e e6af 21be 8325 0bbe 8fab 613e
00000260: 7c09 10be f0ee b23d 9e7b 5f3e 6dfe 99bd
00000270: d049 3a3e e148 97be d70b cfbd ae9d 673c
00000280: 1f96 81be c7aa f6bd 1130 f4bd 1999 82be
00000290: f94b 85bd eb09 ebbd 8d09 3abd 805f a5bd
000002a0: 0e5b 713e 2646 703e 9459 383e 13f6 983c
000002b0: a2d5 ccbd 8c42 503d a46e 0abe 2c14 47be
000002c0: ccf5 15be c514 cb3d a111 86bd 5df1 6e3d
000002d0: bd35 e4bd 1159 0c3e 66ce 60be 1399 a43d
000002e0: a218 893d 0312 8f3d ca45 81be 1920 803e
000002f0: cb79 ed3d 0ec8 fa3d a881 ab3d 56e7 893d
00000300: 69d4 01be 2266 e53c 807f 78bd 065a 12be
00000310: 4f92 233e 0583 f33c 2f72 633e 3f5d 47be
00000320: 674d d23d be22 933c dbde 82be 37aa 34bb
00000330: 4b7f b03b 5166 113e a8a3 a4bd c6c8 a0bd
00000340: 9f95 4a3d d71b 0b3e 4392 8b3c d1ab bfbd
00000350: 296b b5bd a4cb 403e 757a 8ebe 3c59 e0bd
00000360: fb0e 45be 9e30 463d 0b31 a63e 4166 afbe
00000370: d5cb 963d ba5c 273e d404 88bd 94aa 1b3e
00000380: f08a 113e 3e1d dabd 51aa 583d 0796 38be
00000390: 0058 dc3d 8d06 3b3e 96b8 503e 318b 09be
000003a0: 2160 debc b6a9 7abe b9d7 57be 2b60 c8be
000003b0: eddf 18bc 71e0 5cbe c0b4 0abe f84d 783d
000003c0: de66 79be d4ce a43d a434 b13d 9bb7 563d
000003d0: de86 3d3e bd38 a83e 708b 843c f2ad 243e
000003e0: 75d1 05be b4c9 3ebe 7227 2b3e 1cc4 5c3d
000003f0: 2e78 eabb 7d96 8b3d 9278 6dbd 0168 833d
0.080928706 -0.2080424 -0.26794514 -0.011882162 -0.09990617 0.0067690248 -0.07942069 -0.0052433107
0.05589099 -0.43328288 -0.09733507 -0.06715361 0.0409114 0.20159486 -0.018171841 0.038528748
-0.007696917 0.016629225 0.038892932 -0.15394998 0.42972615 -0.04691714 0.02596423 0.31237018
0.08407112 0.07374683 0.23640214 0.0999595 -0.024906244 -0.06281925 0.0044054813 -0.06984081
0.03017209 -0.055365264 0.100738235 -0.2100991 -0.053420383 -0.14222871 -0.09008865 0.07880916
0.08708995 -0.14811206 0.027905703 -0.034844052 0.103073105 0.044847924 -0.13880402 -0.09976958
-0.11873276 0.08217682 -0.11939039 0.021993915 -0.06613683 -0.023610417 0.031502474 0.002454816
-0.34143183 -0.28603807 0.23947768 0.1604109 -0.28515908 -0.10455972 0.17758659 -0.055334736
0.08855426 0.22489412 -0.113230035 0.13674594 0.032610927 -0.017952513 0.19687483 -0.112735875
0.00024396983 -0.27583098 -0.037293054 0.08986106 -0.11961417 0.013121338 -0.14421307 -0.081488416
-0.25202817 -0.079244755 -0.0042648297 0.040909227 0.07535763 0.38843864 -0.08455917 0.22235471
-0.061184466 0.12333376 -0.10001429 -0.025433285 0.087429434 -0.09844381 -0.23648743 0.13595182
-0.02289937 0.27764446 0.19942816 -0.2759371 0.030249417 -0.038163576 -0.118608676 -0.22312565
-0.22755824 0.1330328 0.13810761 0.025441542 -0.104464926 0.22819422 -0.14068794 -0.107953615
-0.018093418 -0.35871682 -0.32210007 0.2592608 0.22649983 0.12323604 -0.036633827 -0.23736298
0.23217663 -0.32006338 0.07179825 0.31401423 0.024328662 0.12181921 -0.24260283 0.1604498
-0.019733218 0.24566314 0.020702237 0.03915968 0.22645654 0.10317833 -0.048917677 -0.18002182
0.1058721 -0.087041795 -0.017351342 0.050629348 -0.2302067 -0.012761691 -0.16128652 -0.12831518
0.0021831065 -0.110671274 -0.005693966 -0.2910505 0.30333936 -0.15789756 -0.13588528 0.220381
-0.14066118 0.0873698 0.218245 -0.07519231 0.1819222 -0.2954779 -0.1010968 0.014136715
-0.25309846 -0.12044292 -0.119232304 -0.2550743 -0.06508631 -0.11476501 -0.045419265 -0.08074856
0.23569891 0.2346426 0.18002921 0.018672025 -0.10001685 0.050844714 -0.13518769 -0.19441289
-0.14644545 0.09916071 -0.06546331 0.05833565 -0.11143062 0.13705851 -0.21953735 0.08037009
0.066941515 0.06985857 -0.25248557 0.2502449 0.11595496 0.12245189 0.08374339 0.06733577
-0.12678684 0.028002802 -0.06066847 -0.14292154 0.15973781 0.02972556 0.22211526 -0.19469164
0.102686696 0.017960902 -0.2556065 -0.0027567276 0.0053862683 0.14199187 -0.080390275 -0.078507945
0.049459096 0.13584839 0.017037516 -0.09358943 -0.0885833 0.18827683 -0.27827802 -0.1095452
-0.19243996 0.04838621 0.32459292 -0.342577 0.073630966 0.16343966 -0.06641546 0.15201789
0.14213157 -0.10650109 0.0528968 -0.18025981 0.10758972 0.18264218 0.20382914 -0.13432004
-0.027145447 -0.24478802 -0.21078385 -0.3913587 -0.009330732 -0.21569993 -0.13545513 0.06062123
-0.24355647 0.08047262 0.086526185 0.052421194 0.18508479 0.32855788 0.01617977 0.1608198
-0.13068183 -0.18631631 0.16714266 0.053897962 -0.00715544 0.06815813 -0.057976313 0.064163215

graph_embed_generation.mlp.0.bias f4 [32]
00000000: f26a f73d f770 2abd 8f0d b8bc 7b90 89bd
00000010: 247e 2f3e 8e4d 8bbd 3f8a 1cbe a8a3 92bd
00000020: 0112 473d 1a71 e73c 0bf3 8a3d 6921 b1bd
00000030: 9eb5 7dbd cf17 ab3d 0a80 91bc 0db9 aabd
00000040: 5137 a23b d0b1 f53d 53b3 db3d 13d6 18be
00000050: 1ddb c03c 9544 57bd 7386 283d a86c 67bd
00000060: 5901 e63c 2ffe ac3d 0ba9 c93d 6127 e7bd
00000070: 6de1 b3bc b781 893d 0c0d 8fbc 4479 30bd
0.12080945 -0.041611638 -0.022467403 -0.067170106 0.17137963 -0.06801902 -0.15287112 -0.07160121
0.048601154 0.028252173 0.06784638 -0.086489506 -0.06194078 0.083541505 -0.01776125 -0.08336077
0.004950442 0.11996806 0.10727563 -0.14925413 0.023541981 -0.05255564 0.041143846 -0.056500107
0.028076814 0.08446919 0.098466955 -0.11286808 -0.021958077 0.06714194 -0.017462276 -0.043084398

graph_embed_generation.mlp.1.weight f4 [32, 32]
00000000: 24cb 933e 03b3 723e dbec 053f f4c5 373e
00000010: accf bbbd 7c86 223e ce92 11bf a91d d8be
00000020: 027a 1ebe 5bb5 313e 7965 b9be 58f3 3c3e
00000030: ff38 74be 9cb0 aa3e 5981 333e 2e0c 473e
00000040: 668d 36bd 1b5a 7fbe 68e4 59be c493 393e
00000050: 06a5 0e3e 00bc 1d3c 2e6d b2bd dcca 6f3e
00000060: 6f2b bebe 70c4 b8be e359 f73d e545 97be
00000070: 7512 29be 9732 47bc e8c5 81bd c4e5 4d3e
00000080: 5292 6a3e 0932 4bbe 6467 a0be a06d e8be
00000090: b302 1abe 8145 b33e bcbc ee3e aad3 82be
000000a0: 2b3e 9c3d 449e ca3e 8c2b 23be a31b 50bc
000000b0: bd13 b7be 449e 493e 9408 bb3e e157 8fba
000000c0: e1ec 233e 02ad 54be 0b10 b2bd 2dcc 8c3d
000000d0: fa2f 27be 617d bdbe bc71 f4be 60f6 cabe
000000e0: 7dd7 12be c421 ed3b b478 94bd f76c 4f3e
000000f0: 67fd c33d e43a b93d a4ba cd3d 4a15 d43e
00000100: 2846 5dbe 64de 1fbe 59b0 bcbd a124 043e
00000110: 34a2 90be 33f7 033e 2cde 643e 1142 2fbe
00000120: 8b0d 713e 6c98 cebd 2a31 893e 3c6c ffbd
00000130: 4a9f 683d 34bd 0b3f 6ae3 c13e bead b33e
00000140: 0ece cabe 71af 01bd d07e 87bb bca5 b23c
00000150: cf43 d73e b22d ca3c ee3d 9ebe 55fd 7c3d
00000160: fb05 0ebe 3182 95be edda e4be bb74 283f
00000170: 439f 89be 8e29 e9be 50d6 d03e 51b9 833d
00000180: d48f 593e 0704 e9be a1d6 d4bd 5726 0cbe
00000190: 5bb9 28bd f542 553e 69e1 72be 99ea ef3d
000001a0: 743d d4be 7f70 963d dabe fabe 122b 153f
000001b0: fff1 1b3e 1ca7 a4bc d185 8a3c 4be9 96bc
000001c0: 2683 c43c dc66 a23e 735d 0b3e 4f3b 09be
000001d0: dd43 29be 34ed 593e 3410 49be 60ae 1c3e
000001e0: 58a7 193e 663b aebe b6d2 a8be 457d 293e
000001f0: 1833 8b3e ff52 bbbe 98a6 e73e 5371 d53d
00000200: 4b50 18bc dd8e 823e 6a4d 81bb 8254 0bbe
00000210: 2b14 f23e 84af cdbd 3bdc 873e 7861 7abe
00000220: a91b 3cbe 58f3 43bd 4bed 81bd 2af8 19bf
00000230: 7bbb afbe 1cfb 87be 4a60 69be 8c0d 9b3e
00000240: 4f7f 583e 8ca7 113f ea07 73be 0b8d 0dbe
00000250: 7ddc 0b3d 1b4b b03d f448 15be e6fa fa3d
00000260: c28a a1be 31a4 afbd 1d23 95be 0323 27be
00000270: a35e e93c eefe 2ebe 84d5 2d3e b797 1ebd
00000280: 5278 8c3d ec3b 1e3e 3563 c53e b293 203d
00000290: c539 5a3d b199 a6be 48cf 103e 6002 5c3e
000002a0: 8908 09bd 6fb6 04be c637 fa3d b5e7 543e
000002b0: 87dc 693b a3ca 023d b662 823d 20d0 14be
000002c0: edeb 0f3f 7494 2a3d 965e ac3d 9a3a 933d
000002d0: 7153 cc3d 6232 47bf dd99 a4be a35b 8d3e
000002e0: a3b4 7fbd 6cd3 883e 7eeb 9b3d 6d6a 413e
000002f0: 0550 15be 0076 57bd 4418 e53e 1acf b3be
00000300: 0b69 59bd 2422 773d 7f5a 463e 8b51 91bc
00000310: dc8e 42be b16f c5bd b3f6 113e cf51 833d
00000320: 433f fd3d 6aa0 18be ba5a 6bbc d0d0 ad3d
00000330: b16e a1bd 61b6 3a3e 4bae ea3d 86b8 d6be
00000340: 3c82 a53e 130d 5d3d 8ec2 2bbe 50c6 09bf
00000350: 217d ce3d 761e 513e 0b40 0b3f 6dbb 083d
00000360: 28f7 17bf 7dc0 003f 54ce 44be e42e 253e
00000370: 0edf 953e a431 d6bd 772e 17bc 31ed aa3e
00000380: c41a 083e 689d b73e 590c b2bd fab3 343f
00000390: 30b0 7b3d e9c5 983c 85fc 873d 3b35 06be
000003a0: 29c2 5dbe 73af 1e3e 7aa0 2cbe 28a4 b8be
000003b0: 942a 953e 4aa1 55bc daa5 f33c be80 a23d
000003c0: 0d05 0abc dead a9bd 0b4a aebe ab4b 14be
000003d0: 2a88 f0be 840c 12be ddbb 91bc a42e cc3c
000003e0: 68d0 293e 4da2 303e 5084 923d 5e77 483f
000003f0: bb18 753e 60d0 f33d 074f 1e3e 4e5d ee3d
0.28865921 0.237011 0.5231454 0.17946607 -0.0917047 0.15871614 -0.5686463 -0.4221013
-0.1547623 0.17354338 -0.3621023 0.18452203 -0.23849867 0.33337867 0.17529811 0.1943824
-0.04456844 -0.24936716 -0.21278536 0.18122774 0.13930139 0.009627342 -0.087122306 0.23417228
-0.37142512 -0.3608737 0.120776914 -0.29545513 -0.16510947 -0.012158058 -0.06336576 0.2010718
0.2290738 -0.19843306 -0.3132888 -0.45396137 -0.15040092 0.35013965 0.46628368 -0.25552112
0.07629045 0.39573872 -0.1593458 -0.012701902 -0.35757247 0.1968928 0.36529982 -0.0010936224
0.16008331 -0.20769122 -0.08694466 0.06874881 -0.16326895 -0.3700972 -0.47743022 -0.39641094
-0.14340015 0.007236691 -0.07249585 0.2025641 0.09569817 0.090444356 0.100453645 0.41422492
-0.21608794 -0.15612179 -0.09213323 0.12904598 -0.2824875 0.12887268 0.22350377 -0.17115046
0.23540322 -0.10087666 0.26795322 -0.12471816 0.056792535 0.54585576 0.37868816 0.35093492
-0.39610332 -0.031661455 -0.0041349903 0.021807544 0.4204392 0.024679992 -0.30906624 0.061765034
-0.13869469 -0.2920089 -0.44698277 0.65803117 -0.2687932 -0.45539516 0.40788507 0.06431831
0.21246272 -0.45510885 -0.103925 -0.136865 -0.041192394 0.20826323 -0.237188 0.11714668
-0.41453135 0.07345676 -0.48973733 0.58268845 0.15229033 -0.020099215 0.016909512 -0.01842179
0.023988318 0.317191 0.13609867 -0.1340153 -0.16529794 0.21281892 -0.19635087 0.15300894
0.15005243 -0.34029692 -0.3297326 0.16551693 0.2718742 -0.36586758 0.45244288 0.104220055
-0.009296487 0.2549962 -0.003945996 -0.13606456 0.47281012 -0.100432426 0.2653521 -0.24451244
-0.18369927 -0.047839493 -0.06344088 -0.60144293 -0.34322724 -0.2655877 -0.22790638 0.30283773
0.21142314 0.5689628 -0.23733488 -0.13823335 0.03414582 0.08608075 -0.1457861 0.12254886
-0.31551176 -0.08576239 -0.29128352 -0.1632195 0.02848751 -0.17089435 0.16975981 -0.038718905
0.06858887 0.15452546 0.3855225 0.039203353 0.05327775 -0.32539132 0.14141572 0.21485281
-0.033455405 -0.12960218 0.12217669 0.20791514 0.0035684423 0.03193153 0.06366484 -0.14532518
0.5621937 0.041645482 0.08416478 0.07188912 0.09976853 -0.77811253 -0.32148638 0.27608976
-0.062428128 0.26723802 0.07613276 0.18888254 -0.14581306 -0.052602768 0.44745076 -0.35118943
-0.053078692 0.060335293 0.19370459 -0.017739078 -0.18999809 -0.09640444 0.14254265 0.06412088
0.12365582 -0.14904943 -0.014364893 0.084870934 -0.07882441 0.18233635 0.11459025 -0.41937655
0.32325923 0.053967547 -0.16773435 -0.53818226 0.1008246 0.20421776 0.54394597 0.03338187
-0.59361506 0.50293714 -0.19219333 0.16131169 0.2927174 -0.10458687 -0.009227387 0.33384088
0.1329146 0.3586228 -0.086937614 0.7058712 0.061447322 0.018649058 0.06639961 -0.13106243
-0.21656097 0.15496616 -0.16858092 -0.3606274 0.29134047 -0.013038943 0.02974217 0.07934712
-0.008424056 -0.08285116 -0.34040865 -0.1448199 -0.46978885 -0.14262587 -0.017789776 0.024924584
0.16583407 0.17249413 0.07154143 0.7830714 0.23935215 0.11904979 0.15459834 0.1163889

graph_embed_generation.mlp.1.bias f4 [32]
00000000: 35a0 133e f4b6 19be 1480 e93d cad4 05be
00000010: 0601 c73d d56b 4bbe 88c1 2b3e 7b26 9bbd
00000020: 4688 89bd 3d82 4ebe 4d18 5c3c 51be a5bb
00000030: 7712 913d 0995 673c 40d8 993d 6f2e 3abe
00000040: 5461 073d 0677 11be 1034 a53d 973f 953d
00000050: 08cc 0fbe afd6 3d3d 5070 2abe b8ac d2bc
00000060: c72a 933d 9a55 42bd 6c3b af3d 39c6 5dbe
00000070: 9279 3fbd e337 4abe e992 6c3c ab17 f8bc
0.14416583 -0.15011197 0.11401382 -0.13069454 0.09716992 -0.19865353 0.16773045 -0.07575699
-0.06715445 -0.2016687 0.013433528 -0.005058088 0.070836 0.014134654 0.075119495 -0.18181776
0.033051804 -0.1420556 0.08066571 0.072875194 -0.14042675 0.046347316 -0.16644406 -0.025717124
0.071858935 -0.047444917 0.08556256 -0.21657647 -0.046746798 -0.19747882 0.014439323 -0.030284723
