results/checkpoints/smartmap_MESH_4x4.pth (torch, 61250 bytes, 26 tensors)

graph_embed_generation.gat_dfg.att_src f4 [1, 4, 32]
0	0xbd98cca6	-0.074609086
1	0x3d3349a7	0.043771412
2	0xbe2f6af0	-0.17130637
3	0x3c467598	0.0121129975
4	0xba797ab4	-0.00095168804
5	0x3dea69e4	0.11445978
6	0xbdbea372	-0.093085185
7	0x3e90f1b5	0.28309408
8	0xbbb2c77c	-0.0054559093
9	0xbe04d7f6	-0.12973008
10	0x3d70591c	0.05867873
11	0xbe65a417	-0.22425877
12	0x3e3d05e1	0.18459274
13	0x3d811ab6	0.06303923
14	0xbd086e27	-0.033308174
15	0x3ce83ebc	0.028350227
16	0xbe4c5be2	-0.19956926
17	0xbe060c48	-0.13090622
18	0x3ec451a8	0.3834355
19	0x3e0e68f0	0.13907218
20	0x3e40f6e4	0.18844181
21	0x3d6dbc3d	0.058040846
22	0xbdc0e777	-0.094191484
23	0x3e1c2c5c	0.15251297
24	0x3de9f5df	0.11423849
25	0x3e00b761	0.12569954
26	0xbd0c9bc2	-0.03432823
27	0xbd2f88ab	-0.042854946
28	0xbead0921	-0.33796027
29	0xbe1e255d	-0.1544394
30	0xbdef95b1	-0.11698473
31	0xbd686586	-0.056737445
32	0xbe21e800	-0.15811157
33	0x3d4cd3b8	0.0500066
34	0xbe2fda83	-0.171732
35	0x3d4fca36	0.050729953
36	0x3e36d8a5	0.17856081
37	0x3e829ac5	0.25508705
38	0x3cbdd92a	0.023174841
39	0x3eac07ea	0.33599788
40	0xbc57bc61	-0.013167472
41	0x3cb57947	0.022152556
42	0x3e2b2f8d	0.16717358
43	0x3df4e83f	0.1195836
44	0xbdc44430	-0.09583318
45	0x3e0429ca	0.12906566
46	0x3f011fd9	0.5043922
47	0xbc855bff	-0.016279219
48	0x3e5cbcc9	0.21556391
49	0x3db8ca5c	0.09022972
50	0xbe0090bb	-0.1255521
51	0x3ece88d5	0.4033877
52	0xbde6a5aa	-0.11262067
53	0xbcaf55ca	-0.021403212
54	0x3e88eecc	0.26744688
55	0xbe31e56c	-0.17372674
56	0xbe495348	-0.19660676
57	0xbd95fc9e	-0.073235735
58	0xbee15cf8	-0.44016242
59	0x3c3c5327	0.011494434
60	0x3daf52fb	0.08560749
61	0xbe88d711	-0.26726583
62	0x3e19d0b5	0.15021022
63	0xbe295802	-0.16537479
64	0x3e69a615	0.22817262
65	0xbd142998	-0.03617248
66	0xbd21b4b0	-0.039478958
67	0x3e0a4c88	0.13505757
68	0x3d86b519	0.065775104
69	0x3e1b7087	0.15179645
70	0x3e5443f7	0.20729052
71	0xbc9a34fd	-0.018824095
72	0x3dc8f10a	0.098115996
73	0xbcfcae00	-0.030844688
74	0x3d80a3f1	0.06281269
75	0xbd221353	-0.03956921
76	0xbeb9de60	-0.3630247
77	0x3e4d20d3	0.20032053
78	0x3e2aefc9	0.16693033
79	0x3dec9f63	0.11553838
80	0xbabdc5f3	-0.0014478549
81	0x3c90e4b3	0.017687177
82	0x3e24a7b0	0.16079593
83	0xbe0d4d4f	-0.13799022
84	0xbd3e5ae3	-0.046473395
85	0xbde5a17c	-0.11212441
86	0x3caaa142	0.020828847
87	0x3d401319	0.046893213
88	0xbe0f091e	-0.13968322
89	0x3da54e88	0.08071619
90	0x3ce18789	0.027530449
91	0xbe3962b5	-0.1810406
92	0xbe536146	-0.20642576
93	0xbe039141	-0.12848379
94	0x3e72c1a0	0.23706675
95	0xbe4d0599	-0.20021667
96	0x3e46d6b7	0.19417845
97	0x3e2da48c	0.16957301
98	0xbc1657ef	-0.009176238
99	0x3d3c2214	0.045930937
100	0x3e9e0475	0.30862775
101	0x3d49c5e3	0.049260985
102	0xbe41a942	-0.18912223
103	0x3d04c3dc	0.03241335
104	0xbcd13490	-0.025537759
105	0xbe7f49bc	-0.24930471
106	0x3e6c9287	0.23102771
107	0xbdb96f86	-0.090544745
108	0xbe42fb29	-0.19041122
109	0xbdeb87b2	-0.11500491
110	0x3e2868ec	0.16446275
111	0xbcb423fa	-0.021989811
112	0x3d5d53ab	0.05403487
113	0x3ccc2794	0.024921216
114	0x3e7c58a8	0.24643195
115	0xbd4e459a	-0.050359346
116	0xbc1c66be	-0.00954598
117	0xbde36b8d	-0.11104498
118	0xbd8bc381	-0.06824399
119	0x3dddccce	0.10830079
120	0xbdccdd8c	-0.10003194
121	0x3e0ddd91	0.13854052
122	0x3bd43566	0.006476092
123	0xbc87cad2	-0.016576204
124	0x3de87d3a	0.1135201
125	0xbe1fa224	-0.15589195
126	0x3ee9778e	0.45599025
127	0xbddd971e	-0.10819839

graph_embed_generation.gat_dfg.att_dst f4 [1, 4, 32]
0	0x3d20b8c3	0.039238703
1	0x3e202e81	0.1564274
2	0xbda4ed2d	-0.0805305
3	0x3dac3a38	0.08409542
4	0xbcb627a3	-0.022235697
5	0x3e475f78	0.19470012
6	0x3e16c5b9	0.14723863
7	0xbe226ac8	-0.15861046
8	0x3dbc2d45	0.09188322
9	0x3e76d728	0.24105513
10	0x3dab8901	0.08375741
11	0xbe282b89	-0.16422857
12	0x3e4fe3de	0.20301768
13	0x3e38f567	0.18062364
14	0x3cf6271f	0.030047951
15	0xbe738f37	-0.23785101
16	0x3d03a4b0	0.03213948
17	0xbd4e4f5f	-0.050368663
18	0x3dad7b97	0.084708385
19	0x3e338c6f	0.1753404
20	0xbd5e54cc	-0.054280087
21	0xbcd0c48e	-0.02548435
22	0xbd8bd74f	-0.06828176
23	0x3e4c5c9e	0.19957206
24	0xbd626d59	-0.055280063
25	0xbd711723	-0.058859956
26	0xbe45cb37	-0.19315802
27	0x3cc7dfa0	0.024398625
28	0x3d88f3ff	0.066871636
29	0x3b75d7a1	0.0037512558
30	0xbd97156c	-0.07377133
31	0x3d1fa7da	0.038978435
32	0x3d592f4d	0.053023625
33	0xbdabcf79	-0.08389182
34	0x3d72abcc	0.05924587
35	0xb9f5e037	-0.00046897095
36	0xbe325bed	-0.1741788
37	0x3e09e85c	0.13467544
38	0x3da21a7e	0.07915209
39	0x3de2dbfd	0.11077116
40	0xbe1b2463	-0.15150599
41	0xbe0e54fe	-0.1389961
42	0x3dba2bb3	0.09090366
43	0xbe3b4ebb	-0.18291752
44	0xbe26bcf9	-0.16283025
45	0x3d0143aa	0.03155867
46	0x3b8034d7	0.003912549
47	0xbd5c5000	-0.05378723
48	0xbe41b31f	-0.18915986
49	0xbd1516f3	-0.03639884
50	0xbe7146d2	-0.23562172
51	0x3e3e40e9	0.18579449
52	0x3e25c498	0.16188276
53	0x3e169559	0.14705409
54	0x3d90c1db	0.07068225
55	0xbd807ecb	-0.06274184
56	0xbe45c41b	-0.1931309
57	0x3dc07550	0.093973756
58	0xbe7f54bc	-0.24934667
59	0x3df60c61	0.1201408
60	0xbe1f2502	-0.15541461
61	0x3dffa1cb	0.124820314
62	0x3e9c4efe	0.30529016
63	0xbdb9b441	-0.09067584
64	0xbd9b3f2c	-0.075804085
65	0x3d7613a2	0.060077317
66	0x3d313c24	0.043270245
67	0x3dc31a7f	0.09526538
68	0x3ad3bc2a	0.00161541
69	0x3da4b838	0.080429494
70	0xbd1b8454	-0.037967995
71	0x3daff16a	0.08590968
72	0xbe22ba21	-0.15891315
73	0xbe16e4e2	-0.1473575
74	0x3d751fb4	0.059844688
75	0xbc96bd33	-0.018400764
76	0xbc478160	-0.0121768415
77	0x3e38c0e8	0.18042338
78	0xbdd03eb3	-0.10168209
79	0x3d6be81a	0.057594396
80	0x3e790ab7	0.24320494
81	0x3e6272ba	0.22114077
82	0xbe48625e	-0.19568774
83	0xbe9b20a8	-0.30298352
84	0x3e44312b	0.19159381
85	0xbda9c023	-0.082886
86	0x3dcd643e	0.10028885
87	0x3ab6bdca	0.001394206
88	0x3d46cb55	0.048533756
89	0x3e298e4e	0.16558191
90	0xbd0d1d9c	-0.034452066
91	0xbd585381	-0.05281401
92	0x3dbb4b05	0.09145168
93	0x3de14824	0.11000088
94	0xbda2b244	-0.07944158
95	0xbd11ee41	-0.035627607
96	0x3e6a0357	0.22852837
97	0x3d681f84	0.05667068
98	0xbe69edad	-0.22844572
99	0x3e6721b2	0.22571447
100	0x3d402ec6	0.046919607
101	0x3d1fa85a	0.038978912
102	0x3d89193e	0.06694268
103	0xbe59623c	-0.2122888
104	0x3d261129	0.04054371
105	0xbd19cf19	-0.03755102
106	0x3c6a9c08	0.014319427
107	0xbdb0c459	-0.086312
108	0x3cb6c47b	0.022310486
109	0x3e616159	0.22009791
110	0xbe734672	-0.23757342
111	0x3d9b75d2	0.07590832
112	0xbdc46433	-0.09589424
113	0xbe9428aa	-0.28937274
114	0x3e0d8aa5	0.1382242
115	0x3c57bfdf	0.013168304
116	0x3d7b8543	0.061406385
117	0x3e497df9	0.19676961
118	0xbe743342	-0.23847678
119	0x3de67280	0.11252308
120	0x3e53ce41	0.20684148
121	0x3e12ed38	0.14348304
122	0x3e108a97	0.14115368
123	0x3d32b443	0.043628942
124	0x3e0e5c99	0.1390251
125	0x3d0be1a2	0.034150727
126	0x3b95061c	0.0045478474
127	0x3d09778d	0.033561278

graph_embed_generation.gat_dfg.bias f4 [32]
0	0xbd8104b6	-0.06299727
1	0x3d287ba7	0.04113355
2	0x3d0d49b7	0.034494128
3	0xbd03ae48	-0.03214863
4	0xbd37ed9b	-0.044904333
5	0xbd33b687	-0.043875244
6	0xbd05e6c8	-0.032690793
7	0xbd6b5bfa	-0.057460763
8	0xbd2d3b65	-0.04229297
9	0x3dd6ad61	0.10482288
10	0xbda33e6f	-0.07970893
11	0x3d324cd3	0.043530297
12	0x3da60140	0.08105707
13	0xbd2de799	-0.042457197
14	0xbce412b8	-0.027840957
15	0xbd94798c	-0.07249746
16	0x3d0b5bba	0.034023024
17	0xbd7e0cff	-0.062024113
18	0xbcd9abfa	-0.026571263
19	0xbbbb0a21	-0.0057079946
20	0x3d852c77	0.065026216
21	0x3cacd102	0.021095756
22	0x3ddf5ab5	0.10905973
23	0xbd8543c7	-0.06507068
24	0x3d92bb20	0.071645975
25	0xbd4cee17	-0.050031748
26	0x3c938211	0.018006356
27	0x3d2e6b9f	0.042583104
28	0x3d2b77b2	0.041862197
29	0x3d79b9a2	0.06096805
30	0xbda998ee	-0.08281122
31	0x3d7f23d8	0.062290043

graph_embed_generation.gat_dfg.lin.weight f4 [128, 9]
0	0x3d7c289b	0.061562162
1	0x3e98f72a	0.2987607
2	0xbdb92963	-0.09041097
3	0x3e6f2d55	0.23357137
4	0x3d43db42	0.047816522
5	0xbe215e07	-0.15758525
6	0xbe67b732	-0.22628477
7	0xbd92ca42	-0.07167484
8	0xbe314d05	-0.17314537
9	0x3d418070	0.04724163
10	0xbdd9b77e	-0.106307015
11	0x3eabc906	0.33551806
12	0x3dbd1f87	0.09234529
13	0xbdace653	-0.08442368
14	0xbcde586b	-0.02714177
15	0x3e0939e1	0.13400985
16	0x3e03a311	0.12855174
17	0xbc7e4e4c	-0.015521597
18	0xbec699a7	-0.38789102
19	0xbd585c09	-0.052822147
20	0x3e429846	0.190034
21	0xbe92a65b	-0.28642544
22	0x3e104e24	0.14092308
23	0xbe2cca11	-0.16873957
24	0xbe1047b6	-0.14089856
25	0x3daf24f0	0.08551967
26	0x3de5a4f9	0.11213107
27	0x3e76a55f	0.24086522
28	0x3e4c4b24	0.19950539
29	0xbd6d5810	-0.05794531
30	0x3df1ea8c	0.118123144
31	0xbde8bd50	-0.113642335
32	0xbe8406e7	-0.25786516
33	0xbc64c6e3	-0.013963434
34	0x3dc9e4cc	0.09858093
35	0xbe9286c0	-0.2861843
36	0x3e064275	0.13111289
37	0x3d3c341c	0.045948133
38	0x3dd5227b	0.10406967
39	0x3db834f5	0.08994476
40	0x3df7abb4	0.12093297
41	0xbd43de18	-0.047819227
42	0xbe25b4ce	-0.16182253
43	0xbdc99f70	-0.098448634
44	0xbdf964ee	-0.12177454
45	0x3e293ee6	0.165279
46	0x3e2cc0b9	0.16870393
47	0xbde0e709	-0.109815665
48	0xbc80c4d3	-0.015718853
49	0x3d0a20eb	0.0337228
50	0x3d8e432f	0.06946408
51	0x3d22f6c8	0.03978613
52	0xbea953ac	-0.3307165
53	0xbe87c835	-0.26519933
54	0x3ed5007a	0.41601926
55	0x3dd19415	0.102333225
56	0x3e0ccaee	0.13749287
57	0x3cf0e5b4	0.029406406
58	0xbd849a18	-0.064747036
59	0xbdea73b4	-0.1144785
60	0xbddc6425	-0.107612886
61	0xbde6e3b3	-0.11273899
62	0x3e434002	0.19067386
63	0x3e8428ef	0.2581248
64	0x3e136c56	0.14396796
65	0xbdb4877b	-0.08814903
66	0x3d90b566	0.07065849
67	0x3dad8c87	0.08474069
68	0x3e8a8264	0.27052605
69	0x3d1f662b	0.038915794
70	0xbdf8de49	-0.121517725
71	0xbe53d1a6	-0.20685443
72	0x3dff04b9	0.12452073
73	0x3e76602c	0.24060124
74	0xbd8ef90a	-0.06981094
75	0xbe118473	-0.14210682
76	0xbd9814b6	-0.07425825
77	0x3e1f36f5	0.15548308
78	0x3e7573a2	0.23969892
79	0xbe1c0219	-0.15235175
80	0x3e4d8aa5	0.2007242
81	0xbd15a483	-0.036533844
82	0xbe85e6ee	-0.26152748
83	0xbe54bfc9	-0.20776285
84	0xbeaa37ab	-0.33245596
85	0x3e20ae54	0.15691501
86	0xbe108907	-0.14114772
87	0xbe0afd37	-0.13573156
88	0x3da72237	0.08160823
89	0x3e6ff74d	0.23434182
90	0x3e18253a	0.14857951
91	0x3d0883eb	0.03332893
92	0x3e11a31b	0.14222376
93	0xbe2d0858	-0.16897714
94	0x3e085435	0.13313372
95	0x3e08b8d8	0.13351762
96	0xbe1b319d	-0.15155645
97	0xbd4bc45c	-0.04974781
98	0x3e57cb13	0.2107356
99	0xbe019be2	-0.12657121
100	0xbe86a150	-0.26294947
101	0xbc8c5215	-0.017128984
102	0x3d3aaa21	0.045572404
103	0xbd3c38b6	-0.04595252
104	0xbd78f7ec	-0.06078331
105	0xbd296428	-0.041355282
106	0xbc81ada8	-0.015829876
107	0xbd84d10b	-0.06485184
108	0x3e60a497	0.21937786
109	0x3c4b93b5	0.012425353
110	0xbe50589e	-0.20346305
111	0xbda9040c	-0.08252725
112	0xbe0b8cd0	-0.13627934
113	0x3e9985ac	0.29984796
114	0xbda6e867	-0.08149796
115	0xbe0c4c1e	-0.13700911
116	0x3c8151c3	0.015786057
117	0x3d2ecc0a	0.042675056
118	0x3d71f15c	0.05906807
119	0xbd6c9825	-0.057762284
120	0xbd9d6889	-0.07685954
121	0x3e267346	0.16254911
122	0xbc8b9bd7	-0.017042084
123	0x3e9a6c20	0.30160618
124	0xbe51d259	-0.20490398
125	0x3d208b41	0.039195303
126	0x3d1ffc74	0.039059117
127	0x3ba79953	0.005114713
128	0x3cc3628c	0.023850702
129	0x3e958a1f	0.2920694
130	0x3d51dfa2	0.051238663
131	0x3dca9a44	0.09892705
132	0xbe00b169	-0.12567677
133	0xbcfde903	-0.030994898
134	0xbd143513	-0.036183428
135	0x3ced03e1	0.028932514
136	0x3c693a91	0.014235155
137	0xbdffc816	-0.12489335
138	0xbde63403	-0.11240389
139	0x3e25b002	0.16180423
140	0x3d6bdf39	0.05758593
141	0xbd26c473	-0.040714692
142	0xbdefa619	-0.117016025
143	0xbdf4b3a3	-0.119483255
144	0xbdbc8cf4	-0.09206572
145	0xbe80e03a	-0.2517107
146	0x3d9711a4	0.073764116
147	0x3cbe7ef6	0.023253899
148	0xbcbbc613	-0.022921598
149	0x3bf60826	0.0075082956
150	0xbe02c440	-0.12770176
151	0x3e7284bd	0.23683448
152	0xbe1cf070	-0.15326095
153	0x3e4961b7	0.19666182
154	0x3de6ee99	0.11275978
155	0x3d172a9d	0.036905874
156	0x3cb24bad	0.0217646
157	0xbe41b4b1	-0.18916585
158	0x3ddf433b	0.10901495
159	0x3e08f032	0.13372877
160	0x3e1a74a9	0.15083565
161	0xbc8f5ddd	-0.017500812
162	0x3e8cbaa7	0.27486154
163	0x3d8bd285	0.06827263
164	0xbab010d2	-0.0013432747
165	0x3d9002cf	0.07031786
166	0x3d72ce73	0.059278917
167	0x3bf1cc0b	0.00737906
168	0xbe016991	-0.12637927
169	0xbe3c50e5	-0.18390234
170	0x3d2f2283	0.042757522
171	0x3d3b4f27	0.045729782
172	0xbca59bf2	-0.020215962
173	0xbc5fae4f	-0.013652398
174	0x3c372245	0.011177604
175	0x3dd92cfb	0.106042825
176	0xbd10dab2	-0.035364814
177	0x3d524f6d	0.051345278
178	0xbe6e64e6	-0.23280677
179	0x3ce9f26a	0.028557975
180	0xbe90c384	-0.28274167
181	0x3da7b97f	0.081896774
182	0x3d9234f8	0.07139009
183	0xbd516774	-0.05112405
184	0x3c13156d	0.008977276
185	0xbd37d0d0	-0.044876873
186	0x3d95d287	0.073155455
187	0x3dffd93e	0.124926075
188	0xbc8f39ad	-0.017483557
189	0x3c8e5057	0.017372293
190	0xbd0aee10	-0.03391844
191	0x3ddc7bbf	0.1076579
192	0xbe44cd2a	-0.19218889
193	0xbda10a1f	-0.078632586
194	0xbcef4f2e	-0.02921256
195	0x3ead9e59	0.33909872
196	0xbd0f783b	-0.03502677
197	0xbb9e51dd	-0.004831536
198	0xbca5f75c	-0.020259552
199	0xbdf602c1	-0.12012244
200	0xbda4e18a	-0.08050831
201	0x3d8cc3c1	0.068732746
202	0xbcc57524	-0.024103709
203	0x3d117078	0.03550765
204	0xbdac7d6b	-0.08422359
205	0x3e164687	0.14675342
206	0x3e5657fd	0.20932002
207	0x3e40017a	0.18750563
208	0x3e976251	0.29567197
209	0xbd6996d6	-0.057028614
210	0x3e030956	0.1279653
211	0x3e6c387b	0.2306842
212	0x3d92a72a	0.0716079
213	0xbd619620	-0.05507481
214	0xbebbce0b	-0.36680636
215	0xbd2fcfe8	-0.042922884
216	0x3e021444	0.12703043
217	0xbe2cca4d	-0.16874047
218	0xbe392cfa	-0.18083563
219	0xbe4f71f8	-0.2025832
220	0x3d439a77	0.04775473
221	0xbdebb3bb	-0.1150889
222	0xbd8a6799	-0.06758041
223	0x3da47920	0.08030915
224	0xbdb856f1	-0.09000958
225	0x3e1bbd8d	0.15209027
226	0x3e9b1cd2	0.30295426
227	0x3e0ed7b5	0.13949473
228	0x3e402abb	0.187663
229	0xbe26b024	-0.1627813
230	0x3d243163	0.04008616
231	0xbdf8c050	-0.12146056
232	0xbe49b7cb	-0.19699018
233	0xbddfd308	-0.10928923
234	0xbda2d600	-0.079509735
235	0x3d644bd7	0.05573639
236	0xbc681b95	-0.014166732
237	0x3d7a422c	0.061098263
238	0x3de3a711	0.1111585
239	0x3dc70378	0.097174585
240	0x3cd942be	0.026521083
241	0x3da4dabd	0.080495335
242	0x3e043b2f	0.12913202
243	0xbd82e2c4	-0.06390908
244	0xbe88199c	-0.26582038
245	0x3df10376	0.11768238
246	0xbd3fc18c	-0.04681544
247	0x3e39d77d	0.18148609
248	0xbd4e0783	-0.050300132
249	0xbd5686a3	-0.052374493
250	0x3d3d7f19	0.046263788
251	0xbdc86e95	-0.09786717
252	0xbd0e33cc	-0.034717366
253	0xbe599674	-0.212488
254	0x3da9b013	0.082855366
255	0x3c07419b	0.008255388

graph_embed_generation.gat_cgra.att_src f4 [1, 4, 32]
0	0x3d9efc17	0.07762926
1	0xbe2037ec	-0.15646333
2	0x3e1e5313	0.15461378
3	0x3bfc1e22	0.007694022
4	0xbe403826	-0.18771419
5	0x3dbb2197	0.09137266
6	0x3dd1e27d	0.10248277
7	0xbc3e174f	-0.011602237
8	0x3df85fc4	0.12127641
9	0xbe10a272	-0.14124468
10	0x3e5f3606	0.21797952
11	0xbd2c7f81	-0.042113785
12	0x3ec91820	0.39276218
13	0x3d078325	0.033084054
14	0xbdf46b07	-0.11934476
15	0xbcd731fd	-0.026268953
16	0xbdfc2aed	-0.12312875
17	0x3c0c64ee	0.008568985
18	0xbe1b17af	-0.15145753
19	0x3dfc7d31	0.12328566
20	0xbd07a5da	-0.033117153
21	0x3e192557	0.1495565
22	0xbc4a5813	-0.0123501
23	0x3d0f6652	0.03500969
24	0x3dfc8813	0.123306416
25	0xbd5fd679	-0.054647896
26	0x3d796b4b	0.06089334
27	0x3d82fd4f	0.06395971
28	0xbc557d94	-0.013030428
29	0x3e04df74	0.12975866
30	0xbd6e8b8e	-0.05823856
31	0x3df882b9	0.12134308
32	0xbdc48edf	-0.09597563
33	0xbe9efb5d	-0.3105115
34	0xbe01c090	-0.12671113
35	0x3e6fcbd7	0.23417602
36	0x3d487844	0.04894282
37	0x3df3ecaa	0.119103745
38	0xbdb37c4a	-0.08763941
39	0x3e496620	0.19667864
40	0xbdbe72d2	-0.09299244
41	0x3e0e669d	0.13906331
42	0xbdb21df7	-0.086971216
43	0x3d8ab150	0.06772101
44	0xbd84b92d	-0.06480632
45	0x3dd3c060	0.10339427
46	0x3ce69ce4	0.028150983
47	0x3d23a763	0.039954554
48	0xbc84c2b3	-0.016206121
49	0xbdb485a0	-0.088145494
50	0x3e3746ac	0.17898053
51	0x3e7d81bb	0.2475652
52	0x3e1cf05d	0.15326066
53	0xbe21338a	-0.15742317
54	0xbe4822db	-0.19544546
55	0xbe2f53c4	-0.17121798
56	0xbebb6204	-0.36598217
57	0x3d8ef438	0.06980175
58	0x3d9fc065	0.07800368
59	0x3d820b7b	0.06349846
60	0xbcd0888e	-0.02545574
61	0xbdb7d358	-0.089758575
62	0x3e38b6b6	0.18038449
63	0xbe11b9d1	-0.1423104
64	0x3dcff3ef	0.101539485
65	0xbd8c64a9	-0.06855137
66	0xbe786e96	-0.24260935
67	0xbe028531	-0.12746121
68	0xbddff37f	-0.10935115
69	0xbeabeec5	-0.33580604
70	0xbdd20a47	-0.102558665
71	0x3e607a00	0.2192154
72	0x3e4cd57e	0.20003316
73	0x3e163c3a	0.14671412
74	0x3dfc4cc6	0.12319331
75	0xbd10a00a	-0.035308875
76	0x3d356ad7	0.044291344
77	0x3de6840d	0.112556554
78	0xbc6510d6	-0.013981065
79	0xbcead51d	-0.028666073
80	0x3e7fe3bb	0.24989216
81	0x3e350eda	0.17681447
82	0xbd84b7e2	-0.06480385
83	0x3d17a84d	0.03702574
84	0x3e1e942f	0.15486215
85	0xbd966ec6	-0.07345347
86	0xbe0b8f57	-0.13628899
87	0xbd8808a1	-0.06642271
88	0x3e008e85	0.12554367
89	0xbd64a539	-0.05582163
90	0xbddc994b	-0.10771426
91	0x3e888057	0.26660416
92	0xbde68347	-0.11255508
93	0xbc51ffe9	-0.012817361
94	0xbcbbc36c	-0.022920333
95	0xbe8a40b4	-0.2700249
96	0x3dd0b253	0.10190263
97	0xbd41b409	-0.047290836
98	0xbe197f89	-0.14990057
99	0xbe30a804	-0.17251593
100	0xbe8d360f	-0.27580306
101	0xbd8296e4	-0.06376436
102	0x3d6008e9	0.054695997
103	0xbdb8c87e	-0.09022616
104	0xbe63674a	-0.2220737
105	0x3dd427f4	0.10359183
106	0x3d222fa9	0.039596234
107	0xbea82594	-0.3284117
108	0x3d5e3e4e	0.054258637
109	0xbe48f7fe	-0.19625852
110	0x3e8bbcda	0.2729252
111	0xbd3120fb	-0.043244343
112	0x3dae95d2	0.0852467
113	0xbdd16a50	-0.102253556
114	0x3d76b4e6	0.060231112
115	0xbd655504	-0.05598928
116	0xbd0ab1a5	-0.03386082
117	0x3dea5eb0	0.114438415
118	0x3d36b3c6	0.04460504
119	0x3cb3c4d6	0.021944445
120	0x3d3121f8	0.043245286
121	0xbd3102c2	-0.04321552
122	0x3d85f10f	0.06540119
123	0x3dd042a2	0.10168959
124	0xbe873e15	-0.26414552
125	0xbe8460dc	-0.25855148
126	0x3d1330bc	0.03593515
127	0xbe4bdb46	-0.19907865

graph_embed_generation.gat_cgra.att_dst f4 [1, 4, 32]
0	0xbe1aaea6	-0.15105686
1	0xbe607d0c	-0.21922702
2	0x3c0f0137	0.008728317
3	0x3c629047	0.013828344
4	0x3e5a7790	0.21334672
5	0xbcfa8379	-0.03058027
6	0xbe7b5da4	-0.2454744
7	0xbc90861e	-0.017642077
8	0xbe78fcc0	-0.24315166
9	0xbe0d3902	-0.13791278
10	0x3e01f2f9	0.12690343
11	0xbd7dda96	-0.061976038
12	0x3ec78281	0.38966754
13	0xbdc3f83f	-0.095688336
14	0x3dfb0ca1	0.12258268
15	0xbd1e5b21	-0.038661126
16	0x3bc90a56	0.0061352653
17	0xbe5157f4	-0.20443708
18	0x3e048e3e	0.12944886
19	0x3d97e8f1	0.07417477
20	0xbdfd4b0f	-0.12367832
21	0xbd802bff	-0.062583916
22	0xbe80fa1c	-0.25190818
23	0x3c9c4e60	0.01908034
24	0xbcc731aa	-0.024315674
25	0x3e299950	0.1656239
26	0xbd0884c2	-0.033329733
27	0xbdea0749	-0.11427171
28	0x3e7b02f6	0.24512848
29	0xbc7396f2	-0.014867531
30	0xbe0e8310	-0.13917184
31	0x3df65a6f	0.120289676
32	0xbe03e2fb	-0.12879555
33	0x3dd85124	0.10562351
34	0x3e07c0f9	0.13257207
35	0xbe15091e	-0.14554259
36	0xbdc4160d	-0.09574518
37	0xbd5490df	-0.051895972
38	0xbddb7948	-0.10716492
39	0x3e62b378	0.22138774
40	0xbe79392c	-0.24338216
41	0xbe8d9cd1	-0.27658704
42	0x3dec27ae	0.11531006
43	0x3ca8962c	0.02057942
44	0xbd82900c	-0.06375131
45	0x3dc3f42d	0.09568057
46	0xbd5a2a5e	-0.05326306
47	0x3d280648	0.041021615
48	0xbd340bb8	-0.04395649
49	0xbe876069	-0.26440743
50	0xbc8c5cb4	-0.017134048
51	0x3e098ca5	0.13432558
52	0x3e05a323	0.13050513
53	0x3e2e6eb9	0.17034425
54	0xbd8831d3	-0.06650128
55	0xbd892bfc	-0.066978425
56	0xbcddef12	-0.027091537
57	0xbcd7ad53	-0.026327765
58	0x3cca175b	0.02466934
59	0x3d934114	0.07190147
60	0x3e28e346	0.16492948
61	0x3e1e4173	0.15454654
62	0xbd2cfac8	-0.04223135
63	0xbc66ae2c	-0.014079612
64	0xbe3f089c	-0.18655628
65	0x3d2c1229	0.042009506
66	0x3d52d197	0.05146941
67	0x3d36c4a4	0.044621125
68	0x3e23ffba	0.1601552
69	0x3d6aab09	0.057292018
70	0x3ca32ca7	0.019918753
71	0x3e449f53	0.19201402
72	0x3dd5772b	0.1042312
73	0x3ddc5da3	0.10760047
74	0xbd28241a	-0.041050054
75	0x3cd17da9	0.025572615
76	0x3d9dc245	0.077030696
77	0x3e0ce6d6	0.13759932
78	0xbd411bd4	-0.04714568
79	0x3d81e984	0.06343368
80	0xbe033761	-0.12814094
81	0xbe2ee825	-0.17080744
82	0x3c49ecfd	0.012324569
83	0xbc43b5c8	-0.0119451955
84	0xbd21a11a	-0.03946028
85	0xbdf79bf9	-0.12090296
86	0x3deefe7d	0.116696335
87	0x3de0db65	0.10979346
88	0xbd7dd186	-0.061967395
89	0x3e765a61	0.24057914
90	0x3e15da7e	0.1463413
91	0xbdf48b84	-0.11940673
92	0x3db7a77a	0.089674905
93	0xbdc7e844	-0.09761098
94	0xbe4b19ab	-0.1983401
95	0xbd2cf7b6	-0.042228423
96	0xbd2a0916	-0.04151257
97	0xbcc70861	-0.024295988
98	0x3ec0e1ef	0.37672374
99	0xbdbd888b	-0.09254559
100	0xbe395758	-0.18099725
101	0xbdcc75c8	-0.099834025
102	0x3d46af56	0.048507057
103	0xbd263b9a	-0.040584184
104	0xbd5dbbea	-0.054134287
105	0x3ca79619	0.020457314
106	0x3d5a64d6	0.05331882
107	0x3b0ed5d5	0.0021794934
108	0x3e8624ec	0.26200044
109	0xbd126459	-0.03574023
110	0x3e74530e	0.23859808
111	0x3e297087	0.16546832
112	0xbdc07848	-0.09397942
113	0xbe1678c4	-0.14694506
114	0xbdff0f60	-0.124541044
115	0xbc28be36	-0.010299256
116	0x3e5287b2	0.20559576
117	0x3d2cf516	0.04222592
118	0x3e369503	0.17830281
119	0x3d9f019b	0.07763978
120	0x3d51291e	0.051064603
121	0xbdf45317	-0.11929911
122	0x3d854b55	0.06508509
123	0xbe2684e0	-0.16261625
124	0xbd18adf1	-0.03727526
125	0x3e04763f	0.12935732
126	0x3c5284d6	0.012849053
127	0x3db96df7	0.09054177

graph_embed_generation.gat_cgra.bias f4 [32]
0	0xbb5f3f47	-0.0034064816
1	0x3c207a75	0.009794821
2	0x3cae53d6	0.02128021
3	0x3d0ce154	0.034394577
4	0xbd300458	-0.042972893
5	0x3cb21f0a	0.021743316
6	0xbc0f910c	-0.008762609
7	0x3b322a8b	0.0027186002
8	0xbca044e1	-0.019564094
9	0x3b54a754	0.0032448368
10	0x3dea7cff	0.11449622
11	0xbd313a44	-0.043268457
12	0x3c95c2b3	0.018281316
13	0xbd6a9c6a	-0.057278074
14	0xbb97e7cd	-0.004635787
15	0x3bc58c15	0.006028662
16	0xbdb2d717	-0.087324314
17	0xbdb6c0e3	-0.08923509
18	0x3d980f3f	0.07424783
19	0xbc284bc6	-0.010271972
20	0xbdb3c30e	-0.08777438
21	0x3c1d88e8	0.0096151605
22	0x3bbc082b	0.0057382784
23	0x3d84e11b	0.06488248
24	0x3d73714a	0.059434213
25	0x3d65e547	0.05612686
26	0xbc4b9743	-0.0124262
27	0xbc8527b7	-0.01625429
28	0x3ccffd0e	0.02538922
29	0xbc8b1f64	-0.016982742
30	0xbc1967db	-0.00936314
31	0xba3dad8d	-0.0007235639

graph_embed_generation.gat_cgra.lin.weight f4 [128, 7]
0	0x3da70877	0.081559114
1	0x3dfb4671	0.12269295
2	0x3d557d1b	0.052121263
3	0x3d512493	0.05106027
4	0xbc8e3ee9	-0.017363982
5	0x3e3c8f69	0.18414082
6	0xb9d39734	-0.0004035771
7	0xbc97ab8d	-0.018514419
8	0xbe588704	-0.21145254
9	0x3db4296e	0.087969646
10	0xbdfa4211	-0.122196324
11	0x3e3a8bab	0.18217342
12	0xbe55ed5f	-0.20891331
13	0xbded6a39	-0.11592526
14	0x3d5ea37d	0.054355133
15	0x3d9cefc6	0.07662921
16	0xbd4b2c1c	-0.049602613
17	0xbd73aa82	-0.05948878
18	0x3b3229ec	0.0027185632
19	0xbd413008	-0.047164947
20	0x3bcc6fe8	0.006238926
21	0xbdf0c159	-0.11755628
22	0xbde2842d	-0.11060367
23	0xbd38e4b0	-0.04513997
24	0xbdcccd42	-0.10000087
25	0x3e181af6	0.14854035
26	0x3e541e24	0.20714623
27	0x3bc1cd59	0.005914372
28	0x3ce6a73d	0.028155917
29	0xbe15d9cc	-0.14633864
30	0xbddfc55c	-0.10926315
31	0xbe8228de	-0.25421804
32	0xbddffb79	-0.109366365
33	0xbe91328d	-0.2835888
34	0xbd85fc24	-0.06542233
35	0x3e86a179	0.2629507
36	0xbcc141c6	-0.023590934
37	0xbc59c5ae	-0.013291759
38	0xbcd0697e	-0.025440928
39	0xbd5ccd45	-0.053906698
40	0x3c939589	0.01801564
41	0xbe2ea5d0	-0.1705544
42	0x3e3622df	0.1778674
43	0x3d4f81ac	0.050660774
44	0x3cacde9b	0.02110224
45	0xbdc6332b	-0.09677728
46	0x3e89d67c	0.2692145
47	0x3edd1fee	0.43188423
48	0xbe042d82	-0.12907985
49	0x3d89d871	0.06730736
50	0xbdca165d	-0.09867547
51	0x3e17f014	0.14837676
52	0xbc02846a	-0.00796614
53	0x3e51c441	0.20485021
54	0x3da91806	0.08256535
55	0x3cd02872	0.02540991
56	0x3e6b8422	0.22999623
57	0xbd923b54	-0.07140222
58	0x3b8f830d	0.004379636
59	0xbd9d58c8	-0.07682949
60	0x3dabacd3	0.08382573
61	0xbdaf57d2	-0.08561672
62	0x3c4aff28	0.012389936
63	0xbbe3d0b2	-0.0069523687
64	0x3de3376f	0.110945575
65	0x3e2ccb80	0.16874504
66	0x3d4a83b9	0.049442027
67	0xbd9bc02c	-0.07605013
68	0xbd29fe84	-0.04150249
69	0xbdbd77ca	-0.092513636
70	0x3e0b09a0	0.1357789
71	0x3c084ccf	0.008319094
72	0x3c77d8aa	0.01512734
73	0x3ea168b4	0.31525195
74	0x3d8de515	0.069284596
75	0x3d862bf5	0.06551353
76	0xbd99d69f	-0.07511639
77	0xbe7f1c0d	-0.24913044
78	0xbd07d783	-0.033164512
79	0x3d221853	0.03957398
80	0xbddaee93	-0.10690036
81	0xbd2b06d2	-0.04175455
82	0xbe034a5b	-0.12821333
83	0x3e629543	0.22127251
84	0x3e620bb4	0.22074777
85	0x3daa1c6c	0.08306202
86	0xbe0bba49	-0.13645281
87	0xbbce41e3	-0.0062944754
88	0x3c8d42ea	0.017243821
89	0xbd29b62a	-0.04143349
90	0x3ba3da42	0.0050003836
91	0xbe1a2168	-0.15051806
92	0x3d1f9c21	0.038967256
93	0x3e3077d8	0.17233217
94	0xbe9f527d	-0.3111762
95	0xbe617b85	-0.22019775
96	0x3e2a6846	0.1664134
97	0x3e5909fe	0.21195218
98	0x3dfed469	0.12442858
99	0xbd040156	-0.032227837
100	0x3e45f02c	0.193299
101	0xbe4da3ae	-0.2008197
102	0x3da73d3a	0.08165975
103	0xbe055fd8	-0.13024843
104	0xbe7266fe	-0.23672101
105	0xbdb2e1f4	-0.087345034
106	0xbe6c3618	-0.2306751
107	0xbe79b8ff	-0.24386977
108	0x3c9da301	0.019242765
109	0xbdf45ecb	-0.11932143
110	0xbc572a0d	-0.013132584
111	0xbd95b0fe	-0.07309149
112	0xbe4b33b5	-0.19843943
113	0xbd665d51	-0.056241337
114	0xbe0eaf89	-0.13934149
115	0xbb10d548	-0.0022099782
116	0xbe345711	-0.17611338
117	0x3dcd361c	0.10020086
118	0x3d27aa55	0.040933926
119	0xbd2ce4dd	-0.04221045
120	0xbdda6b26	-0.10664968
121	0xbe01ef6e	-0.12688991
122	0xbd9af9ab	-0.07567152
123	0xbeb938ba	-0.3617609
124	0x3cafe4de	0.021471437
125	0x3ebe35a6	0.37150306
126	0xbe3b9f1b	-0.18322413
127	0x3e011e26	0.12609157
128	0x3dad6216	0.08465974
129	0xbd96e08c	-0.07367048
130	0xbd6c49a8	-0.05768743
131	0x3db8693e	0.09004448
132	0xbe5f9b45	-0.21836574
133	0x3d08e300	0.03341961
134	0xbe42c778	-0.19021404
135	0xbbd75c2b	-0.0065722666
136	0x3d1f015e	0.038819663
137	0xbdbfa1ca	-0.09357031
138	0x3cfb7870	0.030697078
139	0x3e292f1b	0.16521876
140	0x3b910c92	0.0044265473
141	0xbe1409d1	-0.1445687
142	0xbe8fe12b	-0.28101477
143	0x3d6552d3	0.05598719
144	0xbe432fba	-0.19061175
145	0xbdaed8bf	-0.08537435
146	0xbca46267	-0.020066453
147	0x3ea50ded	0.32237187
148	0x3e9e63b8	0.30935454
149	0xbe238c96	-0.15971598
150	0xbe2595fd	-0.16170497
151	0x3d93950e	0.07206164
152	0x3d98a1ea	0.07452758
153	0x3db0650c	0.08613023
154	0xbd8a4914	-0.0675222
155	0xbdb46026	-0.08807401
156	0xbcf81130	-0.030281633
157	0xbe5e41cf	-0.21704791
158	0xbe461d3b	-0.19347088
159	0x3cabfa94	0.020993508
160	0xbdf458b7	-0.119309835
161	0x3d9ef29b	0.07761117
162	0x3e8b12bb	0.27162728
163	0x3e45ad06	0.19304284
164	0xbd02a033	-0.03189106
165	0x3eac5e82	0.33665854
166	0xbd3b1346	-0.045672677
167	0xbdb026fc	-0.08601186
168	0xbc4a4ebb	-0.012347872
169	0x3e0d5be6	0.13804588
170	0x3e1b8ec1	0.15191175
171	0x3b2205b8	0.0024722647
172	0x3d810da8	0.06301433
173	0x3d2be635	0.04196759
174	0xbdb1f58a	-0.08689411
175	0xbcf2bcec	-0.0296311
176	0xbb442bdd	-0.002993337
177	0x3998ad06	0.00029120612
178	0x3db8ac75	0.090172686
179	0x3d87eb2d	0.06636653
180	0x3e38cd25	0.18047006
181	0xbdf9a922	-0.12190463
182	0x3e3460e9	0.17615093
183	0x3dbe23f1	0.09284199
184	0xbd8c9cd9	-0.06865854
185	0x3dac1dbf	0.08404111
186	0x3d8f76b6	0.07005064
187	0xbe19264c	-0.14956015
188	0xbd612bd9	-0.054973457
189	0xbd86aaad	-0.065755226
190	0xba65a049	-0.0008759541
191	0x3ada5a19	0.0016658931
192	0x3df5e5bc	0.12006709
193	0xbca5dc74	-0.020246722
194	0xbe0a9a7e	-0.13535497
195	0x3d6bce0c	0.05756955
196	0xbd12e114	-0.035859182
197	0x3d5dfe44	0.054197565
198	0x3d4423ff	0.04788589
199	0x3e7b785c	0.24557632
200	0x3e5b7756	0.21432242
201	0x3d79cede	0.0609883
202	0xbdbcbebb	-0.092160664
203	0xbd662e95	-0.056196768
204	0xbd9286d9	-0.071546264
205	0x3d1279cd	0.03576069
206	0xbd6f8d34	-0.05848427
207	0x3dae1d37	0.08501666
208	0xbe69a77c	-0.22817796
209	0xbe3186ec	-0.17336625
210	0x3dc93793	0.09825053
211	0xbd98e749	-0.07465989
212	0xbd92c0bf	-0.0716567
213	0xbd2cac6b	-0.042156618
214	0xbdbc7362	-0.09201695
215	0xbe375270	-0.17902541
216	0x3e1936a4	0.1496225
217	0xbe16ecfd	-0.14738841
218	0xbe63e562	-0.22255471
219	0xbde3c552	-0.1112162
220	0xbdd32c1d	-0.10311148
221	0xbd26f536	-0.040761195
222	0x3dcef8a0	0.10106015
223	0xbe8bdc2f	-0.27316424
224	0x3e4adfbb	0.19811909
225	0xbd8fffcc	-0.07031211
226	0x3d9204e1	0.07129837
227	0x3a57e0a0	0.0008235071
228	0x3d1af137	0.037827697
229	0x3cc14223	0.023591107
230	0x3e22257d	0.15834613
231	0xbd96267a	-0.073315576
232	0x3e3d18d9	0.1846651
233	0x3ddfff74	0.10937396
234	0x3db7f5bc	0.08982417
235	0xbd243db7	-0.04009792
236	0xbd0c49b8	-0.03424999
237	0xbe6eae21	-0.23308612
238	0x3e08a34b	0.13343541
239	0x3de0b501	0.10972024
240	0xbd0412c0	-0.032244444
241	0x3da82f9d	0.082122065
242	0xbd1ed023	-0.038772713
243	0x3e1cd823	0.15316825
244	0xbe68a61a	-0.22719613
245	0x3e563e18	0.20922124
246	0xbdad481c	-0.084610194
247	0xbddeb1bb	-0.10873743
248	0x3e1305bb	0.14357655
249	0x3c13926b	0.009007077
250	0xbc4d6642	-0.012536587
251	0x3d9a2e00	0.07528305
252	0xbbb3c5ac	-0.005486211
253	0xbe4d4bbc	-0.20048422
254	0x3dabd27c	0.08389756
255	0x3c56fe43	0.013122144

graph_embed_generation.fc_metadata.weight f4 [32, 9]
0	0xbcb4b64e	-0.022059586
1	0x3d9e2784	0.07722381
2	0xbaa43045	-0.0012526592
3	0xbe23e377	-0.1600474
4	0x3e4fd9bd	0.20297904
5	0xbe920ec5	-0.28526893
6	0xbe5bb56d	-0.21455927
7	0xbd727e3e	-0.059202425
8	0xbea9ce1c	-0.3316506
9	0xbca56f3c	-0.020194642
10	0xbe656c0b	-0.22404496
11	0x3e06af1e	0.1315274
12	0x3e8e1add	0.2775487
13	0xbe019f9e	-0.12658545
14	0x3f01b4ac	0.5066631
15	0xbee545e9	-0.447799
16	0x3dbcc007	0.09216314
17	0x3e2e16d5	0.17000897
18	0xbef23973	-0.47309455
19	0x3ea1a466	0.3157074
20	0x3d6d39aa	0.05791632
21	0x3e5cac45	0.2155009
22	0x3e471ca2	0.19444516
23	0xbee2bf46	-0.44286555
24	0xbe9a04b0	-0.300817
25	0xbec80df1	-0.39073136
26	0x3e977e8c	0.29588735
27	0x3da052fd	0.07828329
28	0xbe60c9d9	-0.21951999
29	0xbe9c49bc	-0.30525005
30	0x3d5790fb	0.0526285
31	0xbe7d314d	-0.24725838
32	0x3e8500d1	0.25977185
33	0x3e00c1f5	0.12573989
34	0xbed851df	-0.42249963
35	0x3d98b415	0.07456223
36	0xbe8bf2f1	-0.27333787
37	0x3dbff3df	0.093726866
38	0xbdecd048	-0.11563164
39	0xbe5e0906	-0.2168313
40	0x3e5ae34c	0.2137577
41	0x3e560341	0.20899679
42	0x3e22f8c4	0.15915209
43	0xbd74b46b	-0.059742372
44	0x3de22d1b	0.110437594
45	0x3eb39a6d	0.35078755
46	0x3f16d493	0.5891811
47	0x3e6cdd19	0.23131217
48	0xbe9af740	-0.30266762
49	0xbf2f0019	-0.68359524
50	0x3e09f6aa	0.13473001
51	0x3d89aa9e	0.06721996
52	0x3d90d861	0.07072521
53	0xbe94e8ec	-0.29083955
54	0xbd4be306	-0.049777053
55	0x3d6937b5	0.056937892
56	0x3e9bf6c0	0.30461693
57	0xbe92f6b8	-0.28703856
58	0xbe8a1636	-0.2697007
59	0x3d779638	0.060445994
60	0xbdc900df	-0.09814619
61	0xbddde142	-0.1083398
62	0x3e2f7f77	0.17138468
63	0xbe448506	-0.1919137
64	0x3e8f7148	0.28016114
65	0xbe7d9d07	-0.24766932
66	0x3d4813a1	0.048846845
67	0x3d72751a	0.059193708
68	0xbedd0483	-0.43167505
69	0xbe644395	-0.22291405
70	0x3e0baaf3	0.1363943
71	0xbeba2618	-0.36357188
72	0xbe2dd5fa	-0.16976157
73	0xbb8b5e9e	-0.0042532226
74	0x3e26f17b	0.16303055
75	0xbe980b78	-0.2969625
76	0x3e1b7517	0.15181385
77	0x3e2e21c4	0.17005068
78	0x3e7dc3a2	0.24781659
79	0x3e4205e9	0.18947567
80	0xbdce62ec	-0.100774616
81	0xbe75eb5a	-0.24015561
82	0x3e1d40c5	0.15356739
83	0xbdd37783	-0.103255294
84	0xbe2b2547	-0.16713439
85	0x3d74a8a9	0.05973116
86	0x3c8bcf1e	0.017066535
87	0x3ea2aa08	0.3177035
88	0xbf1dfd56	-0.61714685
89	0xbef844e8	-0.4849007
90	0x3d3909f2	0.0451755
91	0xbdd81261	-0.105503805
92	0x3e89d8e2	0.2692328
93	0xbdff5c98	-0.12468833
94	0x3ecedd45	0.4040319
95	0xbdecd25b	-0.115635596
96	0x3dbf8b4c	0.09352741
97	0x3e8098d5	0.25116602
98	0xbe598938	-0.21243751
99	0xbeb92c5f	-0.36166665
100	0x3d9e8cb8	0.07741684
101	0xbeab1ee9	-0.3342202
102	0x3ed869ea	0.42268306
103	0xbda34ed8	-0.079740226
104	0x3e68af89	0.22723211
105	0x3cf84f38	0.030311212
106	0xbe788ce9	-0.24272503
107	0x3d8c3a5a	0.06847067
108	0x3f3a009a	0.7265717
109	0x3e5e7045	0.21722515
110	0xbecbad1e	-0.39780515
111	0xbe0d107f	-0.13775824
112	0x3f2dba47	0.6786236
113	0x3db02999	0.08601684
114	0xbe434ce8	-0.19072306
115	0xbd721fb5	-0.05911227
116	0x3e538408	0.20655835
117	0xbc1ba03b	-0.009498651
118	0xbeb030a9	-0.34412125
119	0xbec18dcf	-0.37803504
120	0xbedfa62d	-0.4368147
121	0xbe8d792f	-0.27631518
122	0xbee2b2db	-0.4427708
123	0x3d80fb53	0.06297936
124	0xbdfcfa80	-0.123524666
125	0xbd7715c6	-0.0603235
126	0xbe55b5e0	-0.20870161
127	0x3dd87283	0.105687164
128	0xbf028728	-0.5098748
129	0xbd540cb8	-0.051769942
130	0xbe05b1ef	-0.13056158
131	0x3e3cbc79	0.18431272
132	0xbc3ae601	-0.011407376
133	0x3eadc002	0.33935553
134	0x3dfeec10	0.12447369
135	0x3d93afea	0.07211287
136	0x3e49e52c	0.19716328
137	0x3de2acf5	0.11068145
138	0x3d40766b	0.046987932
139	0x3e83198b	0.25605425
140	0x3da4a804	0.08039859
141	0x3edd334f	0.43203208
142	0xbe08df9f	-0.13366555
143	0x3eeef473	0.46670875
144	0xbe774981	-0.24149133
145	0x3e9c3805	0.3051149
146	0xbda550c2	-0.08072044
147	0x3ece3d87	0.40281317
148	0x3da8a4ba	0.08234544
149	0x3eae00c2	0.33984953
150	0x3b66efd0	0.0035238154
151	0x3e0f26e6	0.13979682
152	0xbefb9a9e	-0.491414
153	0x3ea7868c	0.3271984
154	0x3e270bf1	0.16313149
155	0x3f098f72	0.53734505
156	0x3bcec076	0.006309564
157	0xbe9d4551	-0.30716947
158	0xbe06531d	-0.13117643
159	0x3e1a8892	0.1509116
160	0xbe9607e4	-0.29302895
161	0x3e626547	0.22108947
162	0x3dea24d9	0.114328094
163	0xbe1d33a7	-0.15351735
164	0x3c03b5b2	0.008038925
165	0xbc2d42f6	-0.010575047
166	0xbd8ac8af	-0.067765586
167	0x3ea4eed1	0.32213452
168	0xbf0987b6	-0.53722703
169	0xbe9e8f14	-0.30968535
170	0xbe42d59e	-0.19026801
171	0xbea31b17	-0.31856605
172	0x3d7c156e	0.061543874
173	0x3df2150b	0.1182042
174	0xbddef7b7	-0.108870916
175	0x3e128e6d	0.14312144
176	0x3e345a54	0.17612582
177	0x3dbbc7b6	0.09168951
178	0x3e7c3c01	0.24632265
179	0x3e1b6f11	0.15179087
180	0x3dc1c28a	0.094609335
181	0x3f1a8da0	0.6037235
182	0xbed6330a	-0.41835815
183	0xbe295eab	-0.16540019
184	0x3dbc79bc	0.092029065
185	0xbde60b7c	-0.11232659
186	0xbea21d2c	-0.3166288
187	0xbdc566e5	-0.09638766
188	0x3e18f202	0.14936069
189	0x3d670e18	0.056409925
190	0xbedf31e0	-0.4359274
191	0xbe1011a9	-0.14069237
192	0x3d1551af	0.036454853
193	0xbd193a23	-0.03740896
194	0xbeb271b7	-0.34852383
195	0x3d1bbc39	0.0380213
196	0x3ec06be5	0.37582317
197	0xbd0ed4a8	-0.034870774
198	0xbde6a965	-0.11262778
199	0x3c24a537	0.010049156
200	0x3eea2150	0.4572854
201	0x3e7b4655	0.24538548
202	0x3dc0d0ec	0.09414849
203	0xbd7950c1	-0.06086803
204	0xbdefb8e4	-0.11705187
205	0x3dba6980	0.09102154
206	0xbda82082	-0.082093254
207	0x3e29b645	0.16573437
208	0xbd2a279f	-0.041541692
209	0x3d2b588f	0.041832503
210	0xbd2e443b	-0.04254554
211	0x3dfe12da	0.124059394
212	0x3e689e52	0.22716644
213	0x3ef70cfd	0.48252097
214	0x3d80d432	0.06290473
215	0x3c75cb9f	0.01500216
216	0xbdd57407	-0.10422521
217	0xbd5ec3ec	-0.054386064
218	0x3eb0eba9	0.34554794
219	0xbf0a1eaf	-0.5395307
220	0x3d88a08a	0.066712454
221	0x3e47b2d1	0.19501807
222	0xbeccde3f	-0.4001331
223	0xbd5cca48	-0.053903848
224	0x3e9ad609	0.3024142
225	0xbe4286d5	-0.18996747
226	0x3ece6351	0.40310147
227	0x3d9d45e6	0.07679348
228	0xbe02ae37	-0.1276177
229	0x3e8f7073	0.2801548
230	0xbca8a1c8	-0.020584956
231	0x3cef2156	0.0291907
232	0x3d6fa569	0.058507357
233	0xbe739c41	-0.23790075
234	0xbd68be12	-0.05682189
235	0x3d00d3fb	0.03145216
236	0x3e8dfbd8	0.27731204
237	0x3e466597	0.19374691
238	0x3e158eaa	0.14605203
239	0xbe1cbdc5	-0.15306766
240	0xbe1baf2e	-0.15203544
241	0x3d9aed2a	0.07564767
242	0x3e212e8e	0.15740415
243	0x3d46d227	0.04854026
244	0xbd792c35	-0.060833175
245	0xbe47d73e	-0.19515702
246	0x3e056eed	0.13030596
247	0x3e26f105	0.16302879
248	0x3e9f3f4c	0.3110298
249	0x3dc32d34	0.09530106
250	0xbe30e9ff	-0.17276762
251	0xbe193ab9	-0.14963807
252	0x3e0aea17	0.1356586
253	0x3d9754be	0.0738921
254	0x3e8b5dc8	0.27219987
255	0x3e3b4385	0.18287475

graph_embed_generation.fc_metadata.bias f4 [32]
0	0x3d1ab018	0.037765592
1	0xbe19b9aa	-0.15012231
2	0xbe0bd629	-0.13655914
3	0xbe15f73e	-0.14645097
4	0xbe9a5459	-0.30142477
5	0x3c6cbc43	0.014449182
6	0x3e0328c5	0.12808521
7	0x3e15d700	0.14632797
8	0x3e2e9c7f	0.17051886
9	0x3df2fe46	0.11864905
10	0x3e28d594	0.16487724
11	0x3ec2ded3	0.38060626
12	0xbd699b3a	-0.0570328
13	0xbdbc43c8	-0.09192616
14	0x3eace924	0.33771622
15	0x3e25d4b8	0.16194427
16	0x3c6f25fe	0.01459646
17	0xbe9bcd0e	-0.30429882
18	0x3db905fa	0.09034343
19	0xbe62a166	-0.22131881
20	0x3e86f764	0.2636062
21	0xbe1b5d25	-0.1517225
22	0x3e34cf82	0.17657283
23	0x3ddb6441	0.10712481
24	0xbe24105d	-0.16021867
25	0xbe081d48	-0.1329242
26	0xbe0b33dc	-0.13594002
27	0x3df47431	0.11936224
28	0x3d6fe081	0.058563713
29	0xbe8880c4	-0.2666074
30	0xbe14441f	-0.14479111
31	0x3e8af5d8	0.2714069

graph_embed_generation.mlp.0.weight f4 [32, 96]
0	0x3dfc2af3	0.123128794
1	0xbe532492	-0.20619419
2	0xbe8c4a40	-0.27400398
3	0xbcb783e9	-0.022401767
4	0xbd136b3c	-0.03599094
5	0xbbd0f061	-0.0063763116
6	0xbcfac068	-0.030609325
7	0x3d8bdaa7	0.06828814
8	0x3dbcece4	0.09224871
9	0xbee64fdc	-0.44982803
10	0xbd0f68d4	-0.03501208
11	0xbdce76b8	-0.100812376
12	0xbcab4a49	-0.020909445
13	0x3ea16740	0.31524086
14	0x3cbe06e2	0.023196641
15	0x3de906b7	0.11378234
16	0xbd64f8b8	-0.05590126
17	0x3d000354	0.031253174
18	0x3d4c9714	0.049948767
19	0xbd68e779	-0.056861375
20	0x3ed3d9ba	0.4137705
21	0xbdaebc49	-0.08532006
22	0x3c016101	0.007896663
23	0x3eb9b04b	0.36267313
24	0x3d7d933f	0.061908003
25	0x3d9ef606	0.07761769
26	0x3e442465	0.19154508
27	0x3db8ef31	0.09029997
28	0xbd01251f	-0.031529542
29	0xbd61b47d	-0.055103768
30	0x3cc6bd4b	0.024260184
31	0xbda2c3af	-0.0794748
32	0xbcf220b5	-0.029556612
33	0xbda83623	-0.08213451
34	0x3cf1d558	0.029520676
35	0xbe3738f6	-0.17892823
36	0xbbc82bac	-0.0061087217
37	0xbe5614d0	-0.20906377
38	0xbd36e0a7	-0.04464784
39	0xbb62b3c5	-0.0034592014
40	0x3d1d0f1d	0.03834449
41	0xbe5ec553	-0.2175496
42	0xbdb493ca	-0.08817251
43	0x3d68803a	0.05676291
44	0x3c95a47b	0.018266907
45	0x3e35253e	0.17689988
46	0xbdb4d49e	-0.08829616
47	0xbd0bbfd4	-0.03411849
48	0x3c33783e	0.010953961
49	0x3e4a0c87	0.19731341
50	0xbe1c4eb8	-0.15264404
51	0x3c96c010	0.01840213
52	0x3c04d57e	0.008107541
53	0xbdf13cb0	-0.11779153
54	0x3dbb0f4d	0.09133778
55	0xbdf86c4d	-0.12130032
56	0xbead27e0	-0.33819485
57	0xbed6b1c2	-0.41932493
58	0x3e5049d8	0.20340669
59	0x3e4ad090	0.19806123
60	0xbeaaf68d	-0.33391228
61	0xbd1d2e99	-0.038374517
62	0x3e02e70a	0.12783447
63	0x3b3e59a1	0.0029045122
64	0x3d036b91	0.032085005
65	0x3e6abf75	0.22924598
66	0xbd2541e0	-0.040346026
67	0x3d953d29	0.07287056
68	0x3dd9f43b	0.106422864
69	0xbc5416e0	-0.012944907
70	0x3e72d142	0.23712638
71	0xbde06774	-0.10957232
72	0x3cd19ec7	0.025588406
73	0xbe9078f8	-0.28217292
74	0xbdcb4f02	-0.09927179
75	0x3de66cff	0.11251258
76	0xbe115c46	-0.14195356
77	0xbd1699e6	-0.036767863
78	0xbdfbf8a2	-0.12303282
79	0xbd2c3bee	-0.04204934
80	0xbe4e7439	-0.20161523
81	0xbd4d4f20	-0.050124288
82	0xbe0f5b91	-0.13999774
83	0x3dd0474b	0.10169848
84	0x3d9e9666	0.0774353
85	0x3ead00d5	0.33789697
86	0xbc07ace3	-0.0082809655
87	0x3e39f1fe	0.18158719
88	0xbd2ffb86	-0.04296448
89	0x3e37918d	0.17926617
90	0x3d7fb1ec	0.06242554
91	0xbdc0775b	-0.09397765
92	0x3de17130	0.11007917
93	0xbde701b0	-0.11279619
94	0xbe018279	-0.12647428
95	0x3e50d5e4	0.20394093
96	0xbde0c6e4	-0.109754354
97	0x3e881f6e	0.2658648
98	0x3e48e8ea	0.196201
99	0xbe7e639c	-0.24842685
100	0xbcb7a90b	-0.022419473
101	0xbbb2fc46	-0.0054622022
102	0xbe1d8116	-0.15381274
103	0xbea88d4b	-0.32920298
104	0xbe81b17d	-0.25330725
105	0x3e030120	0.12793398
106	0x3d9d4266	0.0767868
107	0x3cb64956	0.022251766
108	0x3ca7ef2f	0.020499794
109	0x3d89e2f2	0.067327395
110	0xbe1d5428	-0.15364134
111	0xbe245244	-0.16047007
112	0xbbf97617	-0.0076129544
113	0xbec1d3d7	-0.37856933
114	0xbea6e6f5	-0.3259808
115	0x3e22d2e6	0.15900764
116	0x3e6f19db	0.23349707
117	0x3e30a13a	0.17249003
118	0xbc9be7ba	-0.019031394
119	0xbe5fc12a	-0.2185103
120	0x3e600a1e	0.2187886
121	0xbe97a3e3	-0.29617223
122	0x3df6ee56	0.12057178
123	0x3ea70b49	0.32625797
124	0x3c0577e6	0.008146262
125	0x3db513d3	0.08841672
126	0xbe738022	-0.23779348
127	0x3e1f17c1	0.15536405
128	0xbd221f59	-0.039580677
129	0x3e737bfa	0.23777762
130	0x3af5f8fa	0.0018766217
131	0x3d893a70	0.06700599
132	0x3e07b614	0.13253051
133	0x3e0f47b1	0.13992192
134	0xbd7a83fd	-0.06116103
135	0xbe490e6e	-0.1963441
136	0x3d8b0fdc	0.06790134
137	0xbdf6292b	-0.12019571
138	0x3bf63d41	0.0075146263
139	0x3d88f7f0	0.06687915
140	0xbe5b88a3	-0.21438842
141	0x3cc9d5fa	0.024638165
142	0xbe0c2656	-0.13686499
143	0xbdde33da	-0.10849734
144	0xbacb6890	-0.0015518833
145	0xbe32549f	-0.17415093
146	0x3d8bc4a0	0.068246126
147	0xbe9399b5	-0.28828207
148	0x3e4ac129	0.19800247
149	0xbe210b33	-0.15726928
150	0xbe04c577	-0.12965952
151	0x3e600ffa	0.21881095
152	0xbda8510f	-0.08218586
153	0x3dd0e28c	0.101994604
154	0x3e3e34ca	0.18574825
155	0xbd8e7db8	-0.06957573
156	0x3e4f9643	0.20272164
157	0xbe940e8a	-0.28917342
158	0xbdc75177	-0.09732335
159	0x3cdcd1c9	0.026955502
160	0xbe6c263e	-0.23061463
161	0xbe0fdc4d	-0.14048882
162	0xbdec4353	-0.115362786
163	0xbe82b958	-0.2553203
164	0xbd88945c	-0.06668922
165	0xbdf73841	-0.120712765
166	0xbd39f732	-0.04540176
167	0xbdb1a445	-0.0867391
168	0x3e6a5907	0.22885524
169	0x3e7b26c0	0.245265
170	0x3e4960ba	0.19665805
171	0x3ce03863	0.027370637
172	0xbdc87e01	-0.09789658
173	0x3d479dde	0.04873454
174	0xbe009ea4	-0.12560517
175	0xbe47e2bf	-0.1952009
176	0xbe124956	-0.14285788
177	0x3daab648	0.08335549
178	0xbd50a21c	-0.05093585
179	0x3d70ccf7	0.05878922
180	0xbdd30c1b	-0.10305043
181	0x3e087cc2	0.13328841
182	0xbe63612d	-0.22205038
183	0x3d9d07f2	0.07667531
184	0x3d8bb3b4	0.06821385
185	0x3d839376	0.0642461
186	0xbe64da05	-0.22348793
187	0x3e799915	0.24374802
188	0x3dd1e9e4	0.10249689
189	0x3dfd83d9	0.123786636
190	0x3db1c30c	0.0867978
191	0x3d84f256	0.064915344
192	0xbe7428fb	-0.23843758
193	0x3e17f3d6	0.1483911
194	0x3d6e1d0e	0.058133177
195	0xbe816101	-0.2526932
196	0x3d25ed03	0.040509235
197	0xbdd127dd	-0.102126814
198	0x3dd64e61	0.10464168
199	0xbe68cf1f	-0.2273526
200	0x3c4c958e	0.0124868285
201	0x3e19c658	0.15017068
202	0xbeab2050	-0.3342309
203	0x3de77715	0.1130201
204	0x3cebc899	0.028782176
205	0x3da953e5	0.08267955
206	0xbe3a9995	-0.1822265
207	0xbdb1042b	-0.08643373
208	0x3e16c459	0.14723338
209	0x3d79bd71	0.06097168
210	0xbde3d629	-0.11124832
211	0xbd8a8348	-0.06763321
212	0x3d1af19e	0.03782808
213	0x3e4fe8b7	0.20303617
214	0xbe2a0134	-0.16602021
215	0xbe49a4c7	-0.19691764
216	0xbd534ba5	-0.051585812
217	0xbdd3ae29	-0.10335953
218	0x3e866aba	0.262533
219	0xbe7b45aa	-0.24538293
220	0x3e44a5ff	0.19203947
221	0x3e8d4427	0.2759106
222	0xbe20b85b	-0.15695326
223	0x3e940dc1	0.28916743
224	0x3e0743d0	0.13209462
225	0xbdbd28d3	-0.09236302
226	0x3dc95771	0.09831131
227	0xbe1ada68	-0.15122378
228	0x3c864075	0.016388157
229	0x3e2ef8ef	0.17087148
230	0x3e031ccf	0.12803958
231	0xbdf631bc	-0.12021205
232	0xbd9e0689	-0.0771609
233	0xbe91b94e	-0.2846169
234	0xbc84da6a	-0.01621743
235	0xbecd4fd2	-0.4009996
236	0xbb8a7e4a	-0.0042264806
237	0xbe8f1a9e	-0.27949995
238	0xbdd69acb	-0.10478743
239	0x3d805388	0.06265932
240	0xbe8c8f36	-0.2745301
241	0x3b1abf0f	0.0023612415
242	0x3e4102cc	0.18848723
243	0x3d86cd83	0.06582167
244	0x3d8e27ed	0.06941209
245	0x3eb10203	0.34571847
246	0x3ca418eb	0.020031413
247	0x3e62d89f	0.22152947
248	0xbd93fa09	-0.07225425
249	0xbe097b5c	-0.13425964
250	0x3debc2fd	0.115118004
251	0x3d1baedf	0.038008567
252	0x3c6f7dc4	0.014617387
253	0x3cc000a2	0.023437802
254	0xbc4bd325	-0.0124404775
255	0x3d9136b9	0.07090516

graph_embed_generation.mlp.0.bias f4 [32]
0	0x3d0a5e88	0.03378156
1	0xbd5dc4bf	-0.05414271
2	0xbc9e93e0	-0.019357622
3	0xbd7e2a94	-0.062052324
4	0x3dd3b944	0.10338071
5	0xbcd7cd72	-0.026343081
6	0xbddaa8f0	-0.106767535
7	0xbd1c6cd3	-0.03818972
8	0x3c26fe28	0.0101924315
9	0x3d902962	0.07039143
10	0x3df59f5a	0.119932845
11	0xbdb13c38	-0.08654064
12	0xbd8fd664	-0.07023314
13	0x3dc33135	0.0953087
14	0x3d1a52e2	0.0376767
15	0xbd27d783	-0.040977012
16	0x3d32cb0d	0.043650676
17	0x3decab47	0.11556106
18	0x3d7a15f8	0.061056107
19	0xbdcb7b70	-0.09935653
20	0x3d9e093e	0.077166066
21	0xbd62a078	-0.055328816
22	0x3ccceaac	0.025014244
23	0xbdb03ca5	-0.08605317
24	0x3d0d7488	0.03453496
25	0x3dfb022a	0.12256272
26	0x3d681b13	0.056666445
27	0xbd93c572	-0.07215394
28	0xbc4a7c33	-0.012358713
29	0x3a734f7e	0.00092815596
30	0xbd42dbff	-0.047573086
31	0xbd12538a	-0.0357242
