results/checkpoints/smartmap_OH_TOR_DIAG_4x4.pth (torch, 61538 bytes, 26 tensors)

graph_embed_generation.gat_dfg.att_src f4 [1, 4, 32]
00000000: 6b7b 24be 76d2 e43c 4f47 19be ad50 0abd
00000010: e139 7fbe aecc 563d e008 85bd c874 723e
00000020: d801 983d f6eb 6fbd fff9 9e3d 8e7c 61be
00000030: 65ae 653e 20c5 9f3c ab69 5abe 699a 12bc
00000040: 54f9 7dbe ac53 f4bd ad38 c43e 2213 c93d
00000050: 9701 4b3e 8a17 2e3e 4f31 55bd f911 c93d
00000060: c9cb 133e e25a ad3d 13a1 a0bc fb3f b8bd
00000070: 0f6e 5bbe 0594 f4bd aafb 8cbe 2248 9fbd
00000080: ca9f da3d 5b8e 073e ae42 13be 500e 1fbc
00000090: 2827 303e 711b 803e 1b0a 18bd 0712 883e
000000a0: 4471 05bd 0f82 f4bb 7ead 4e3e 49d7 fd3d
000000b0: 5ab6 c8bd e74d 2e3e 6d18 253f b0e7 eabd
000000c0: 72f3 9a3e 5d9b 2e3e 7366 4fbe 601d a33e
000000d0: d014 31be d12e 4e3e f851 ce3e b2b1 27be
000000e0: 83d8 0ebe a48a f2bd d73e 37be f854 7b3c
000000f0: b74d 1d3e ec1a 51be 2f19 523c 10d3 22be
00000100: 8880 553e e771 01bd 7339 043d 0691 013e
00000110: 7a67 80bc 1521 163e 2e69 813e b6f4 32bd
00000120: 0d58 573d 9bc1 3a3d 353c ac3d d9a3 0ebc
00000130: d1c8 89be 35ad 383e 7edd 1b3e 8eeb 7e3d
00000140: 8e52 ad3c 7409 56bb e7ce 163e 5b59 09be
00000150: bee6 c9bc ab5f ecbd acfd 983c 0f2f 8b3d
00000160: 4fda 08be 30c8 9d3d cc60 3c3d a272 41be
00000170: 0f39 34be 262a 23be 0597 6e3e 7e8b 40be
00000180: 067e 143e 9b8e a73e 5a5d 1f3e af42 bfbd
00000190: 91fe 383e 685c dfbd d9ff 90be 5f7b bb3d
000001a0: bf1f c93c d773 f6bd e19b e93d 540e ebbd
000001b0: 9ec2 48bd 2a1f 0ebe 79f9 1b3e bbd0 febd
000001c0: d01e f43d 133a ebbc 950d 043e be63 a03d
000001d0: bd6e 603d bb16 0c3e 4dca a0bd a568 163e
000001e0: a4c3 283d e1f2 253d 302e 233e 20d2 97ba
000001f0: 7406 1e3c 76ec 68be 9206 9d3e 7fa3 f939
-0.16062705 0.027932387 -0.14968608 -0.033768345 -0.24924423 0.05244129 -0.064958334 0.23677361
0.07422227 -0.05857464 0.07762527 -0.2202017 0.22429807 0.019503176 -0.21329372 -0.008947947
-0.24802142 -0.11930022 0.3832449 0.098181024 0.19824825 0.17001167 -0.052048977 0.09817881
0.14433207 0.084646 -0.019608056 -0.08996578 -0.21428703 -0.11942295 -0.27535754 -0.0777743
0.106750086 0.13237898 -0.14380905 -0.009708002 0.17202437 0.25020936 -0.037119012 0.26576254
-0.03257872 -0.0074617933 0.2018337 0.12394578 -0.09800406 0.17021905 0.64490396 -0.11469972
0.3026386 0.17051454 -0.20253925 0.3185835 -0.17293096 0.20135047 0.40296912 -0.16376379
-0.1394978 -0.1184285 -0.17895065 0.015340082 0.15361677 -0.20420426 0.012823387 -0.15900826
0.20849812 -0.031602766 0.03228135 0.12652978 -0.015674341 0.14661057 0.25275558 -0.043690406
0.052574206 0.045594793 0.08409921 -0.0087060565 -0.26911023 0.18034823 0.15221211 0.06223636
0.02115753 -0.0032659443 0.14727364 -0.13412993 -0.02464616 -0.11541685 0.018675648 0.06796085
-0.13364528 0.07704198 0.04599075 -0.18891385 -0.17599891 -0.15934047 0.23299797 -0.18803212
0.14501199 0.32725987 0.15562955 -0.09338891 0.1806586 -0.10906297 -0.28320196 0.091543905
0.02455127 -0.120338134 0.11406685 -0.11477342 -0.049013726 -0.13879076 0.15231885 -0.12442156
0.119199395 -0.028714215 0.12895806 0.07831524 0.05479311 0.13680546 -0.07851086 0.14688356
0.041202202 0.04051483 0.15935588 -0.0011583008 0.009645093 -0.22746453 0.30669075 0.00047614795

graph_embed_generation.gat_dfg.att_dst f4 [1, 4, 32]
00000000: 7320 723d 55e6 1f3e 208e 413c 033f 1e3d
00000010: 9088 47bd 2fb0 3e3e d554 b63d 9acd 58be
00000020: 0d45 523d 35b0 6a3e 8174 1d3d 923e 04be
00000030: e18a 613d c984 e43d 1ef5 7b3d 1f1a 66be
00000040: 54ab 823d 170c 4abd 4f0e e6bc baee e03d
00000050: 34de ff3d b400 8abd 727e 3abd bb94 0e3e
00000060: ba8f e6bd dd69 a1bd 8fd4 3dbe c240 4c3d
00000070: e117 eb3c eb21 b83c 28d5 40bd 522a df3d
00000080: 7ae8 813e dac6 03be 2a2d a5bd 9906 2f3e
00000090: a419 0bbe 7bc5 753e fafe ed3d e704 403e
000000a0: 6f95 d9bb 5f76 1abe 8b12 28bc cc56 0cbe
000000b0: a7d9 11be be1a 323e a203 01bd b524 dbbc
000000c0: 2fcb 4abe 1e64 f0bd 15b8 2bbe b79d aa3c
000000d0: 9d9f b7bd eaba 883e f7a8 0d3e 6663 943d
000000e0: 9583 3fbe b973 653e 5171 69be c61d 0c3d
000000f0: e58c 54be 2904 a63d 2dc7 1b3d 6ad1 3fbe
00000100: 9224 7bbd 82e2 453d 6855 6d3d a7c1 cc3d
00000110: 3d0b 093e 0fd9 29bc 0f9b 7dbc b258 0e3e
00000120: d589 3ebe 975b 24be 4637 5c3d 6c66 b43b
00000130: 8199 bdbc 2069 363e 8824 f0bd 1fd2 5d3e
00000140: 53f2 873e 758d dd3c a280 70be 953f 43be
00000150: 85fa 003e 9e1e 2fbd 737a f33d 9b1e fdbd
00000160: 2d1d 723d 7a22 bb3d 7c6e 5ebd 0c25 78bd
00000170: 1016 933d 2ad3 293e ff75 9fbd 524d 84bd
00000180: 2f57 6d3d defc 5e3d d169 1cbe 6da2 9a3d
00000190: 50bc aabd e8af b83d e7ec a9bd 8849 52be
000001a0: 995e 2fbd 6cfe 9fbd 75b6 ca3c 96ca 35be
000001b0: 6201 643d ec04 c23d c6a1 b5bd 36ec 333e
000001c0: 4fb7 a7bd abd4 7bbe 77a0 033e 08e6 923d
000001d0: 965e 013d 10c2 2d3e 7710 bcbe fda3 073e
000001e0: 0fbd 7e3e 0096 803e 20c0 7b3e 4e2f eabd
000001f0: 3785 013e 0426 cebd 84a0 7abd 8dfd 16bc
0.059112977 0.15615208 0.01181367 0.03863431 -0.04871422 0.18621896 0.08902899 -0.21172181
0.051335383 0.2291878 0.038441185 -0.12914494 0.055064086 0.11158139 0.06151306 -0.22470902
0.063803345 -0.049327936 -0.028082995 0.109830335 0.12493554 -0.06738415 -0.045530744 0.13923924
-0.112578824 -0.0788152 -0.18538116 0.049866445 0.02869791 0.02247711 -0.04707828 0.10896744
0.25372678 -0.12868825 -0.08065255 0.1709236 -0.13584 0.24001114 0.116208985 0.1875187
-0.0066401283 -0.15084217 -0.010258327 -0.13704985 -0.14243184 0.17393014 -0.031497605 -0.026750902
-0.19804071 -0.11737846 -0.1676944 0.020827157 -0.08965991 0.26705104 0.13833986 0.07245521
-0.18702538 0.22407426 -0.22797133 0.03420808 -0.20756872 0.08106262 0.038031746 -0.18732229
-0.061314173 0.048311718 0.057942778 0.09997874 0.13383193 -0.010366692 -0.015478863 0.13901022
-0.18607266 -0.16050564 0.05376365 0.0055053737 -0.023144485 0.1781354 -0.11725718 0.21662186
0.26552066 0.027044991 -0.2348657 -0.19067223 0.12595566 -0.04275381 0.1188859 -0.12359353
0.059109855 0.09137435 -0.054304585 -0.060582206 0.071819425 0.16584459 -0.07786178 -0.0646006
0.057944473 0.05444037 -0.15274741 0.075505115 -0.08336699 0.090179265 -0.08297139 -0.20535862
-0.042814825 -0.07812199 0.024745205 -0.17753062 0.05566538 0.09473595 -0.088687465 0.17570576
-0.0818926 -0.24592845 0.12854181 0.07172781 0.031584345 0.1696856 -0.36731312 0.1324615
0.24876808 0.2511444 0.24585009 -0.11434804 0.12648474 -0.10065845 -0.061188236 -0.009215725

graph_embed_generation.gat_dfg.bias f4 [32]
00000000: 920d 49bd 3895 c33c 0982 9c3c e9d5 cbbc
00000010: a75f 963d 7ec0 17bd 0e01 9dbc f6cc 2abd
00000020: dbcb 64bc 420f bb3d 9a46 7abd 6413 163d
00000030: de1a 30bd ba08 fabc 1675 adbc a3f3 3abd
00000040: b1ea b83c f905 11bd b7f8 7bbc c076 d1bc
00000050: 4038 973d 3f21 993c c0dd 923d b376 febc
00000060: 2407 8e3d 5110 36bd d426 5c3c ed55 8a3c
00000070: 7e40 5d3d 33dc 6a3d 7a7c 443d 5282 453d
-0.049085207 0.023874864 0.019104974 -0.024882274 0.07342463 -0.03704881 -0.019165542 -0.041699372
-0.013964619 0.091337696 -0.061102487 0.036639586 -0.042994373 -0.03052174 -0.021173995 -0.045642506
0.022572847 -0.035406087 -0.015379122 -0.02556932 0.07383776 0.01869261 0.07171202 -0.03106246
0.06934956 -0.044449154 0.013436992 0.016886676 0.054016583 0.057338905 0.047970273 0.048219986

graph_embed_generation.gat_dfg.lin.weight f4 [128, 9]
00000000: 7aee e93c 418f 843e 8feb a7bd b820 d93d
00000010: 168d 1e3d cff1 20be c11b 67be aa4a 8bbb
00000020: 475c 4dbe 9a50 3e3d cf7b b8bd 5c9b b03e
00000030: fcc7 793e 67e2 9abd 9fc3 ddbc 01de 083e
00000040: 5dbe a13d 951d f23a b5ec c6be cc77 0bbd
00000050: 800e 4c3e 8a6b e9bd 27e6 3f3e 6756 2cbe
00000060: 8ae7 0fbe 952f d7bb ee94 cd3d 3539 603e
00000070: e30b 293e cb63 64bd b630 2dbd ba07 1abe
00000080: 48ae 83be bf2d 64bc 40c9 2a3e dd6f 9dbe
00000090: 6055 15bd f6e0 cabd d5b4 983d 9d93 513e
000000a0: 4455 2c3e e35a 43bd 8c45 25be ab88 7d3d
000000b0: db54 53bd 54b9 1b3e 9b2b 0e3e 084e e5bd
000000c0: 2d77 32be e99e 2dbc d0e3 8d3d 6d89 223d
000000d0: b2d8 82be 1887 96be 6771 cc3e 8057 963d
000000e0: b48f 083e f0a6 f1bd 0e35 bfbd add6 e9bd
000000f0: d2d0 dbbd 4fcf 3ebd 51af 263e b538 7a3e
00000100: 8bc3 ce3d bd7d c8bd 6afa 24be c560 a73b
00000110: a825 8a3e 3ffb 1e3d 7efa 1fbd b350 4ebe
00000120: 65e2 013e 5b40 683e 5b39 bcbd 33ff 8fbe
00000130: 6150 adbd 80cc 1e3e 29cf 743e e1b9 9bbd
00000140: 2d3e 3d3e add6 523b ba2e 48be b6c9 47be
00000150: 7358 b7bd 3d3d 673e 5028 10be dc9f 0abe
00000160: a130 b53c cf2d 933e 417b 0e3e 939d 5ebb
00000170: 6304 fc3d 5411 a9be f0e6 b83d 425d 083e
00000180: f4c9 1abe 6ee4 103d 4ffb 3e3e 0166 d6bd
00000190: 997e 5fbe 60eb a3bc ddae 663e 338d c73c
000001a0: ca50 78bd a9f2 28bd 4481 e0bd da4d 8bbd
000001b0: 8e20 923e 8809 273d fa78 09be 337c 29be
000001c0: 6878 78be ac1e 993e 7a78 a6bd 6f1d 52be
000001d0: fcb3 523c 5b2d 8b3c 5a75 ac3c e1b4 69bd
000001e0: 4921 72be 0973 083e 383e 8bbc ce04 9a3e
000001f0: 772f 04be 9dd0 653c 8e2a a23c be34 d4bc
00000200: 8f80 c43c 6f11 153e 691e 883c bb12 ca3d
00000210: 655a 00be 00b7 003d 1d34 8dbd 1536 8c3c
00000220: 5832 6fbc c953 0fbe 0d18 8fbe b947 1a3e
00000230: 2541 6b3d b054 26bd 7964 39bd 4823 14be
00000240: dd88 bebd 197f 62be 7fe9 913d 29dd 623e
00000250: cfba 513d 1563 f53b 5c6c 02be 5192 033e
00000260: c92d 43be 0fd7 453e edaa d33d 0dd4 cf3c
00000270: 37f7 c0bd fd2b 3bbe adad de3d 7a94 083e
00000280: 36d6 5d3e 7111 83bd 5b16 8c3e 48f6 2b3d
00000290: 2d5b c9bb 69e2 efbd d8d3 34bc 4d2a f13b
000002a0: 4512 01be 4652 a4bd adf1 ab3d 3043 7c3d
000002b0: 067c 0cbd f064 8b3c 363e e8bd d4d7 ddbc
000002c0: bf79 10bd d7c2 513d ab60 f6bd c860 283d
000002d0: c6fe 62be 920d 173e 37b4 453d 193f ee3d
000002e0: 511e 093d a455 37bd 106e 953d 30e6 b63d
000002f0: 7326 3d3d 8879 ee3c 8c29 26bc 6e75 d73d
00000300: 5be1 8dbd 06e9 41bd b9ae eebc 052a ad3e
00000310: dba1 b1bd d938 fa3c 539a b7bc dedc d8bd
00000320: 805a 74bd ba8e 6b3e 54ec a23b f80e 113d
00000330: fd09 acbd 2bc8 043d 9686 583e d416 213e
00000340: 2aa2 7f3e 2312 abbd 7f2a 38bd 1ff4 363e
00000350: 1c45 923d e8fe 60bd 08e5 8ebe 7efe 30bd
00000360: 28dc 393e c297 d3bd 1660 4ebe 1adb 67bd
00000370: af9e 8c3d af15 ebbd f00a 8abd 3248 2a3c
00000380: fb8c 77bd a868 083e 9968 853e 0d31 103e
00000390: 16b2 02bc b02c 62be 31c3 233d 8519 f8bd
000003a0: 9cb5 f8bd a887 01be 26f8 9bbd a7ce 8e3d
000003b0: 488a 4bbc 7df4 4f3e a886 1d3e f97d c63d
000003c0: 74b1 d83c c98a 8c3a 1571 103e bebe 99bd
000003d0: 78c2 82be c497 083e a1a2 d23d c050 533e
000003e0: a57d 4dbd c9f6 55bd 4828 0ebd 1ad8 c1bd
000003f0: b430 88bc 4d4d 21be 08e7 6f3d df83 5f3e
0.028556097 0.25890544 -0.08199226 0.10601944 0.03870877 -0.15717243 -0.22569181 -0.004250844
-0.20054732 0.046463586 -0.090079896 0.3449353 0.24392694 -0.07562714 -0.027070818 0.13365938
0.07897637 0.0018471951 -0.38852468 -0.034049794 0.19927406 -0.113974646 0.1874014 -0.16829835
-0.14053169 -0.0065669515 0.10038172 0.21896823 0.1650844 -0.055759232 -0.042282782 -0.1504201
-0.25718904 -0.013926922 0.16678333 -0.30749407 -0.036458373 -0.09906189 0.07456366 0.20466466
0.16829401 -0.0476941 -0.16139811 0.061897915 -0.051594596 0.15207416 0.13883822 -0.11196524
-0.17428274 -0.010596969 0.069282174 0.03968184 -0.2555595 -0.29399943 0.3993027 0.07340908
0.13336068 -0.11799419 -0.09336291 -0.11417899 -0.10733189 -0.046584424 0.16277815 0.24435695
0.100958906 -0.09789608 -0.1611115 0.0051079714 0.26981854 0.038813826 -0.039057247 -0.20147972
0.12684019 0.226808 -0.09190627 -0.2812439 -0.08462597 0.15507698 0.2390715 -0.07603813
0.1848075 0.0032171414 -0.19549075 -0.1951054 -0.08952417 0.22581954 -0.14077878 -0.13537544
0.022117915 0.28745887 0.13914205 -0.0033968433 0.12305524 -0.33021033 0.09028423 0.13316825
-0.15116102 0.035374098 0.18650554 -0.104686745 -0.21825637 -0.020009696 0.22527643 0.024359321
-0.06062392 -0.041247044 -0.109621555 -0.068019584 0.28540462 0.040780574 -0.13425055 -0.16551284
-0.24264681 0.29906213 -0.08128448 -0.2051904 0.012860294 0.0169894 0.021052051 -0.057057265
-0.2364551 0.13325132 -0.016997442 0.3008179 -0.12908731 0.014026788 0.019795682 -0.025904056
0.023987083 0.14557432 0.016616063 0.09866854 -0.12534483 0.031424522 -0.068947054 0.017115632
-0.014599405 -0.13996805 -0.27948037 0.15066423 0.057435174 -0.040608108 -0.045261834 -0.14466584
-0.09303448 -0.22118796 0.07124614 0.22154678 0.051203545 0.007488618 -0.12736648 0.12848784
-0.19060434 0.1932032 0.10335336 0.025369668 -0.094221525 -0.18278499 0.1087297 0.1333789
0.21663746 -0.06399811 0.27360806 0.04198292 -0.006144902 -0.11713106 -0.011036836 0.007359779
-0.12604626 -0.08023505 0.08395705 0.061587512 -0.034297965 0.017015904 -0.11339991 -0.027080454
-0.035272356 0.051211204 -0.12030157 0.041107923 -0.22167501 0.1475127 0.04826757 0.11633129
0.033476178 -0.044759408 0.072963834 0.089306235 0.046179246 0.029110685 -0.0101417415 0.10520445
-0.06927749 -0.04734137 -0.029136049 0.3382112 -0.086734496 0.030544685 -0.022412455 -0.10589002
-0.05965662 0.23003665 0.00497202 0.035414666 -0.084003426 0.032417458 0.2114509 0.15731364
0.24964204 -0.08353069 -0.044962402 0.17866562 0.07142088 -0.054930598 -0.27909112 -0.043211453
0.18150389 -0.1033168 -0.20153841 -0.056605436 0.06866204 -0.11478745 -0.067403674 0.010393189
-0.060437184 0.13321173 0.26056364 0.14081211 -0.007977029 -0.2208736 0.03998107 -0.121142425
-0.12144014 -0.12649405 -0.0761569 0.069730096 -0.012423106 0.20308109 0.15383399 0.09691996
0.026451804 0.0010722514 0.14105637 -0.07507084 -0.25538993 0.13339144 0.10284925 0.20636272
-0.050168652 -0.052237306 -0.034706384 -0.09465046 -0.016624786 -0.15752144 0.058569938 0.21827649

graph_embed_generation.gat_cgra.att_src f4 [1, 4, 32]
00000000: 0100 be3d 0940 3abe f608 d33d 9359 ce3c
00000010: bceb 71be cf11 593d 0c00 af3d ee70 47bb
00000020: 3ad2 843d c80d debd ff1d 7d3e 9b67 fabb
00000030: cd39 b43e ef0d 993d b8c4 06be 6cba 47bd
00000040: 0e58 01be 4d2d 183b 7727 0fbe cc13 2b3e
00000050: 8891 aebd 401b 073e d388 b0bc 748b b13d
00000060: 198a e63d f575 87bd 8964 d13b 0e1e f53d
00000070: fd64 efbc e299 e53d c986 47bd 4009 e43d
00000080: 1028 03be 344f 9fbe 7c67 28be d159 413e
00000090: b250 e43c 04bf 073e 2433 ddbd cb7c 093e
000000a0: 1a87 39bd 4cf5 153e 65e5 90bd 21dc 783d
000000b0: ba39 dcbd 7918 243e 14d6 b33d 88ab c43d
000000c0: 7df4 b6bc 49ef c8bd 3c96 083e 5c4e 6a3e
000000d0: 7c3f c23d 9c53 24be 718d 39be d794 0bbe
000000e0: b4c4 adbe 81d1 273d 019c 5d3d 67d6 2c3d
000000f0: 95d0 b9bb 4412 07be 9e6b 333e 1bd0 dcbd
00000100: 9638 c33c 02ea f3bc 6892 2cbe a519 bdbd
00000110: a949 31be f086 86be 3b3c 66bd ff20 143e
00000120: 77d8 8f3d 38e4 f03d d733 253e 8e6b 34bd
00000130: c736 183d e7b4 8d3d 4f69 4b3d c3d4 523d
00000140: 2e85 723e d383 143e f211 b7b8 d7b6 d6bc
00000150: a8fe ef3d 8a3b bebd a0ab 97bd efff efbb
00000160: af02 273e c0d9 65bd c469 8bbd 9f30 663e
00000170: df84 95bd bca1 a03d 73da c9bd 3b91 48be
00000180: 35c4 713d fec8 1abd 580e 42be 2953 81bd
00000190: fe30 82be 9573 10bd 3eb9 853d 2e2b 4ebd
000001a0: 09f7 9bbe 070a 443c 5aef 853d c7c9 4cbe
000001b0: 79ea 583d 510a 45be 6613 0c3e 361a f0bb
000001c0: 3970 9b3d b8b8 55be 17e0 243e e248 94bd
000001d0: 34e0 a1bc e007 f03c ecaa edbc a218 853c
000001e0: b235 f53d 0ecc 65bc a3fc 6e3c 63dc 9a3d
000001f0: 53ae 7abe e3fa 4dbe 61bd 823d 973e 38be
0.092773445 -0.1818849 0.103044435 0.025189197 -0.23625082 0.0529955 0.08544931 -0.0030432302
0.0648541 -0.10842472 0.24718474 -0.0076417453 0.35200348 0.07473361 -0.1316098 -0.04876177
-0.12631246 0.002322036 -0.13979898 0.1670677 -0.08523852 0.13193989 -0.021549618 0.08669177
0.11256809 -0.066142954 0.0063901586 0.11968623 -0.02922296 0.112109914 -0.048712526 0.11134577
-0.12808251 -0.31115115 -0.16445726 0.18881918 0.02787051 0.1325646 -0.1080077 0.13426511
-0.04529486 0.14644355 -0.070750035 0.060756806 -0.10753198 0.1602496 0.087810665 0.096030295
-0.022333378 -0.09811265 0.1333856 0.22881454 0.09484765 -0.1604752 -0.18120362 -0.13630997
-0.33939135 0.040971283 0.054103855 0.042196658 -0.005670617 -0.13190562 0.17521521 -0.107818805
0.023830693 -0.02977467 -0.16852725 -0.09233407 -0.17313255 -0.26274824 -0.056209784 0.14465712
0.07023709 0.11762279 0.16133057 -0.044047885 0.037161615 0.0691927 0.049660977 0.051472437
0.23683617 0.14503412 -8.7294626e-05 -0.026210232 0.11718494 -0.092887 -0.07405782 -0.007324211
0.16309617 -0.056115866 -0.068072826 0.22479485 -0.07300734 0.078433484 -0.09856119 -0.19586651
0.05902501 -0.037789337 -0.18950784 -0.0631469 -0.25428003 -0.035266478 0.06529473 -0.050334148
-0.3046191 0.011965281 0.06539793 -0.19998847 0.052957986 -0.19242217 0.13679275 -0.0073273433
0.07589764 -0.20871246 0.16101108 -0.07240464 -0.019760229 0.02930063 -0.029012166 0.016247097
0.11973132 -0.014025701 0.0145866005 0.07561567 -0.24480562 -0.20115237 0.063837774 -0.17992626

graph_embed_generation.gat_cgra.att_dst f4 [1, 4, 32]
00000000: 4e7a f0bd 7b76 87be 053d d03c 362d 43bc
00000010: 4238 233e cd86 c8bc a408 65be e7e3 b33c
00000020: cd51 61be ab46 fbbd 9f9c c63d 1df1 88bd
00000030: cac8 d13e f483 a5bd 0980 1d3e b89e 96bd
00000040: 708b bebc bae1 55be b0f7 c03d 1387 423d
00000050: 8ecc 2bbe 0ac1 ffbc 3ea3 96be 391a 3a3d
00000060: 524f a1bc f518 fc3d efc6 88bc 6427 b4bd
00000070: 37eb 7d3e cf6c 87bd 4178 bcbd c016 a23d
00000080: ce42 14be 1184 8dbc 3919 a43b b221 40bd
00000090: 0b70 90bb e3a4 1bbc 6c05 fbbd 4b16 3f3e
000000a0: e816 80bd 109e c0bd cacc f03c 3d69 683d
000000b0: fe89 23be 98f6 493e 5475 2a3c d71c da3d
000000c0: e850 573c ae36 91be 822e d8bd 6b67 063e
000000d0: 1a95 84bd bf88 ad3c 7fc8 4fbe 2ab0 38bd
000000e0: d444 4ebd 16bc d9bd bfd7 603d 88e4 053e
000000f0: 2236 1a3e 3742 283e cddd 31bd e1db d73c
00000100: f81b 1dbe ac35 2fbb 2d39 1b3c 22f9 673b
00000110: cf81 0d3e 0bd2 063c 9afd ebbc 2c2d 713e
00000120: 3093 973d 37e9 203e bebd 77bd 972d d4bc
00000130: 1750 953c 64d7 1d3e 02e5 bfbd 0b3c a33c
00000140: d672 b1bd 29e0 5fbe fcbc 6cbc dcb5 85bd
00000150: f516 c63a 8aeb 31be 203c 923d 39ea c63d
00000160: c019 b0bc f013 6b3e c3f7 c63d cacc 30be
00000170: 76be 023e 27ea 0bbe 0f47 1fbe e73d 86bd
00000180: aa6b 973b f2d7 38bd 3e1c 903e a8ee 3abd
00000190: b168 06be 802b 1fbe 4e57 43bc cd27 e8bd
000001a0: 7977 19be e71c 6c3d efbd 453a 1be9 e93c
000001b0: 4453 493e ea9c d1bd 2397 323e aa1a ea3d
000001c0: e4d7 83bd aee7 5dbe 505f 0abe d4d7 abbd
000001d0: 9221 493e 8174 0a3c 640e 423e dd5f 773d
000001e0: 4221 a33c ac27 0fbe 57c2 fabc 885f e9bd
000001f0: b473 debd b566 9c3d 09d4 75bd 92cb d23c
-0.11742078 -0.2645758 0.025419721 -0.011912635 0.1593943 -0.02447834 -0.22366577 0.021959258
-0.22003861 -0.12269338 0.09697842 -0.06686614 0.40973502 -0.08081809 0.15380873 -0.07354492
-0.023259848 -0.20886889 0.09422243 0.047492098 -0.1677725 -0.031219978 -0.2942142 0.045435164
-0.019691143 0.12309448 -0.016696421 -0.08796576 0.24796759 -0.066125505 -0.09202624 0.079144955
-0.14478609 -0.017274888 0.0050078896 -0.046907134 -0.004407888 -0.009499761 -0.122568935 0.18660848
-0.06254369 -0.09405148 0.029394526 0.056740988 -0.15970609 0.19722974 0.01040395 0.10650032
0.013141848 -0.2836203 -0.10555746 0.13125388 -0.06473751 0.02118337 -0.20291327 -0.04508988
-0.05035861 -0.10631578 0.05489325 0.13075459 0.15059713 0.16431509 -0.043424416 0.026349964
-0.153427 -0.0026734872 0.009474081 0.0035396297 0.1381905 0.008228789 -0.02880745 0.23552388
0.07401121 0.15713964 -0.060483687 -0.025900645 0.018226666 0.15414196 -0.09369852 0.019926092
-0.08664481 -0.21862854 -0.014449354 -0.065288275 0.0015113043 -0.17375007 0.07140374 0.09712643
-0.021496654 0.22956824 0.097152255 -0.17265621 0.12767968 -0.13663541 -0.1555445 -0.06554776
0.004620989 -0.045127816 0.28146547 -0.045637757 -0.13125874 -0.15543938 -0.0119226705 -0.113357164
-0.14986981 0.05764475 0.0007543256 0.028553536 0.1966067 -0.10235007 0.17440467 0.11430867
-0.06437662 -0.2167041 -0.13512921 -0.08390775 0.19641712 0.008450628 0.18950802 0.060394157
0.01991332 -0.13979977 -0.030610247 -0.11395174 -0.10861912 0.07636777 -0.060016666 0.025731836

graph_embed_generation.gat_cgra.bias f4 [32]
00000000: 5cee 9dbc 8911 8a3c 41e9 253d 110f 223d
00000010: 473c b939 3347 a53c 9390 05bc 769d 1a3c
00000020: 554e 30bd 9bd3 19bc d037 6e3d b28e 8bbc
00000030: c350 663c c582 51bd d684 d23c fc56 983c
00000040: 985e 2ebd b5bf 60bd 805e 913d efd2 b2bc
00000050: 7ee7 21bc b5bc 4d3c 902e 3f3c 4d57 8a3c
00000060: 2fcb 833d ab06 f93c 8b5f 05bd c8a1 7cbc
00000070: ce69 e43c 450c 6c3c 25cb 91bc 32d9 2e3c
-0.019278698 0.016854065 0.04050565 0.03956515 0.0003533086 0.020175552 -0.008152145 0.009436956
-0.043043453 -0.00938883 0.058158696 -0.017035816 0.014057341 -0.051150102 0.025698107 0.018596165
-0.04257068 -0.054870326 0.070981026 -0.021829097 -0.009881852 0.012557198 0.011668816 0.016887331
0.064352386 0.030398687 -0.03256182 -0.015419431 0.027882483 0.014407222 -0.017797062 0.010671901

graph_embed_generation.gat_cgra.lin.weight f4 [128, 7]
00000000: 2160 833d 26ca dc3d 4c42 193d 8941 033d
00000010: 1546 14bd cdba 283e 06d1 a33c 6b19 b9bc
00000020: 8211 58be 1a7a b33d 7250 f5bd f233 3c3e
00000030: 7e39 53be fdf3 f5bd fd78 8c3d 6b4d cd3d
00000040: 772e d2bc bb40 1fbd 94c5 bd3c f2ce d9bc
00000050: a2b2 1abd 0f2b d8bd 9084 cbbd e296 0bbd
00000060: 2c60 bbbd b626 203e f301 5c3e 9607 ec3c
00000070: 253d 553d 1705 e6bd c149 9abd 6af1 58be
00000080: 8ffd 89bd a4ed 76be e643 44be 208f 843e
00000090: f307 b9bc b3c4 49bc 0e23 d6bc 575c 5fbd
000000a0: a9ed 8c3c c464 28be 1ca2 2f3e 46f9 613d
000000b0: bd70 d23c 1d59 c7bd 660f 893e 6b21 dc3e
000000c0: 4d10 24be 5b2e 893d 84f5 bfbd 6e57 1c3e
000000d0: 6c58 07bb 5a3d 573e d4b1 b43d e0cb 753c
000000e0: df55 413e 9d73 b6bd 9a41 5dbc a673 d4bd
000000f0: fe6b 673d 5366 e6bd bab4 953c 881f a8bb
00000100: 2f57 aa3d 6e33 103e ff14 183d 9e4a b4bd
00000110: d173 5bbd 6dc7 02be 2e60 903d 3a39 4cbd
00000120: 8d68 30bd c850 813e 96d0 ed3b 1d2d 653b
00000130: 2019 a83c 59c1 59be 7159 2ebc 1891 7d3d
00000140: f865 a9bd 4152 91bc 1bf2 d4bd ce1f 623e
00000150: ab18 5f3e 7d34 bf3d 8896 00be c4bd 3ebb
00000160: 607a a83c 8b79 1bbd b9d1 b53c 661c 08be
00000170: 8990 493d 6d99 3a3e e468 9abe a9e6 57be
00000180: 6ef4 323e 3908 7b3e 0604 183e 5f92 55bc
00000190: b0fc 583e 2160 2ebe 2a40 e43d aa9b ccbd
000001a0: 69d6 87be f8d2 a7bd c25b 61be dfd5 6ebe
000001b0: 9d40 fc3c 0afa dbbd e84c c4ba 9180 97bd
000001c0: 6ab6 18be 85e0 59bc c7fa c4bd 0f2d 2e3d
000001d0: 9311 06be 4523 143e fad4 533d 5659 0fbb
000001e0: a0a7 96bd 5802 c0bd 7f19 37bd 5efb a8be
000001f0: fac0 553d aacf ad3e d0ef 41be 1454 f33d
00000200: 69b0 9e3d 3385 9bbd e2bd 75bd a9e4 b23d
00000210: ff40 43be b6e1 de3c 83d4 48be 3c59 54bc
00000220: a118 eb3c 9ba7 d3bd 6fbc a83c 53bd 333e
00000230: 029b 493d a92a 99bd 16f0 57be 63a7 013e
00000240: db63 f4bd 8a77 6bbc ff70 38be 7840 a23e
00000250: 0faf a13e a5b3 1bbe 8ff7 21be 4a91 993d
00000260: 3d9a 9e3d fb83 dabb c51a 8ebd 7ea9 acbd
00000270: d773 dabc 933a 5abe 5626 42be c918 c73c
00000280: aefc 07be a95a fa3c e3e8 673e 08a7 173e
00000290: df59 9dbd 14de 943e f07f b9bd c777 a0bd
000002a0: dfbc 6cbc d93b 163e e764 243e b0d4 0b3c
000002b0: f125 8d3d a04e 443d 340b b7bd 6c37 74bd
000002c0: b781 e6bc baab cbbc 6db0 863d d41f 2c3d
000002d0: 4391 1f3e ee2a d7bd 1535 003e 25bd 9d3d
000002e0: f825 acbd 9e0e 803d 31f6 463d bb8c 2ebe
000002f0: 0d3f 0abe 83bb 68bd 3449 0b3b e7b6 983b
00000300: 8add f63d 36fb 9ebc 406f 09be 19ad 843d
00000310: 9331 15bd 4ac0 733d 15f9 593d b484 803e
00000320: 3021 613e 6a0e 893d e2b7 babd 6fc6 1abd
00000330: 7488 f5bc f1ce 9d3d 83a3 d8bc 96f5 ee3d
00000340: 9164 48be 6d42 2ebe 6319 b73d 6f41 b2bd
00000350: 761e acbd 472e 5abd d1f0 d2bd e854 42be
00000360: a917 2b3e c822 10be 4551 4fbe 1035 bbbd
00000370: cecc b6bd 32c8 ddbc da3d ea3d 2f9a 95be
00000380: f0cb 443e 4477 98bd ebca 883d b7ce ef3a
00000390: 2cab 1e3d 5203 c93c 7ee3 2f3e 03ce 74bd
000003a0: 843e 403e 4bb2 e63d 7369 ca3d cce2 fbbc
000003b0: 4c1c ccbc 925e 62be 6405 1e3e a30c 023e
000003c0: d3fc 6ebc ff07 d73d 1851 7fbc 7a12 343e
000003d0: 7516 5abe e407 243e dd12 d7bd fc2c 04be
000003e0: 8c68 ea3d 0cdb a1bc 8cf0 28bd ff5f e43d
000003f0: 1634 ff3b 6c89 24be 64ce fb3d 5681 2f3d
0.064148195 0.10780744 0.03741674 0.03204492 -0.036199648 0.16477509 0.019997131 -0.022595128
-0.21100429 0.087635234 -0.11978234 0.1837919 -0.206274 -0.12009428 0.06859014 0.10024532
-0.025656922 -0.03888009 0.023165502 -0.026587937 -0.037768014 -0.10555088 -0.09937394 -0.03407944
-0.09149203 0.15639767 0.21485119 0.028812211 0.052060265 -0.112314396 -0.07533599 -0.21185842
-0.067378156 -0.2411409 -0.19166526 0.25890446 -0.022586798 -0.012314963 -0.026139762 -0.05453142
0.017203169 -0.16444689 0.17151684 0.055169366 0.025688523 -0.09733794 0.2676956 0.42994246
-0.16021843 0.06698295 -0.09373 0.15267727 -0.0020652069 0.21019498 0.088229805 0.015002221
0.18880413 -0.0890877 -0.01350441 -0.10373621 0.056499474 -0.112499855 0.018274654 -0.005130712
0.0831741 0.14082119 0.0371294 -0.088032946 -0.053577248 -0.12771387 0.07049595 -0.049859263
-0.043068457 0.25256944 0.0072575314 0.0034969517 0.020519793 -0.21265163 -0.010641442 0.06190595
-0.08271402 -0.017739417 -0.103977405 0.22082445 0.21786754 0.09336183 -0.12557423 -0.0029104808
0.020566165 -0.03795771 0.02219473 -0.13292083 0.049210105 0.1822259 -0.3015815 -0.21084084
0.17476055 0.24514855 0.14845285 -0.013035386 0.21190143 -0.17028858 0.11145051 -0.09990628
-0.2653077 -0.08194536 -0.22007659 -0.23323773 0.030792529 -0.107410505 -0.0014976533 -0.07397569
-0.14913335 -0.0132981585 -0.096181445 0.04252344 -0.13092642 0.1446658 0.051716782 -0.0021873317
-0.07356191 -0.09375447 -0.04470205 -0.33004278 0.05218599 0.33947498 -0.18939137 0.11881271
0.07748491 -0.07593765 -0.05999554 0.0873502 -0.19067763 0.027207237 -0.19612317 -0.012960728
0.028698267 -0.103347026 0.020597665 0.1755269 0.049220093 -0.0747884 -0.2108768 0.12661509
-0.119331084 -0.014371762 -0.18011855 0.3168981 0.31578872 -0.15205248 -0.15817092 0.07498415
0.07744262 -0.0066685653 -0.069387 -0.084307656 -0.026666565 -0.21311407 -0.18959936 0.02430381
-0.13279983 0.030560808 0.22647433 0.14809811 -0.07683157 0.29075682 -0.09057605 -0.07835346
-0.014449327 0.14671268 0.16054116 0.008534595 0.068920024 0.047926545 -0.08937684 -0.059623167
-0.028138025 -0.024862159 0.06576619 0.04202254 0.15582757 -0.10506235 0.12520249 0.07702092
-0.084056795 0.06252788 0.04857463 -0.17045872 -0.13500614 -0.05681945 0.002125335 0.0046604755
0.12053974 -0.019406896 -0.13421345 0.06478328 -0.03642423 0.059509553 0.05321606 0.25101244
0.21985316 0.066922024 -0.09117104 -0.037786897 -0.029972292 0.077054866 -0.026445156 0.116679356
-0.19569613 -0.17017527 0.08940389 -0.08703887 -0.084042475 -0.05326679 -0.10299838 -0.18977702
0.16708244 -0.14075768 -0.20245846 -0.0914098 -0.08925782 -0.027073 0.114375785 -0.29219195
0.19218421 -0.07444623 0.066793285 0.0018295859 0.03873746 0.024537716 0.17176625 -0.05976678
0.18773848 0.112644754 0.09883394 -0.030747794 -0.024915837 -0.22106388 0.15431744 0.12700133
-0.014586645 0.10499572 -0.015583299 0.17585173 -0.21297629 0.16018635 -0.10501645 -0.12907785
0.11445722 -0.01975777 -0.04124503 0.11151122 0.0077881915 -0.16068047 0.12295225 0.042847954

graph_embed_generation.fc_metadata.weight f4 [32, 9]
00000000: 9fcb 0ebd e05f 913d 556c 9dbc aafb 41be
00000010: 88a8 3f3e ac36 a6be e419 82be 6617 cbbd
00000020: bc8f b2be 4027 c13c d00f 62be 5b35 673d
00000030: de1b 893e 06c9 11be 6342 fe3e 6527 e9be
00000040: 5558 aa3d 0035 c23d 6092 edbe a167 943e
00000050: fe8b e73d 0915 1c3e e241 0d3e ad95 efbe
00000060: 970b a7be c6f6 d4be 9768 b33e 6482 a83d
00000070: 7c22 5dbe 99d6 9ebe ddd7 a73d 8d8f 63be
00000080: ccc0 883e 679e 083e a5a8 d3be bf78 8c3d
00000090: cf9c 7bbe 2f6a cc3d 2675 01be 9c7d 28be
000000a0: b5f0 7f3e 1c45 6a3e 865d 373e 66ca 20bd
000000b0: a0dc ca3d 1372 b13e 66f0 113f 0e08 6d3e
000000c0: 89ca afbe b8b4 39bf 7440 0b3e b299 8c3d
000000d0: 91c2 933d 1c20 94be 00ca c7bc 541e 773d
000000e0: 2855 a03e 1ffa 84be cc4b 73be 2b46 da3d
000000f0: c55a 53bd b0fc 7cbd 8099 383e 1a90 80be
00000100: 53f1 8d3e 76b9 3dbe 2162 8c3b 0673 fb3c
00000110: 4149 f2be a1ae 87be 2535 bf3d 9c0c 9abe
00000120: 373b 25be a0e9 67bc eb86 303e 613b abbe
00000130: 9a85 f23d 0579 073e d5e6 563e f650 1b3e
00000140: 4fcf b9bd 7ed1 79be c043 2b3e 4fd5 a3bd
00000150: 7064 0cbe 986e 923d 4e63 183d fc92 ac3e
00000160: 9c68 18bf bad9 ebbe 3c62 183d 68e9 9bbd
00000170: 49b4 873e 76e5 acbd e5c0 e33e 28b1 dcbd
00000180: 138e ce3d db23 843e 5188 5cbe 3bf0 b8be
00000190: 12e2 b33d f370 a1be c8ab e23e 6715 40bd
000001a0: bb8f 723e 79c8 253d e46b 6dbe 70c9 b03d
000001b0: bfd9 353f 776d 553e 9912 cfbe 5155 0ebe
000001c0: 3a44 2a3f 4b1c d13d a616 32be 21ae 2ebd
000001d0: d11a 4b3e 3f29 ea3b a69d b9be 2f6b b7be
000001e0: 7cb4 d3be 95a3 90be 0492 d3be bacb ba3d
000001f0: c92b c2bd 086d 29bd f93e 50be 0d39 fe3d
00000200: b6a1 fcbe 1eff d6bc 89db ddbd 44e3 4b3e
00000210: 0486 7f3b 941d b53e b99c 0e3e 362d 6b3d
00000220: 9f5c 243e dd32 f33d cd1c 92ba 15b6 643e
00000230: f99c 3e3d e563 cb3e 67f9 2abe 549b f23e
00000240: ac4f 8dbe e984 963e 6912 edbc 0ca9 b53e
00000250: a240 643d a937 903e cd3e 5cbd 013c a83d
00000260: fa8a e0be d387 ae3e 877f 0c3e 46de 083f
00000270: fe03 f2bc cec5 aebe 249c 0cbe 427e 133e
00000280: d2f4 98be bf78 603e c333 d13d c00a 10be
00000290: 6c40 223c 5ae6 cdbc 3634 abbd aef9 9c3e
000002a0: 77ef 0cbf 4bab a5be dc64 40be e9a9 9dbe
000002b0: 9bcb 8d3d 818b f03d d780 abbd 0c4e 2a3e
000002c0: ab25 403e 81d2 d33d b3eb 833e e592 1a3e
000002d0: 2b96 583d 3a33 133f 515c dcbe 782a 46be
000002e0: 2552 4f3d 4d3c 3dbe c9f2 c6be fff4 2cbe
000002f0: b11a 0b3e 3abd aa3d 80b1 e3be 10e1 2bbe
00000300: f5e3 003d d45e 98bc ce53 a6be b97e 783d
00000310: 1791 cb3e b732 7fbd 8d1a d7bd a201 6e3c
00000320: 4520 ea3e 057f 593e d56f b43d 7036 8fbd
00000330: 89fb 00be c10b a73d f540 a5bd 5824 153e
00000340: 03a2 28bd 33c5 2f3d 767e 01bd 849b f93d
00000350: 3072 923e b56c 0a3f c540 fa3d d151 843c
00000360: 7f06 17bd 86bc 3dbd 9fd1 a03e 1a8e 01bf
00000370: bbea af3d baa6 783e 4b97 b3be 3459 b2bb
00000380: 08cb 8a3e 7899 4fbe 6c83 bf3e 392e ff3d
00000390: 7f4a 30be 9d52 6b3e 6d21 9e3c 7a35 8d3d
000003a0: cf17 c93d dbcf 41be 33ae a0bc 9288 f63c
000003b0: 3d54 773e 0b3d 383e acee 373e 6fe5 36be
000003c0: 30d7 35be adc6 4a3d 33bb f93d 95e7 ea3c
000003d0: 0334 83bd ce5a 40be 31d7 d03d c3e9 0f3e
000003e0: f0cc 953e 7e8e 9e3d d381 42be 64dd 11be
000003f0: 9a9e 0c3e f817 543d 6134 693e 0188 5b3e
-0.034862157 0.07098365 -0.019216696 -0.18943658 0.18716633 -0.32463586 -0.25410378 -0.09916572
-0.34875286 0.023578286 -0.22076344 0.056447368 0.26779073 -0.1423684 0.49660024 -0.45537868
0.08317629 0.09482765 -0.46400738 0.28985313 0.11305998 0.152424 0.13794664 -0.4679388
-0.3262603 -0.41594523 0.35040733 0.08227995 -0.21595186 -0.310231 0.081954695 -0.22222729
0.26709592 0.13341676 -0.41339603 0.06858968 -0.24571536 0.099811904 -0.12642345 -0.16454166
0.24994166 0.22877926 0.1790677 -0.039255522 0.09905362 0.34657344 0.57007444 0.23147604
-0.3433421 -0.7254138 0.13598806 0.068652526 0.07214845 -0.28930748 -0.024388313 0.060331658
0.3131497 -0.25972077 -0.23759383 0.10657915 -0.051600236 -0.06176442 0.18027306 -0.2510994
0.27723178 -0.18527779 0.004284159 0.030694496 -0.47321513 -0.2650042 0.093363084 -0.30087745
-0.1613587 -0.014154822 0.17238967 -0.3344374 0.11841889 0.13229759 0.20986493 0.15167603
-0.09072744 -0.24396321 0.16725063 -0.0799967 -0.13710189 0.0715 0.03720408 0.3370589
-0.5953462 -0.4606455 0.03720306 -0.07612878 0.26504734 -0.08442204 0.44483104 -0.107759774
0.10085692 0.25808606 -0.21536376 -0.3612078 0.08783354 -0.31531486 0.44271684 -0.04689541
0.23687641 0.04047439 -0.23185688 0.08632171 0.7103538 0.20842539 -0.40443876 -0.13899733
0.66510355 0.102104746 -0.17391452 -0.04264653 0.19834448 0.00714603 -0.3625309 -0.35823962
-0.41348636 -0.28249803 -0.4132234 0.09120889 -0.094810076 -0.041363746 -0.20336522 0.12413225
-0.49342126 -0.026244696 -0.10832889 0.19910914 0.0038989792 0.3537413 0.13926972 0.057416163
0.16050957 0.11874936 -0.0011147499 0.22335084 0.04653642 0.3972465 -0.16696702 0.4738413
-0.27599847 0.29398277 -0.028939443 0.35480535 0.0557257 0.28167465 -0.05377083 0.0821457
-0.4385603 0.34088 0.13720523 0.5346416 -0.02954292 -0.34135288 -0.13731438 0.14403632
-0.29874283 0.21921061 0.10214951 -0.14066601 0.009903055 -0.025134254 -0.08359568 0.3065924
-0.55052894 -0.3235725 -0.18788475 -0.30793694 0.069236 0.11745358 -0.083741836 0.16631335
0.18764369 0.10342885 0.25765762 0.15095098 0.052877586 0.5750004 -0.43039182 -0.19352138
0.05061545 -0.18480034 -0.38857105 -0.16890334 0.135844 0.08336873 -0.4447136 -0.16785073
0.031467397 -0.018599905 -0.32485813 0.060667727 0.39759132 -0.062304225 -0.10503111 0.0145267565
0.45727745 0.2123986 0.08810393 -0.06992805 -0.12595953 0.08156539 -0.0806903 0.14564645
-0.04117013 0.042912673 -0.031614743 0.121878654 0.28602743 0.54072124 0.12219385 0.016152294
-0.03687143 -0.046322368 0.31409928 -0.50607455 0.08589693 0.24282351 -0.35076365 -0.0054427627
0.27108026 -0.20273387 0.37404954 0.12459988 -0.17215918 0.22980733 0.019303048 0.068949655
0.09818994 -0.18926947 -0.019614315 0.030094419 0.24153228 0.17992036 0.1796214 -0.1786096
-0.17757869 0.04950588 0.121939085 0.02867488 -0.06406405 -0.18784639 0.101972945 0.14054017
0.29257917 0.07742022 -0.18994837 -0.1424461 0.13732377 0.05178067 0.22773887 0.214386

graph_embed_generation.fc_metadata.bias f4 [32]
00000000: e5df 633d eb95 99bd ef17 44be 8ca8 0fbe
00000010: c23e 94be 7b7e 5f3c d981 f23d fc6f ac3d
00000020: 5e22 243e c147 c33d abf5 2b3e 4321 b93e
00000030: 0e93 49bd 7447 e2bd f9b7 a43e 82d6 1c3e
00000040: 9e99 17bd 83ba 9abe d9ac b43d da95 61be
00000050: a555 8d3e a989 fdbd bb1e 333e 8761 d83d
00000060: c65b 04be e8eb 38be a4e4 cdbd 44e3 e53d
00000070: c43a d13d fd8c 8bbe bba5 10be 9a8c 6e3e
0.055633444 -0.07499298 -0.19149755 -0.1402914 -0.2895413 0.013640995 0.11841173 0.08419797
0.16028735 0.0953517 0.16792934 0.3615819 -0.049212508 -0.11048785 0.3217161 0.15316203
-0.037011735 -0.30220422 0.088220306 -0.2202982 0.27604404 -0.12379772 0.17492191 0.10565477
-0.12925634 -0.18058741 -0.10053375 0.11224988 0.10216287 -0.27256003 -0.14125721 0.23295823

graph_embed_generation.mlp.0.weight f4 [32, 96]
00000000: 3c6b d13d 876d 44be 535a 80be 3fbe f9bc
00000010: 2b9f 7fbe 216b 8abc 2927 6abd 5010 873d
00000020: bd4b 783d da20 e5be ccf9 60bd 042c 26bd
00000030: a006 ba3d 64e9 943e 3a57 f2bc f729 8e3d
00000040: 3239 a4bb c6db bb3b da0c ec3c 5098 cabd
00000050: 7a3f c83e 3223 23bd 7990 a1bc 815c ad3e
00000060: 85aa ab3d b139 863d 5a9f 363e 0a5f e43d
00000070: e757 a4bb 33ba 68bd 0d70 17be 6873 67bd
00000080: 8cb4 c5bb 51ee a8bd 98d3 953c 46a0 1fbe
00000090: 12fe 94bd 47d7 3bbe f1eb 65bd 9310 79bc
000000a0: e755 063e bc01 53be a703 babc 4f0f 1e3d
000000b0: e388 6b3d e7ff 453e bf0a e1bd 3768 63bd
000000c0: 12f1 733c cb17 4a3e f9e6 3cbe ce5c 893d
000000d0: e974 d9bd 9196 03be ed29 8a3d dcf8 ccbd
000000e0: 87c2 b8be e7eb d1be 5edd 533e 7f75 4b3e
000000f0: 0972 b1be 3506 a8bd effb 193e 68dc b5bc
00000100: 9b2f 3c3c c9a2 703e be3c aebd 3ebf 083e
00000110: c1b1 a43d 7c8e a8bc 9bbf 7b3e fdc7 09be
00000120: ebaf cc3c cec7 93be b2fc c3bd e915 ce3d
00000130: d36b 11be 79a9 bf3b 7101 f9bd b03a 9abd
00000140: ee25 7fbe a056 8abd d312 b5bd 8ee1 9f3d
00000150: 8de7 763d 4e3e c43e 7437 62bd 3ba1 4a3e
00000160: 0d5a 2ebd 817d 013e 09c0 cfbc 1f74 babd
00000170: 7786 b83d 3d88 edbd 62c3 26be 4a73 393e
00000180: 8afa 91bd 4dd2 743e f0c4 223e ff22 66be
00000190: cf24 263e cbcc 993c b1eb fbbd 249e 96be
000001a0: 267a 5abe 65a5 993d b41c df3d 2c5b 1abd
000001b0: a5dd cebd f400 d63d 4eeb b4bd 2c34 d3bd
000001c0: ea8a 55bd eb4f b2be 89b3 95be 4952 4c3e
000001d0: 93b2 583e 6e2b 003e 4de7 0bbd 002e 2dbe
000001e0: 3e58 333e fa8b 8abe a663 e33d c810 943e
000001f0: e3aa 0abd 62b2 8a3d c0e0 7cbd cf10 f53d
00000200: c426 32bd 60e1 713e f0ff 3cbc 4754 1d3d
00000210: 16e2 4b3e f5b4 e03d 0338 93bd 8a9c 2fbe
00000220: 390e 6bbc 6e97 efbd be83 98bd 18ea 7d3d
00000230: 17ef 6abe 3b94 0dbd d242 0ebe be9e e1bd
00000240: ff26 21bd 4ba3 2dbe cd94 ba3d 19c5 9cbe
00000250: e3c5 993e 1697 00be 3e69 01be 8636 4f3e
00000260: 2f15 a8bd 0742 d03d 3056 313e 21b2 86bd
00000270: 7906 563e a536 93be d3c7 b9bd 9cdf 073d
00000280: a5cf 65be 2b3f 08be 5673 dbbd 841d 8cbe
00000290: 0ca6 a2bd 65fc e1bd 18b1 87bd b9d8 96bd
000002a0: 8974 513e 5a16 743e f4d0 473e 2d49 c43c
000002b0: 2cf3 b5bd 24fb e93c 1268 16be 7060 39be
000002c0: 4083 07be 1c22 d63d 5ad0 6abd 0342 493d
000002d0: 47a5 c0bd d86d fc3d 332b 52be 4d8f 943d
000002e0: 8d40 5e3d 343b a33d 0a19 2ebe ef29 863e
000002f0: 3a92 073e 6517 0f3e 2aa7 ec3d 1ba9 853d
00000300: 3880 38be 19b0 b83d ad56 90bb 25f6 4bbe
00000310: 0dc7 113e e516 44bd 56dc 293e 9ff4 20be
00000320: 6f4c a23d 4e6f 843d 24b2 89be 738f bc3c
00000330: 1228 12bd db75 1f3e 022f b7bd b44c 01bc
00000340: 0c8a ab3d 2f1e d03d d51d 63bd 4411 23bd
00000350: 05b3 cabc c3bc 173e 4a2e 6ebe a11f fcbd
00000360: b76d 04be f428 25bd 46bb 723e 603c 9abe
00000370: 33af 033e 7f90 613e 9933 82bd 02eb 653e
00000380: 9348 e13d 2059 cfbd a206 633d 31d6 1cbe
00000390: e07e b03d ce0e 053e d641 113e 1056 0cbe
000003a0: 6c59 01be 9bad 9abe d6cd 0ebe ebf3 b8be
000003b0: b9e0 2abd c54c 7dbe 6f7b bbbd d9ea af3d
000003c0: 836a 66be 874f 8e3d ce14 233e 0fe6 4e3d
000003d0: 8a87 2c3e 2516 9d3e 3eb9 263d f073 133e
000003e0: f2c5 b5bd 9610 53be f267 d83d 4c33 8a3d
000003f0: 02b1 26bc 84e7 3c3d e64d c1bc 0a1e bf3d
0.102255315 -0.19182406 -0.25068912 -0.030486224 -0.24963062 -0.016896786 -0.057166252 0.06594908
0.060619105 -0.44751626 -0.054925725 -0.04056932 0.09083295 0.29084313 -0.029582608 0.06941598
-0.005011701 0.005732986 0.028814722 -0.098923326 0.3911093 -0.039828487 -0.01972221 0.33859637
0.083821334 0.065539725 0.17834225 0.1115094 -0.0050153616 -0.0568182 -0.14788838 -0.056506544
-0.0060334858 -0.0824858 0.018289372 -0.15588483 -0.072750226 -0.1834384 -0.056133214 -0.0152017055
0.13118707 -0.2060613 -0.02270682 0.03858882 0.057503592 0.193359 -0.10988378 -0.05551931
0.014889019 0.19735639 -0.18447484 0.06707154 -0.10618002 -0.12850405 0.06746278 -0.10008404
-0.36085913 -0.41000292 0.20689914 0.1986904 -0.34657314 -0.08204309 0.15037511 -0.022199824
0.011485959 0.23499598 -0.085076794 0.13354203 0.08041716 -0.020575754 0.2458481 -0.13455196
0.024986228 -0.28863376 -0.09569682 0.10062773 -0.14201288 0.00584906 -0.12158478 -0.07530725
-0.24916813 -0.06754804 -0.08841481 0.07806693 0.060279418 0.38328785 -0.055228665 0.19788067
-0.042566348 0.12645532 -0.025360124 -0.091041796 0.09010022 -0.11598251 -0.1628547 0.18110386
-0.07127865 0.23908348 0.15895438 -0.22474287 0.16224979 0.01877441 -0.12300814 -0.29417527
-0.21335658 0.0750225 0.108941466 -0.037684605 -0.10100869 0.104494005 -0.08833943 -0.10312685
-0.052134432 -0.34826598 -0.29238537 0.19953264 0.2116187 0.12516567 -0.034156132 -0.16912079
0.1751413 -0.2705992 0.11102991 0.28919053 -0.033854377 0.06772305 -0.061737776 0.119660966
-0.043494 0.2362113 -0.01153563 0.03841045 0.19910464 0.10972015 -0.07188418 -0.17149559
-0.014346653 -0.11698805 -0.07447003 0.061990827 -0.22942768 -0.03456519 -0.13892677 -0.11016606
-0.03934383 -0.16956823 0.09110413 -0.30619124 0.30033788 -0.12557635 -0.12637803 0.20235643
-0.082071654 0.10168844 0.17318034 -0.06576944 0.20900907 -0.28752628 -0.090713166 0.033172235
-0.22442491 -0.13305347 -0.10715358 -0.2736627 -0.07941827 -0.110344686 -0.06625575 -0.07365555
0.20454611 0.23836651 0.19513303 0.023960674 -0.08884272 0.028562136 -0.14688137 -0.18103194
-0.13233662 0.104557246 -0.057327606 0.04913522 -0.09406524 0.123256385 -0.20524292 0.07253895
0.05426078 0.079702765 -0.17001739 0.26203868 0.13239375 0.13973768 0.115553215 0.06526395
-0.18017662 0.09017963 -0.004404864 -0.19918115 0.14236088 -0.047873396 0.16587958 -0.15718316
0.07924735 0.06466542 -0.26893723 0.02301762 -0.035682745 0.15572302 -0.08944513 -0.007891823
0.0837594 0.10162007 -0.055448372 -0.039811388 -0.024743566 0.148181 -0.23259845 -0.1231072
-0.12932478 -0.04032226 0.23704252 -0.30124187 0.12859802 0.22027777 -0.06357498 0.2245293
0.110001706 -0.10124421 0.055426247 -0.15316083 0.086179495 0.12993929 0.1418527 -0.13704705
-0.12631768 -0.30210575 -0.13945708 -0.36123595 -0.04171822 -0.24736317 -0.091544025 0.085897155
-0.22501568 0.069487624 0.15925905 0.05051237 0.16848579 0.30680957 0.040704004 0.14399695
-0.08875646 -0.20611796 0.10566701 0.06748065 -0.010174038 0.046119228 -0.023596715 0.09331901

graph_embed_generation.mlp.0.bias f4 [32]
00000000: e488 533d 253b 5ebd d547 5abd 4159 96bd
00000010: 011d ce3d bba6 0ebd c451 89bd 8b10 23bd
00000020: d6e6 3f3c 4d4e 923d d43b f53d 620b aebd
00000030: 031f 93bd 6c1c dd3d 9c47 d43d df87 efbc
00000040: efaf 2d3c a129 df3d 38f1 61ba 73e3 9bbd
00000050: cfae 923d 0608 93bd a244 cf3c 22af a6bd
00000060: ce99 b33c 2422 053e 4722 5e3d 04ea 85bd
00000070: ad39 7ebc 641b 7b3c 3922 92bc 4444 07bd
0.05164422 -0.054255623 -0.05329116 -0.073412426 0.10064126 -0.034826975 -0.06705049 -0.0398107
0.01171275 0.07143841 0.11974302 -0.08498265 -0.071836494 0.10796437 0.10365221 -0.029239593
0.010601028 0.10896612 -0.0008619013 -0.07611742 0.07162248 -0.07179265 0.025301281 -0.08138873
0.021923926 0.13001305 0.05423191 -0.065387756 -0.015516681 0.015326355 -0.017838584 -0.033024088

graph_embed_generation.mlp.1.weight f4 [32, 32]
00000000: a71a 903e 623b 693e 1942 df3e 7f11 313e
00000010: 694e 6abe 0cfd 253d 1b0c d3be 53b2 cebe
00000020: 6e9f 34be d569 813e c01e d3be d743 523e
00000030: 3ea9 34be 7353 803e 6fe3 6f3e 575c 5a3e
00000040: 7a94 74bd 86c1 96be bd0e a7be 65ed 5a3e
00000050: 714c 4e3e 7637 413d c81e 32be 6938 ab3e
00000060: 0126 d1be de3a b7be 1a37 f43c 4b00 3dbe
00000070: 015c 05be eb6c 263d 040d 9dbc 2d8a 993e
00000080: 181f 493e 7ade c3bd 6997 90be 9000 c8be
00000090: 62e6 b8bc 4bb9 ab3e 7b52 a93e e5b3 61be
000000a0: 1b63 273e 783d ae3e 83f9 c3bd 887c c2bd
000000b0: c929 03bf 158e 403e b32a 6a3e 9183 4dbe
000000c0: 902d 6f3e d305 d2bd cb18 d0bc 1b19 19bc
000000d0: 5dbc a4be 0c8b d7be 35d3 afbe c168 ccbe
000000e0: 3fc4 8fbd 1cbf 373d 901f 293d 7829 503d
000000f0: df47 99bc 3653 113e 0ffe 923d 9ff0 b93e
00000100: 301b 6fbe b730 01be 729b e1bd 9603 193e
00000110: a71e 45be 3e89 cb3c dda0 ff3d ac9b fcbd
00000120: 318d 8a3e 4c4c e7bd 90bb b53e 7a6e 0abe
00000130: 6eeb 19bd 1fab 073f 190b 913e 2300 5f3e
00000140: 9074 c9be 3aef 0a3c 5eef a239 1d49 ab3b
00000150: 0429 a43e f19c c83c 3c55 8dbe 61d2 3b3d
00000160: 39ee 0bbe 2b3b 9cbe b413 b9be 6165 0b3f
00000170: 2e52 8fbe cc3a d5be b859 af3e 95de 1f3d
00000180: 874f 693e 056b e1be 4b29 23be 5240 05be
00000190: d449 8ebd a0a2 0a3e 0f36 49be 4a4a 093e
000001a0: 63ac ccbe 2000 bb3d 6ea2 05bf 5f99 183f
000001b0: 6ac1 213e bfaf a7bd 323a 403c 9110 27bd
000001c0: ba4b c03c 8b35 913e b31e 013e 5b48 08be
000001d0: 5a30 3fbe ccbd 573e 605d 4fbe 44e1 313e
000001e0: fcf7 213e 4f61 adbe 0779 aebe 2f57 353e
000001f0: 05db 8e3e 241c 8abe 0b79 ee3e a331 0d3e
00000200: 71b9 a13d 2ff2 893e 7fa7 d53c 01bb 11be
00000210: 70bd 033f 1370 80bd 9316 813e 535b 98be
00000220: bb37 2ebe f0cb a1bd be91 96bd ee00 15bf
00000230: 31ec b6be 052a 7fbe 0846 9ebe c44f 933e
00000240: f4e5 533e 2fd3 193f 228d 70be f250 34be
00000250: 4a01 17bc 0053 a43d 48cb 16be 3b85 393e
00000260: 7df6 9abe dd12 b5bd 0b7a 82be 788a 63be
00000270: 86c9 683d b680 41be d86c 363e a7d1 f0bc
00000280: 3761 be3d 8f5d 1a3e 679d e13e 4e10 e43c
00000290: e763 093e 0a27 84be cb86 1b3d 25f2 393e
000002a0: f9b4 26bd bc69 2bbe 5e50 203e 471a 583e
000002b0: 538c 5bbd 1524 b23d 4dbf c53c d666 2dbe
000002c0: a164 0e3f 6544 933d 24c7 033e df3f 883d
000002d0: 0323 893d 56b5 46bf b001 98be c112 853e
000002e0: 705e 46bd 54ae 7f3e f7f1 f13d 2459 dc3d
000002f0: 34b8 15be d578 1fbe dc47 d23e 981a c4be
00000300: 4d64 06bb 9020 343d c9bb 593e 0feb 97bc
00000310: 32e4 46be e6f8 2abd 1126 163e c21c f53a
00000320: 4e52 f43d ec57 18be a9d7 20bd bcb1 d83d
00000330: 6745 54bd b027 543e 435e d43d a244 b2be
00000340: 1d0d a23e 4f8f 053d 9edf 2dbe 7db0 09bf
00000350: 9c7d 203e 6722 433e 56c1 f63e 72fc ba3d
00000360: a931 19bf cda5 023f b12b 33be b32c 2e3e
00000370: d9e5 ab3e c0de eebd 9425 dc3c 876c b53e
00000380: c1b0 2f3e 56eb ba3e 3de4 9dbc 19ff 333f
00000390: 7704 203e feb0 9f3d 1bb4 11bd 5344 25be
000003a0: eeab 5dbe 4845 c13d 5be7 0ebe a57a bcbe
000003b0: b6d2 4e3e 7ede 213d b32b 41bd c26a 473c
000003c0: daac 32bc 36fd f7bc 4e3f 8bbe 53a4 32be
000003d0: 7139 09bf 6fcd 0fbe b3ec bc3c 4940 d23c
000003e0: 5a0b 333e 62cb 1c3e dcfe 113e 6f18 2e3f
000003f0: dd9f 683e 151b 833d 0678 f53d 394a 9e3d
0.28145334 0.22776559 0.43605116 0.1729183 -0.22881474 0.040524527 -0.41220173 -0.40370426
-0.17638943 0.25276056 -0.41234398 0.20533691 -0.17642686 0.25063667 0.23426603 0.21324287
-0.05971191 -0.29444522 -0.32628432 0.21379621 0.20146348 0.047172032 -0.17394555 0.33441475
-0.40849307 -0.357871 0.02981143 -0.18457143 -0.13023378 0.040631216 -0.019171245 0.29988232
0.19640768 -0.095639184 -0.28240517 -0.3906293 -0.022570793 0.33539805 0.3307074 -0.2204128
0.163464 0.34031272 -0.09569075 -0.09496409 -0.51235634 0.188042 0.22867851 -0.2006972
0.23357224 -0.10255017 -0.025402447 -0.0093443645 -0.3217496 -0.42098272 -0.34340826 -0.3992367
-0.07019853 0.04485999 0.041289866 0.050820798 -0.018711029 0.14191899 0.07177364 0.36316392
-0.23350215 -0.1261624 -0.11015977 0.14942774 -0.19249974 0.024845716 0.12481854 -0.123343796
0.27060845 -0.11293849 0.3549466 -0.13518706 -0.03757804 0.52995485 0.2832878 0.21777396
-0.39346743 0.008479888 0.0003107739 0.0052272216 0.32062542 0.024488898 -0.2760409 0.04585493
-0.13665093 -0.30513892 -0.36147845 0.54451567 -0.27992386 -0.4164642 0.34248137 0.03903063
0.22784244 -0.44026962 -0.15933721 -0.13012818 -0.06947675 0.13538599 -0.19649528 0.13407245
-0.3997527 0.09130883 -0.52200973 0.59609026 0.15796438 -0.08187818 0.011732625 -0.040787283
0.02347361 0.28361163 0.12609367 -0.13308851 -0.18670788 0.21068496 -0.20250463 0.17371088
0.15817255 -0.33863303 -0.34076712 0.17709039 0.27901474 -0.26974595 0.46576723 0.13788466
0.07896698 0.26942584 0.026080845 -0.14231493 0.51460934 -0.062713765 0.25212535 -0.29757175
-0.17013447 -0.07900226 -0.07352017 -0.58204544 -0.35727075 -0.24918373 -0.30912805 0.28771794
0.20693189 0.60087866 -0.23491338 -0.17609003 -0.009216616 0.080236435 -0.14725983 0.1811723
-0.3026618 -0.088414885 -0.25483736 -0.2222079 0.056832813 -0.18896756 0.17814958 -0.029396845
0.09295886 0.15074752 0.440654 0.027839806 0.13417016 -0.25811034 0.037970345 0.18158777
-0.040699933 -0.16739553 0.15655658 0.21103774 -0.05360062 0.08698288 0.02413907 -0.1693376
0.556223 0.071907796 0.12868935 0.066528074 0.06696131 -0.77620447 -0.29688787 0.2599087
-0.048429906 0.24968845 0.11813729 0.1075919 -0.14621049 -0.15573438 0.4107045 -0.3830154
-0.0020506561 0.043976367 0.2126304 -0.018544702 -0.19422987 -0.041741274 0.14662959 0.0018700587
0.11929761 -0.1487729 -0.03926817 0.10580775 -0.051824 0.20718265 0.103695415 -0.34817988
0.3165063 0.032607373 -0.16979834 -0.53784925 0.15672916 0.19056092 0.4819438 0.09130181
-0.598414 0.5103424 -0.17497136 0.17009239 0.33573797 -0.1166358 0.026873387 0.35434362
0.1715727 0.36507672 -0.019273872 0.70311123 0.15626703 0.077974305 -0.035572153 -0.16139345
-0.21647617 0.094370425 -0.13955443 -0.3681232 0.20197567 0.039518826 -0.047160815 0.012171449
-0.010905469 -0.030272108 -0.27196735 -0.17445497 -0.53603274 -0.1404321 0.023062086 0.02566542
0.17484799 0.1531196 0.14257377 0.6800603 0.22717233 0.0640165 0.11985783 0.077290006

graph_embed_generation.mlp.1.bias f4 [32]
00000000: 10f0 e93d e425 09be 41ab 273e 5144 1abe
00000010: 31bf bb3d 478e 23be ae3e 083e 895e 37bd
00000020: e983 a1bd fe5f 4abe a058 a13d f1d1 353d
00000030: 5eea 533e 392e 4fbc 6799 013e 33c5 43be
00000040: 64b6 8f3d 565a 34be e8e0 c63c 02ce 523d
00000050: e073 20be 86e6 5f3d 7c6b 27be ba9b dabc
00000060: ad9c 61bc 68d5 67bd 4b9f 083e 8212 34be
00000070: d306 2d3d 33e3 01be 0151 94bc 4ad0 a8bd
0.114227414 -0.1339336 0.16373922 -0.15065123 0.09167326 -0.15972243 0.1330516 -0.04476789
-0.07886488 -0.1976318 0.07878232 0.04438967 0.20694873 -0.012645298 0.12656175 -0.19118194
0.0701721 -0.17612585 0.024277166 0.051465996 -0.15669203 0.054663204 -0.16349596 -0.026685584
-0.013770265 -0.056600004 0.13342015 -0.17585185 0.042242836 -0.12684326 -0.018105032 -0.08242853
