results/checkpoints/smartmap_MESH_8x8.pth (torch, 61250 bytes, 26 tensors)

graph_embed_generation.gat_dfg.att_src f4 [1, 4, 32]
000000 18 3e 25 be 37 7c 07 3e 86 bb 0f be 97 18 38 bd
       -0.16136968 0.13230978 -0.14036378 -0.044945326
000010 4b 4d b4 bd af c1 8b 3d ce 58 2b be a7 51 85 3e
       -0.08803805 0.068240516 -0.16733095 0.26038858
000020 aa 14 00 be 67 d2 e4 bd b3 27 2b bd 23 9c c0 bd
       -0.12507883 -0.111729436 -0.041785907 -0.09404781
000030 c6 a4 37 3e fe f7 0d be f1 02 17 bd 16 a3 29 3d
       0.1793395 -0.13864133 -0.03686804 0.041415296
000040 92 ac 81 bd 5d 95 3c be 7c 20 9a 3e 29 6c 7d 3c
       -0.06331743 -0.18416353 0.3010291 0.015467682
000050 0f 4e 6a 3e 19 31 27 3e b0 f2 9a bd 52 42 a6 3d
       0.2288134 0.16327323 -0.0756582 0.08118118
000060 e9 54 32 3e 51 ed 6a 3d b4 93 ec bd 9e a9 61 3d
       0.17415203 0.05735523 -0.1155161 0.0550934
000070 7a e0 44 be 6e b0 94 bd 62 de 9d be ab 3f 3c 3d
       -0.19226256 -0.07260214 -0.30833727 0.045959156
000080 e1 e0 50 be 7a 9b 0f 3d 0f b2 1f be 29 b0 12 3c
       -0.20398284 0.035060383 -0.15595268 0.008953133
000090 0d db 2c 3e 87 b1 44 3e 33 4f 28 3d b6 01 ae 3e
       0.16880436 0.19208346 0.041091155 0.3398568
0000a0 b7 c7 22 bd f7 4d d3 bd 81 d1 7d 3d de 58 29 3e
       -0.039741244 -0.10317605 0.061967377 0.16537806
0000b0 06 bc b6 bd 8c ca 71 3d 5c 42 a8 3e 80 74 79 bd
       -0.089225814 0.059031054 0.32863128 -0.06090212
0000c0 6a 45 24 3e 3a 08 bb 3d f4 b6 b5 bd c7 5d ad 3e
       0.16042104 0.091324285 -0.08872786 0.3386061
0000d0 ae 96 eb bd a1 52 5e 3c b0 e1 50 3e 18 b4 81 be
       -0.11503349 0.013569505 0.20398593 -0.25332713
0000e0 89 c0 58 be 82 b7 ac bd 97 e9 0a bf e0 6f 49 3d
       -0.21167196 -0.08433439 -0.5426268 0.049178958
0000f0 18 ca a5 3d 00 75 8b be 12 9e 45 3e 0b 6c bc bd
       0.08095187 -0.272377 0.1929858 -0.09200295
000100 3d e4 ba 3d 8b 5c b1 bd 5c ae 0a 3e f4 4d af 3d
       0.09125564 -0.08660229 0.13543075 0.0855979
000110 97 87 c9 bd 03 e0 9b 3d 86 59 c5 3d 16 77 9c be
       -0.09840315 0.07611086 0.09636216 -0.30559605
000120 17 7a 2b 3c e4 62 8e bc 3b b8 87 bd 39 70 cd 3d
       0.01046612 -0.01738114 -0.06626936 0.100311704
000130 a7 3b 88 be 3e cf 0e 3e d3 46 5e 3d db 72 99 bd
       -0.2660801 0.13946244 0.054266762 -0.0749261
000140 18 3d de 3d 6d b9 af 3d ab d2 cb 3d 78 1a 61 be
       0.108514965 0.08580289 0.09952291 -0.21982753
000150 a7 da d3 3d d9 09 e5 bd 4a fb dd 3d 3b ed f1 3d
       0.10344439 -0.11183519 0.10838945 0.11812826
000160 b2 76 ae bd 5c 00 87 ba dc 95 45 3e 0d fe 0a be
       -0.08518733 -0.001029979 0.19295448 -0.13573475
000170 43 fd 78 bd 5e 92 0a be 63 c7 23 3e 21 25 c4 bd
       -0.060788404 -0.13532397 0.15994029 -0.09577394
000180 f2 ea cb 3d 7c 94 5d 3e 3a 7f 0f 3d 09 c3 dc bc
       0.09956922 0.21638674 0.035033442 -0.026948469
000190 c6 51 46 3e 05 9d 08 3d e9 ac 57 be 2b 98 b4 3c
       0.19367132 0.03335287 -0.21062054 0.022045216
0001a0 ba bd b6 bc 09 0f 80 be 6f 5e c7 3d 8d b3 95 bd
       -0.022307266 -0.2501147 0.09734809 -0.07309637
0001b0 62 ab fc bd ab a7 f5 bd 8d 11 1b 3e 8f 24 55 bd
       -0.12337376 -0.11994871 0.15143414 -0.052036818
0001c0 ca 42 bf bd 2a 09 80 bc 75 d5 67 3e 20 7d e5 bc
       -0.09338911 -0.01562937 0.22640021 -0.028013766
0001d0 65 fa 21 bd 28 83 dc 3d e8 aa c4 bd 8e 29 e3 3d
       -0.039545435 0.107672036 -0.0960291 0.1109191
0001e0 8f 7a 27 bd 90 07 2b 3e 44 d8 b7 3d 5b 52 7e bd
       -0.040888365 0.16702104 0.08976796 -0.06209026
0001f0 c9 aa 02 3e 39 37 1a be c0 82 c6 3e 34 e2 c6 bd
       0.12760462 -0.15060128 0.3877163 -0.097111136

graph_embed_generation.gat_dfg.att_dst f4 [1, 4, 32]
000000 54 a8 13 3d dc b8 4f 3e 2c 41 95 bd 40 ba a1 3d
       0.036049202 0.20285362 -0.07287821 0.078968525
000010 a0 46 a1 bd dd 6f 0e 3e e3 be 24 3e 58 d5 5b be
       -0.07874799 0.1390986 0.16088443 -0.21468103
000020 23 23 c4 3d c2 11 86 3e b4 33 b5 3d 5e e8 43 be
       0.09577014 0.26185423 0.08847752 -0.1913161
000030 82 43 eb 3d 15 95 08 3e 2d 19 53 3d 00 89 98 be
       0.114874855 0.1333812 0.05153768 -0.29792023
000040 aa 92 24 3d 9c 6e 3d 3b 65 de 3e 3d f6 f3 0e 3e
       0.040178932 0.002890504 0.04659881 0.13960251
000050 4a e8 92 3c 05 95 9a bd 89 77 22 bc 0a b2 2f 3e
       0.01793303 -0.075479545 -0.009916195 0.1715776
000060 bc 20 86 bd de 64 03 be 44 1c 13 be c5 35 40 bc
       -0.06549212 -0.12831447 -0.14366251 -0.01173157
000070 0d 8e 00 3d 56 26 ae 3d c0 2b 8b 3b 16 c2 cd 3d
       0.03138547 0.08503406 0.0042471588 0.100467846
000080 48 00 c9 3d 96 08 d9 bd 16 19 92 3c 41 e2 64 3d
       0.09814507 -0.10597341 0.017834228 0.055879835
000090 e9 33 32 be d8 6d 33 3e 2a b0 98 3d f7 f8 81 3d
       -0.17402615 0.17522371 0.07455476 0.063463144
0000a0 5f f3 ca bd 69 4c 17 be ee 75 c0 3d 1d d4 46 be
       -0.099097006 -0.14775242 0.09397493 -0.19416852
0000b0 30 80 12 be cf 96 cf 3d ec 35 54 3d de 56 8c bc
       -0.14306712 0.10136186 0.051809236 -0.017131265
0000c0 d1 5d 83 be 3a 23 72 3c e9 af 57 be dd 47 bf 3d
       -0.25657514 0.0147789065 -0.21063198 0.09339879
0000d0 a8 24 d8 3d c6 b5 07 3e 42 69 03 3e c0 bc 60 3d
       0.105538666 0.13252935 0.12833121 0.054867506
0000e0 e4 f5 27 be c3 9a fc 3d 5e 06 4c be 97 76 9d 3d
       -0.16402394 0.12334206 -0.19924304 0.07688635
0000f0 c0 4c 42 be 97 de c9 3d 8c d6 44 3e 99 f2 c6 bd
       -0.1897459 0.09856909 0.19222468 -0.097142406
000100 12 76 1c bd 96 7f a8 3d ee d5 a4 bd 60 15 d6 3d
       -0.038198538 0.0822746 -0.08048616 0.10453296
000110 05 e3 c2 3d 47 ee a7 3d e8 c1 36 bd 0b aa f9 3d
       0.09515957 0.08199745 -0.044618517 0.12190636
000120 28 97 03 be 8e 7d 22 be 4c d5 95 3d 42 47 25 bd
       -0.1285063 -0.15868208 0.07316074 -0.04035116
000130 f5 0b 31 bc ae 7b 2b 3e 67 f6 73 bd bb a7 c1 3d
       -0.010806073 0.16746399 -0.05956116 0.0945582
000140 6c b8 6a 3e 6e 71 4e 3e 5d 72 41 be 38 b2 a0 be
       0.22921914 0.20160457 -0.18891282 -0.3138597
000150 a3 bc 02 3e 1b ae c8 bd 44 50 aa 3d 16 ae 1e 3d
       0.12767272 -0.09798833 0.08316091 0.03874024
000160 f8 9b c6 3c a0 b0 32 3e 40 ee 24 bd 69 5f 85 bd
       0.024244294 0.1745019 -0.040266275 -0.06512339
000170 43 50 61 3d de 78 de 3d a1 f8 03 3d 0d 8c a8 bd
       0.055008184 0.10862897 0.032219533 -0.082298376
000180 f3 3c 95 3d fe 58 ce bc 33 72 2b be ef f3 21 3e
       0.07287016 -0.02518892 -0.16742782 0.1581571
000190 80 8b e1 bc fb 3a 40 3d f9 c7 51 bc 04 6f 39 be
       -0.02753234 0.04693125 -0.012804025 -0.18108755
0001a0 ef 53 75 bd d9 cc 03 be 3c ef 9e bc 42 5d 98 bd
       -0.0598945 -0.12871112 -0.019401185 -0.074396625
0001b0 8c 52 bc 3d c4 7d d2 3d 1d 70 24 be 12 26 42 3e
       0.09195432 0.10277894 -0.16058393 0.18959835
0001c0 c6 15 c0 bd 45 13 9b be 89 ea db 3d 15 3f b4 bb
       -0.09379153 -0.3028814 0.107380934 -0.005500684
0001d0 19 bb 8a 3d 65 98 69 3e 66 dd 9b be 9d 78 2a 3e
       0.06773967 0.2281204 -0.3044235 0.16647573
0001e0 47 f1 39 3e a8 c3 4f 3e c1 31 3d 3e ec 3f 1d bd
       0.18158446 0.2028948 0.18476011 -0.03839104
0001f0 a8 84 0b 3e 18 0b f4 bc 65 8f 1d bd 73 cb ed 3b
       0.13624823 -0.029790446 -0.03846683 0.007256919

graph_embed_generation.gat_dfg.bias f4 [32]
000000 ce f0 9b bd d6 db f3 3c 32 0e 00 3d e9 f8 45 bd
       -0.07614289 0.029767912 0.031263538 -0.048333082
000010 47 42 8d bd ac 26 3c bd 92 b3 19 bd 6f a5 1d 3b
       -0.06897407 -0.045935318 -0.037524767 0.0024054905
000020 2f 99 6e bd 59 7f 32 3d 42 7c 96 bd 6e 66 6e 3d
       -0.058251556 0.04357848 -0.07347919 0.058203153
000030 d9 94 90 3c 4e c8 f2 bc 05 5b 40 bd 26 95 a9 bd
       0.017649101 -0.029636528 -0.046961803 -0.08280401
000040 00 0b 91 3c 1f 7d 12 bd c5 47 08 bd 30 fe 99 3c
       0.01770544 -0.035763856 -0.03327157 0.018797964
000050 8a 74 35 3d 05 50 19 3d 15 42 b0 3d 03 5d 3d bd
       0.044300593 0.03742983 0.08606354 -0.04623128
000060 ba 54 c5 3d 86 bb 10 bd 96 bd 44 bd 5c 43 e9 3c
       0.09635301 -0.035335086 -0.048032366 0.028474502
000070 20 fe 81 3d a6 b2 ba 3d da c2 90 bd 27 5f 15 3d
       0.063472986 0.09116106 -0.07068415 0.036467697

graph_embed_generation.gat_dfg.lin.weight f4 [128, 9]
000000 a2 35 2b bd c7 b5 94 3e b2 e0 25 bc f7 6c 2f 3e
       -0.041799195 0.29044935 -0.010124372 0.1713141
000010 a9 17 76 3d 63 d8 20 be 4a f7 66 be c7 c6 75 bd
       0.060081158 -0.15707545 -0.22555271 -0.060004022
000020 05 72 02 be 81 a7 53 3d 7b 56 3f be 8d 83 9c 3e
       -0.12738807 0.051673416 -0.18685333 0.30569115
000030 fc 60 34 3e a7 1f 85 bd b8 a0 dd bc 6f c8 08 3e
       0.17615122 -0.06500178 -0.027054176 0.1335771
000040 8b bf 21 3e 06 71 62 bc b1 c0 c2 be b4 fb b0 bd
       0.15795724 -0.013820892 -0.38037637 -0.086417586
000050 d3 3d 63 3e 6e eb 85 be 00 d2 4b 3e 44 3b 2c be
       0.22191553 -0.2615618 0.19904327 -0.16819483
000060 ca d0 0f be e1 3e e0 3d e4 74 d3 3d 05 83 60 3e
       -0.1404449 0.10949493 0.103250295 0.2192498
000070 78 f4 7f 3e 9f d5 33 bd 55 8c 7d 3d c6 55 26 be
       0.24995601 -0.043904897 0.06190141 -0.16243657
000080 68 99 83 be a1 09 64 bc 49 30 86 3d 5c d1 93 be
       -0.25702977 -0.013918311 0.065521784 -0.28870666
000090 f6 8c 70 3d eb a8 92 3d f3 f3 2c 3e 72 14 5d 3c
       0.05872818 0.07161125 0.16889934 0.013493644
0000a0 fb ba b0 3d ec 3b 43 bd 5e 2b 25 be 49 4f ff bd
       0.08629414 -0.047664568 -0.16129825 -0.12466294
0000b0 95 c8 d0 bd 7c e6 20 3e 80 1f 5b 3e e0 08 f6 bd
       -0.10194508 0.15712923 0.21398735 -0.120134115
0000c0 b5 88 36 bd f9 07 27 bc 6a cd 8d 3d ba 6f 22 3d
       -0.044563968 -0.010194772 0.06923945 0.039657332
0000d0 ff f1 b6 be 4f 6f 86 be 06 3d ca 3e 99 03 17 3e
       -0.35731503 -0.26256797 0.39499682 0.14747466
0000e0 a5 27 31 3e da 5c 1d bc 2f 4e b1 bd ae b1 e9 bd
       0.1730028 -0.009604657 -0.086574905 -0.11410843
0000f0 0f ae db bd 54 36 e6 bd e0 7c 4f 3e 59 b4 0c 3e
       -0.107265584 -0.11240831 0.2026248 0.13740672
000100 be 4a f7 3b cc 02 83 be 3d af 87 bd b6 fc cf bd
       0.0075467518 -0.2558807 -0.06625221 -0.10155623
000110 c6 0f 8a 3e 3c e2 1e 3d be fc 6e be 0c 3e 82 be
       0.2696516 0.038789973 -0.23338601 -0.25437963
000120 99 73 df 3d d5 34 94 3e 4c 18 e5 bc 6b 95 41 be
       0.109107204 0.28946558 -0.027965687 -0.18904655
000130 17 59 e5 bd 8e b3 1e 3e 57 a8 74 3e 54 03 26 be
       -0.11198633 0.15498182 0.23892342 -0.16212207
000140 83 d7 51 3e 4f 64 41 bd 30 0e a9 be b9 58 0c be
       0.20492367 -0.047214802 -0.33018637 -0.1370572
000150 bf 8b 9a be 2e a0 44 3e 8d 11 10 be 57 8a 0a be
       -0.30184743 0.19201729 -0.14069195 -0.13529335
000160 0e 3f da 3d 08 26 7a 3e f4 83 ed 3d e3 f3 3b 3d
       0.10656558 0.2442857 0.11597434 0.045886885
000170 83 8f 1f 3e 5f ec 2d be b5 a2 b5 3d b0 47 08 3e
       0.15582089 -0.169847 0.088689245 0.13308597
000180 6d b1 1a be de 06 1a bd 7e c9 5e 3e 1d ce d7 bd
       -0.15106745 -0.037604205 0.2175655 -0.1053736
000190 d9 3a 93 be e4 29 4f bc 3f 37 b5 3d e0 64 2c 3d
       -0.28755835 -0.012644265 0.08848428 0.04208839
0001a0 ae 29 78 bd f5 d7 28 bd af 2b b6 3c 2a 10 77 bd
       -0.060586624 -0.041221578 0.022237627 -0.06031815
0001b0 80 fb 78 3e 3f 19 01 3c d1 c1 9c be 92 81 bf 3d
       0.2431469 0.007879554 -0.3061662 0.093508855
0001c0 79 fb 4b be 6f 06 99 3e 14 5e a6 bd 37 97 9b be
       -0.19920148 0.2988772 -0.08123413 -0.30388805
0001d0 c6 4e 7b 3c ec ab 1e bd a4 e3 8c ba 88 8d cf 3d
       0.015338605 -0.038738176 -0.0010748995 0.10134417
0001e0 97 18 f2 bd 3c 89 63 3e 2a 28 8b bc 6b ec 99 3e
       -0.118210964 0.2222032 -0.016986925 0.30063185
0001f0 08 75 5e 3d bb ca 10 3e 38 85 ac 3c 10 c0 69 3d
       0.05431083 0.14139836 0.021059617 0.05706793
000200 7d fa 32 3d a3 6e 6e 3e 43 1c 1f ba d1 f2 c9 3d
       0.043695915 0.23284392 -0.000606958 0.09860767
000210 e9 45 00 be 84 e9 9e bd 67 80 0d bd 45 1d 55 3a
       -0.12526669 -0.07759383 -0.034546282 0.00081296667
000220 32 a7 80 3d 2d f1 d8 bd 47 7c 61 be 36 07 b7 3d
       0.0628189 -0.10592876 -0.22020064 0.08936922
000230 fa 1b 6b 3d 98 3a 26 bd 17 e9 51 be 9d a0 2a be
       0.057399727 -0.040583223 -0.20499073 -0.16662832
000240 6a d9 6e bd 36 0a 81 be 1c 42 be 3d ff 05 25 3d
       -0.05831281 -0.25203103 0.09289953 0.04028892
000250 fe cc 4f 3d 38 3c f5 3b 96 57 02 be 77 f2 7b 3e
       0.050732605 0.0074839853 -0.12728724 0.24604212
000260 a1 3f 38 be bf fa 4a 3e b3 9a 55 3e 3b df 43 3d
       -0.17993023 0.19822215 0.20859794 0.04782031
000270 e5 a9 81 bc 79 70 2d be 98 8a de 3d ef 7e 08 3e
       -0.015828082 -0.16937436 0.108662784 0.13329671
000280 b9 1b 1d 3e d2 d8 a2 bb ee db 82 3e 4d ff aa 3d
       0.15342607 -0.0049696947 0.25558418 0.08349476
000290 35 07 30 bd 07 40 2c 3d cf c6 11 bd 25 04 f1 3b
       -0.042975623 0.04205325 -0.03558999 0.0073552304
0002a0 c1 fd 00 be 5c 95 5d be 41 d0 4f 3d e7 66 c9 3c
       -0.125968 -0.21639007 0.050735716 0.0245852
0002b0 30 0f ea bc 6e 40 6a bd 1e a9 c1 3d 65 64 e5 3d
       -0.028571695 -0.05719035 0.09456085 0.11200789
0002c0 e2 62 10 bd c7 a1 51 3d 0f 77 04 be bd 71 bf 3d
       -0.035250552 0.051179674 -0.12936042 0.09347866
0002d0 2d 4f 8d be 2c fd 01 bb cd ff 4e 3d be 54 40 3c
       -0.2759947 -0.001983474 0.05053692 0.011738954
0002e0 00 22 e1 bb aa 38 37 bd 74 56 95 3d 3b 70 04 3e
       -0.006870508 -0.044731773 0.0729188 0.12933438
0002f0 53 f3 11 bd 01 04 34 3c 15 22 ed bd cd 45 4a 3d
       -0.035632443 0.010987283 -0.11578766 0.049382973
000300 76 f6 0f be 93 a6 4f bd 04 89 ee bc a6 0e ad 3e
       -0.14058861 -0.050695967 -0.029118069 0.33800238
000310 42 0b d8 bc 26 a3 b1 bc 1a 0b 48 bd 04 5d 51 be
       -0.026372556 -0.02168424 -0.048838712 -0.20445639
000320 f3 80 25 bd df 90 aa 3d ca ac 86 3c f8 f7 10 3d
       -0.04040618 0.08328413 0.016439814 0.03539273
000330 c5 ee ab bd f0 cd 15 3e 95 7d 50 3e 4b 2b 30 3e
       -0.08395151 0.1462934 0.20360406 0.17204015
000340 fb 53 a6 3e 61 c2 bb bd fa 12 09 3e 64 43 46 3e
       0.32485947 -0.09167934 0.13386145 0.19361645
000350 f9 2d 92 3d 65 db 60 bd b7 af bb be 21 72 93 bc
       0.07137675 -0.05489673 -0.36657497 -0.017998757
000360 69 95 33 3e 44 8c 5e be a9 f4 6c be b6 4e fc bd
       0.17537464 -0.21733195 -0.23140205 -0.123197004
000370 4d 93 8e 3d aa f0 ea bd 2f f5 89 bd ef 70 c8 3d
       0.06961689 -0.11471684 -0.06736218 0.097871654
000380 9b b0 cf bd 84 13 0d 3e 1d e1 b0 3e b6 e6 f5 3d
       -0.10141107 0.13776976 0.34546748 0.12006895
000390 fe 26 0c 3e e0 37 59 be 84 a9 23 3d 47 f2 f7 bd
       0.1368675 -0.21212721 0.039956585 -0.121067576
0003a0 53 b4 65 be 89 99 c9 bd 44 b0 d3 bd df da 0b 3e
       -0.2243207 -0.09843738 -0.103363544 0.13657711
0003b0 46 94 28 3e ca 45 2c 3d 04 f6 00 3e 7b 5e c6 3d
       0.16462812 0.042058744 0.12593848 0.096859895
0003c0 30 8f d8 3c 5d f3 58 3c 5b e1 c1 3d 3c 70 77 bd
       0.026435465 0.013241616 0.09466811 -0.06040977
0003d0 10 0b a5 be 66 b8 fa 3d 59 12 55 bc 48 20 59 3e
       -0.32235003 0.122422025 -0.013004863 0.2120372
0003e0 53 5d 4d bd ee d4 55 bd ea 43 86 3d ab c9 e7 bd
       -0.05013783 -0.05220502 0.06555922 -0.11317762
0003f0 64 56 97 3c 3b 67 3a be 58 9a 09 3e 34 07 90 3d
       0.018473811 -0.18203442 0.13437784 0.07032624

graph_embed_generation.gat_cgra.att_src f4 [1, 4, 32]
000000 65 42 c8 3d c1 35 1b be b0 f4 29 3d b0 57 d2 3c
       0.09778289 -0.15157224 0.041493118 0.025676578
000010 66 78 04 be 23 b1 ef 3d c5 e3 0e 3e 4c 2d 03 bd
       -0.12936553 0.11703708 0.13954075 -0.03202562
000020 fc 95 ab 3d d9 6f e5 bd 6a 0c 4e 3e 08 79 b9 bd
       0.083782166 -0.11202974 0.20121923 -0.09056288
000030 27 ea ad 3e c1 d4 07 bd 0c a0 4c bd 3a b2 24 bd
       0.33967707 -0.033161882 -0.04995732 -0.040209033
000040 3b c7 d1 bd 35 62 57 bd 4f b8 f6 bd 95 65 9b 3d
       -0.10243078 -0.052583892 -0.12046873 0.075877346
000050 e4 87 f2 3c ed ad d1 3d cf f1 ec 39 db 0b b6 3d
       0.029605813 0.10238252 0.0004519359 0.0888898
000060 d6 c2 0c 3e 91 70 67 bd c9 87 a1 3d d3 e3 43 3d
       0.13746199 -0.056503836 0.07887227 0.047824692
000070 a9 02 13 3b 81 ed 1f 3e a1 ed c7 bd 92 5a 17 3e
       0.0022432005 0.15617944 -0.09762121 0.14780644
000080 9f 5a 19 be 98 b4 82 be 4e 3c e7 bd 00 74 0f 3e
       -0.14975975 -0.25528407 -0.11290799 0.14009094
000090 6b 21 70 3c c2 93 39 3e 77 63 ca bd 9a 9f 09 3e
       0.014656405 0.18122771 -0.09882253 0.1343979
0000a0 df 1f e6 bd 37 4a e2 3d a8 94 4e bd 7c 2c 82 bc
       -0.11236548 0.110493116 -0.05043474 -0.015890352
0000b0 e2 41 b7 bd 79 27 d6 3d 4a 7f a0 3d e2 39 b4 3d
       -0.08948113 0.104567476 0.078367785 0.08800103
0000c0 70 e1 a5 bd 6e a8 02 bd 0a 2f 35 3e f1 cc 56 3e
       -0.080996394 -0.03189891 0.17693725 0.20976616
0000d0 eb b9 2b 3e cd cc e3 bd d4 65 08 be 97 c8 12 be
       0.16770141 -0.11123047 -0.13320094 -0.14334331
0000e0 b2 79 ab be ba 3f ec 3d 7b 81 c8 3c cd 7a fe 3b
       -0.33491284 0.115355924 0.024475804 0.007766104
0000f0 2b 58 4f bc bd 91 2d be e9 75 58 3e 2f 96 e1 bd
       -0.012655298 -0.16950126 0.21138729 -0.11014973
000100 ec b7 29 3d a9 9a 99 bd b7 0d 35 be ef 7d 05 be
       0.041435167 -0.07500202 -0.17681013 -0.13036321
000110 d2 57 3a be 13 fc 81 be 4d aa 50 bd e6 34 16 3e
       -0.18197563 -0.2538763 -0.05094366 0.14668617
000120 4e 70 ee 3d 88 8f b1 3d 12 6d 01 3e 76 87 c8 3b
       0.11642514 0.086699545 0.12639263 0.006119664
000130 9f 26 20 3d db 02 e3 3d e3 ce 33 3d 6e 07 b5 3c
       0.039099332 0.11084529 0.043898474 0.02209827
000140 2d 3d 6e 3e c9 2f 47 3e e6 24 d0 bc 9d e6 05 3d
       0.23265524 0.19451822 -0.02540822 0.032690633
000150 cf 8f 18 3e 99 02 95 bd a6 79 a6 bd e7 24 45 bd
       0.14898609 -0.07275886 -0.08128671 -0.048130896
000160 4b 4d 0e 3e 3b 5a 95 bd 6d cf 69 bc 66 1d 9b 3e
       0.13896672 -0.07292601 -0.014270646 0.30295867
000170 3f 7c 82 bd f4 ca 5e 3d d8 8f b9 bd fa 24 4c be
       -0.06371354 0.05439277 -0.09060639 -0.1993598
000180 bd e9 a9 3b d4 7a 89 3c 1a d1 3e be 61 67 1e be
       0.0051853345 0.016782202 -0.18634453 -0.15469123
000190 86 40 a7 be 0b 69 be 3c 0d 55 00 3e 72 ca d6 3c
       -0.32666415 0.023243448 0.12532444 0.02621958
0001a0 e7 e8 98 be 4a 69 05 3b f4 da 16 3e 33 3c 4b be
       -0.2986519 0.0020356947 0.14731961 -0.19847183
0001b0 6d f2 eb 3d 47 64 c6 bd 62 b3 d2 3d 9d 5d 47 3d
       0.115208484 -0.09687095 0.10288121 0.04867326
0001c0 9c 45 1a 3c b2 79 e2 bd 2e f8 70 3d c9 f5 18 3d
       0.00941601 -0.11058368 0.058830433 0.037343774
0001d0 1d f1 39 bd 7f 21 27 bd bc 86 f5 bd c4 f0 a3 3d
       -0.04539596 -0.04080343 -0.11988589 0.08004907
0001e0 ee e6 a3 3d b2 de 0e 3d 61 a8 b0 3d 2b 2a 0d 3d
       0.08003031 0.034880348 0.08625866 0.034464043
0001f0 70 79 39 be c2 e2 28 be 16 84 1f 3e b1 30 e7 bd
       -0.18112731 -0.16492751 0.1557773 -0.11288584

graph_embed_generation.gat_cgra.att_dst f4 [1, 4, 32]
000000 ce 93 f8 bd 1a 3f 88 be b9 60 93 bb 0e c9 4a bc
       -0.121375665 -0.26610643 -0.004497614 -0.012377037
000010 9d 73 22 3e 68 a9 72 bb 1a ce 62 be cd 99 8e 3c
       0.15864415 -0.0037027244 -0.22148934 0.017407322
000020 b4 cf 5a be 42 3c 12 be 41 35 ee 3d 38 17 93 bd
       -0.21368295 -0.14280799 0.11631251 -0.07182163
000030 23 ff d5 3e a0 a1 a2 bd 71 a6 13 3e 49 d6 99 bd
       0.41796216 -0.07940984 0.14418961 -0.07511575
000040 04 79 bb bc a9 09 57 be 4d 11 b8 3d 9e fb 85 3d
       -0.022884853 -0.20999779 0.08987675 0.06542133
000050 8e ae 2b be dc dd fc bc a1 77 96 be e0 16 4e 3d
       -0.16765806 -0.03086751 -0.29388145 0.050314784
000060 78 bb 22 bd 19 47 01 3e 5d a9 68 bc 2e d0 08 be
       -0.039729565 0.12624778 -0.014200536 -0.13360664
000070 06 51 86 3e 62 1d 77 bd 04 7e dd bd af a1 a3 3d
       0.2623369 -0.060330756 -0.10815051 0.07989823
000080 7b 98 6a bd 3c 1b b5 3d 95 19 3c 3d 60 52 1d be
       -0.057274323 0.08843085 0.045922834 -0.15363455
000090 b7 de 92 bd 86 77 c1 3c 2e 69 f6 bc c2 ef 1d 3e
       -0.07171386 0.023616564 -0.03007945 0.15423492
0000a0 d6 d9 d2 bd 89 70 39 be 73 50 05 3e b8 57 eb bc
       -0.10295455 -0.18109335 0.1301897 -0.028728351
0000b0 7d 82 82 bd f2 a3 b5 3d 46 9c b9 bd 71 b5 95 3c
       -0.06372545 0.08869161 -0.0906301 0.018274995
0000c0 6f fa af bd 29 06 48 be 31 4c 53 bc 21 25 55 3e
       -0.08592688 -0.195336 -0.012896583 0.20814945
0000d0 9c 1d 62 3d 98 00 04 3e 98 d0 a8 bd 41 7e cb bd
       0.05520402 0.12890851 -0.08242911 -0.099361904
0000e0 00 30 0a be a3 33 a9 bb 2b 07 16 3e da c0 d4 3d
       -0.13494873 -0.0051636263 0.14651172 0.10388346
0000f0 14 b6 a0 3d 3c 74 ea 3d 1c 0a 6d 3c 0e d1 85 bd
       0.07847229 0.11447951 0.014467742 -0.06534015
000100 3b c1 1c be be 6c 7f bd 72 fe 3a 3d 1c a5 21 bd
       -0.15308087 -0.062359564 0.045652814 -0.0394641
000110 9b d2 13 3e 29 d7 90 3c 89 38 40 bc 06 fb 61 3e
       0.14435808 0.017680721 -0.011732229 0.22068414
000120 b2 cb 8c 3d 20 4d f6 3d 0c bf d1 bd 60 c3 da bc
       0.06874789 0.12026429 -0.102415174 -0.02670449
000130 3a 3e 93 3d d3 13 63 3e 53 38 84 bd 49 94 02 3d
       0.07189603 0.22175531 -0.064560555 0.031879697
000140 25 61 d7 bc 55 02 e1 bd f8 45 24 bd b8 e7 58 ba
       -0.02629144 -0.10986773 -0.04010579 -0.0008274275
000150 ee a0 0c 3d d2 90 2d be c8 60 a4 3d 1d 9f c6 3c
       0.034333162 -0.16949776 0.08026272 0.024245793
000160 8a 1c e8 bd 3c 92 fd 3d 47 c4 1b 3e 8a 8c 98 bd
       -0.113335684 0.123814076 0.15211593 -0.07448681
000170 43 78 82 b8 66 85 db bd 76 4f 32 be fe 10 29 bd
       -6.2212835e-05 -0.10718803 -0.17413124 -0.04127597
000180 2f 86 64 bd 16 ec a7 bc fa d6 8a 3e e0 57 e1 bc
       -0.05579203 -0.020498317 0.2711714 -0.027507722
000190 16 73 07 be fa 49 c0 bd 60 d0 31 3d e4 f7 2c bd
       -0.13227496 -0.0938911 0.043411613 -0.042228594
0001a0 fb f6 11 be 63 3d 64 3c ef 47 9d 3c 03 f1 47 3d
       -0.14254372 0.013930651 0.01919934 0.04881383
0001b0 ca 77 4b 3e 24 4e e3 bc 5a 75 30 3e 8a fa 44 3e
       0.19869915 -0.027747221 0.17232266 0.19236198
0001c0 6e a8 a4 bd 5e ad 56 be 38 ea 09 be f3 8d 50 bd
       -0.08039938 -0.20964572 -0.13468254 -0.050916623
0001d0 3e 60 76 3e 19 50 10 bc d5 4c 00 3e 4e 24 7f 3d
       0.24060151 -0.008808159 0.12529309 0.062290482
0001e0 d7 26 54 3d 64 71 90 bd 03 58 45 bc 23 b1 1b be
       0.051794853 -0.070528775 -0.012044909 -0.15204291
0001f0 72 0d 33 bd 73 d6 0d 3e fd e0 03 3c 52 3e 54 3d
       -0.043713994 0.13851337 0.008049247 0.051817246

graph_embed_generation.gat_cgra.bias f4 [32]
000000 fe 88 a0 3c 8c f9 18 3c d8 f6 87 bd c7 af c4 3a
       0.019596573 0.00933684 -0.066388786 0.0015005999
000010 7a ec 69 3c e8 32 33 3d a8 d5 b4 3c 3f 57 f4 ba
       0.014277572 0.04374972 0.022074535 -0.0018641724
000020 22 4c 1f 3d e2 38 ec 3c 3f b8 f9 3c c8 1c 36 3b
       0.038890965 0.028835718 0.030483363 0.002778815
000030 2b 97 42 3d 0a be 85 bd 18 d3 6d bd 33 b7 cf bc
       0.047507446 -0.06530388 -0.058062643 -0.02535591
000040 b8 44 55 bd 02 63 1b 3c 76 c2 92 ba 38 bc 70 bc
       -0.05206749 0.0094840545 -0.001119687 -0.014693312
000050 59 43 8b 3c 89 28 c0 3c e0 2f e8 3b 6f 9d 87 3d
       0.016999887 0.023456829 0.0070857853 0.06621825
000060 9e 27 10 ba 02 9d a2 3c b6 c3 5b 3d b4 41 87 bb
       -0.00054990675 0.019850258 0.05365344 -0.0041277055
000070 55 1b 5b 3b cc 74 70 bc 3c 21 fd bc 27 98 31 3c
       0.003343304 -0.014676284 -0.030899636 0.010839499

graph_embed_generation.gat_cgra.lin.weight f4 [128, 7]
000000 99 ef c6 3d 55 15 17 3e a1 19 9e 3d 31 b1 98 3d
       0.097136684 0.14754231 0.07719732 0.074556716
000010 3e 2e d0 3b bf 2e 54 3e 1e 0d 84 bd 2a c5 90 bc
       0.0063531687 0.20720957 -0.064478144 -0.01767214
000020 00 5c 56 be d8 82 b6 3d ad 36 f9 bd e3 0e 3a 3e
       -0.20933533 0.08911675 -0.12168632 0.18169741
000030 0c 1f 55 be 1a 83 b3 bd 46 29 18 bd 18 c6 42 bc
       -0.20812625 -0.0876524 -0.037148736 -0.01188805
000040 95 04 0d be 1e 1e 17 be 78 3f af bd bd 89 0a be
       -0.13771279 -0.14757583 -0.085570276 -0.13529105
000050 2b c7 4f 3e 1c c8 21 be da be 11 be 17 da 9d bd
       0.2029082 -0.15798992 -0.1423296 -0.07707613
000060 07 cb 07 be 2b c8 eb 3d e8 b4 31 3e 2a ba db bc
       -0.13261043 0.115127884 0.17354167 -0.026822168
000070 c0 64 bc 3d 2f cf ad bd 0a 3f 44 bd 72 c1 48 be
       0.09198904 -0.08486783 -0.04791168 -0.19605044
000080 20 9a 53 bd 5c ba 66 be 90 93 c8 bd 7b a0 8d 3e
       -0.051660657 -0.22532028 -0.0979377 0.276615
000090 22 1b 00 bb da 2a 08 3c 77 06 5e bb 05 17 02 bd
       -0.0019547422 0.008310998 -0.0033878365 -0.031760234
0000a0 35 8b 23 3d 9c c1 3d bd 31 4c 4e 3e 31 bb ab 3d
       0.03992768 -0.04632722 0.20146252 0.08385313
0000b0 3b c9 5e 3d 5f 10 84 bd 04 c4 99 3e c2 c7 ec 3e
       0.054391127 -0.06448435 0.3003236 0.46246153
0000c0 ef 0e 0c be a8 40 88 3d 4b 18 d2 bd f3 1d 13 3e
       -0.13677572 0.06652957 -0.1025854 0.14366893
0000d0 52 17 48 bc be b6 4c 3e 13 cd 9f 3d 7f 12 dc 3c
       -0.012212591 0.19991586 0.07802787 0.026864288
0000e0 8d a1 88 3e df dd 64 bb 90 8c 93 3d a3 9a 8c bc
       0.26685753 -0.0034922285 0.072045445 -0.01716358
0000f0 48 67 12 3e 44 5b d4 bc 3b c9 77 bd dc b6 54 3d
       0.14297211 -0.025922425 -0.060494643 0.0519322
000100 6d 63 06 3e 98 61 41 3e 96 ca 9c 3d 41 c6 46 bd
       0.13123865 0.18884885 0.07655828 -0.048528913
000110 d4 e4 66 bc 54 8c 5d be 19 c5 61 3d f2 11 a1 bd
       -0.014092643 -0.21635562 0.055119608 -0.07864751
000120 96 2c 93 bd b7 e2 71 3e 09 c1 12 bc 50 54 50 bc
       -0.071862385 0.23621641 -0.008957156 -0.012715414
000130 18 17 e1 3d 48 b5 53 be fb 36 5b 3c 01 e4 af 3d
       0.10990733 -0.20674622 0.013379808 0.0858841
000140 ae 56 7c bd 0d 1f 5a 3b a9 af a9 bd a4 0e 56 3e
       -0.0616061 0.0033282668 -0.08285458 0.20904022
000150 ae 8a 6d 3e ad d0 df 3d 65 4d e0 bd 43 c3 c3 3c
       0.23197433 0.109284736 -0.10952262 0.023896819
000160 97 fb 41 3d 8f 55 36 bc ec f8 f7 3d c7 9f 24 be
       0.047359075 -0.011128797 0.12108025 -0.16076575
000170 d6 a1 f3 3c 91 93 26 3e b9 99 a3 be 9f 57 6a be
       0.029740255 0.1626723 -0.3195322 -0.22884987
000180 24 44 20 3e b8 f9 53 3e bb 26 ba 3d 67 2f c0 bd
       0.15650994 0.20700729 0.090894185 -0.09384041
000190 fa 18 06 3e 8b 73 81 be db 3a eb 3c 33 e4 3a be
       0.13095465 -0.25283465 0.028714588 -0.18251114
0001a0 ac ab b4 bd 3e 4c f0 bd 45 d4 85 be 40 91 8c be
       -0.08821806 -0.11733292 -0.2613851 -0.27454567
0001b0 da 62 43 bc 0c a5 19 be 0e 07 35 bd 58 d9 b8 bb
       -0.0119254235 -0.15004367 -0.04419618 -0.005641144
0001c0 61 11 25 be 92 7f ba bc 93 43 d8 bd 77 da 03 3d
       -0.16119911 -0.022765908 -0.10559764 0.032190766
0001d0 45 8a 10 be 54 7e 09 3e 44 8a 37 bd f7 15 2d 3d
       -0.14115246 0.13427097 -0.044809595 0.042257275
0001e0 18 70 79 bc 67 04 11 bd 95 a4 43 3c d9 e4 8b be
       -0.015224479 -0.03540459 0.011941095 -0.27323034
0001f0 20 c3 de 3d 5a c3 93 3e d2 2f 7f be 0b ac 52 3d
       0.10877061 0.2885998 -0.24920586 0.051433604
000200 b3 f6 25 3c b3 df 17 be 6e 8f 07 be ee a9 73 3c
       0.010129618 -0.14831428 -0.13238308 0.014872057
000210 ce 48 2e be ad d6 bf 3c c2 ad 46 be e8 c5 33 bc
       -0.1701996 0.023417795 -0.19402221 -0.0109724775
000220 40 cd 09 3d a3 5b c9 bd 8e 48 d1 3c 21 a5 07 3e
       0.033643007 -0.098319314 0.025547292 0.13246585
000230 14 99 df 3d 20 e8 25 bd 99 be 34 be 33 8b 23 3e
       0.10917869 -0.040504575 -0.17650832 0.15971069
000240 62 50 b0 bd e4 0e 9a 3c 7e 39 a4 bd d3 e3 a7 3e
       -0.08609082 0.018805929 -0.08018778 0.32791004
000250 f9 99 a5 3e ac 91 13 be 98 ff 16 be c7 36 af 3d
       0.32344034 -0.14411038 -0.14745939 0.0855537
000260 fc 3d b4 3d 08 61 14 3e 64 ea 89 bd c9 53 ad bd
       0.08800885 0.1449014 -0.067341596 -0.084632464
000270 3a 67 dd bc fe 02 5b be de f1 42 be 50 a9 bf 3c
       -0.027026761 -0.2138786 -0.19037578 0.023396164
000280 82 f4 b5 bd c8 28 aa 3d 4f 12 8c 3e 3b ef 47 3e
       -0.08884527 0.0830856 0.27357718 0.19524853
000290 dc 30 ef bc 7d 23 ad 3e fd dc 2f bd 8a b8 a7 bd
       -0.029198103 0.33816138 -0.04293536 -0.08189495
0002a0 9d c2 96 bd f2 7f 9b 3d 32 cd b7 3d 61 5b 67 bd
       -0.07361338 0.07592763 0.08974685 -0.05648363
0002b0 90 3a 7d 3b 9d 38 8c bc a1 39 08 bd d5 f9 87 bd
       0.0038639642 -0.017116839 -0.033258084 -0.066394486
0002c0 1d 27 19 bd a5 be 0b bd ed 37 60 3d 3d 09 fe 3c
       -0.037390817 -0.03411736 0.054740835 0.031010265
0002d0 a2 38 14 3e 2f 33 8c bd 44 18 64 3e 83 17 27 3e
       0.14474729 -0.068457 0.22274882 0.16317563
0002e0 ce 28 10 3b c0 3a 19 3e a8 f2 0a 3e ff 68 aa bd
       0.0021996978 0.14963818 0.13569129 -0.08320808
0002f0 91 8f d3 bd 2c 1c 60 bd 1f c9 2b 3c 2c 4c 55 3c
       -0.103301175 -0.054714367 0.010484963 0.013018649
000300 59 0a 07 3e ac d5 02 bc 6a 54 fb bd dc b9 29 3c
       0.13187541 -0.007985514 -0.1227196 0.010359254
000310 14 22 73 bd 94 b9 05 3d 22 ed d7 3c a9 b6 64 3e
       -0.05935867 0.032647684 0.02635819 0.22335304
000320 94 cf 44 3e d2 38 21 3d f1 90 60 bd 35 ff 82 bd
       0.1921981 0.03936083 -0.054825727 -0.06396333
000330 87 eb 8e bd 27 46 18 3d 1a 01 6a bd 08 f0 af 3d
       -0.06978517 0.037176277 -0.057129957 0.08590704
000340 3f b4 67 be 5b a0 01 be fe d4 93 3d 57 02 c2 bd
       -0.22627352 -0.12658827 0.072183594 -0.094731025
000350 bd e0 bb bd 3c c5 81 bd 75 8f e7 bd 73 97 4c be
       -0.09173725 -0.063364476 -0.11306659 -0.19979648
000360 a3 2f 1f 3e a6 72 12 be 7d cd 58 be 32 53 ce bd
       0.15545516 -0.14301547 -0.21172138 -0.10074462
000370 be c9 bd bd 3b 0a fa bc 59 00 e3 3d e8 06 8d be
       -0.09266995 -0.030522456 0.11084051 -0.27544332
000380 3c 08 6a 3e 94 f5 57 bd 03 19 b5 3d 08 af 7a 3c
       0.22854704 -0.052724436 0.08842661 0.01530052
000390 22 c1 55 3d 95 a0 1b 3d 41 d4 11 3e 37 7a 69 bd
       0.05218614 0.03799494 0.14241125 -0.05700132
0003a0 b9 e9 3b 3e 98 22 de 3d 9b 3b b3 3d 5e f9 2b bd
       0.18350877 0.10846442 0.08751603 -0.041985862
0003b0 12 19 14 bd cd 8a 65 be 17 23 75 3d 86 ab 5e 3c
       -0.03615672 -0.2241623 0.059847917 0.013590699
0003c0 a0 fa 02 be c5 f0 c6 bb 09 9b 01 be 89 97 84 3d
       -0.12790918 -0.0060711824 -0.12656797 0.064742155
0003d0 66 bc a1 bc d5 1b 18 3e 14 6b e0 bd 29 d6 08 be
       -0.019743156 0.14854367 -0.109579235 -0.13362946
0003e0 c0 c0 ef 3d b6 cd 8b bc c0 dc 1d bd a1 d7 2c bc
       0.11706686 -0.017065864 -0.0385406 -0.010549457
0003f0 5d 0c 0a 3d 82 f6 0d be cb 4c 14 3e 48 62 8e 3d
       0.033703197 -0.13863567 0.14482419 0.069523394

graph_embed_generation.fc_metadata.weight f4 [32, 9]
000000 c6 ae a4 bc 53 7e d2 3d d4 d2 aa bc 03 e9 e8 bd
       -0.02010287 0.10278001 -0.020852484 -0.113725685
000010 a2 c8 87 3e 3f 46 ba be 9a 30 96 be 7d cd 0d be
       0.26520258 -0.3638172 -0.29333955 -0.13847919
000020 5c 4b b3 be a3 dd 1d 3d b2 96 59 be e0 9b 96 bc
       -0.35018432 0.038541447 -0.21248892 -0.018384874
000030 84 71 87 3e fb 06 14 be 3a c2 13 3f 6a 99 bf be
       0.26453793 -0.14455788 0.5771824 -0.37421733
000040 18 f0 27 3e 6f 9b a3 3c d6 34 03 bf 48 7f 77 3e
       0.16400182 0.019971577 -0.51252496 0.24169648
000050 22 7e 08 3e f0 88 28 3e 26 a2 26 3e 98 8c 11 bf
       0.13329366 0.16458488 0.16272792 -0.56855154
000060 1f 9b da be 92 3d 04 bf 01 b2 bd 3e 76 d4 9a 3d
       -0.42696473 -0.5165645 0.3704987 0.07560055
000070 72 35 7c be 03 cd af be 8f 0f 78 3c 8f 0c a1 be
       -0.24629763 -0.343361 0.015140428 -0.31454894
000080 22 1a ac 3e 5f 66 4f 3e ce 17 b0 be 8c 45 10 3d
       0.33613688 0.20253895 -0.34393162 0.035222575
000090 97 fe 66 be b9 40 1b 3e 9e 9f 1c be 94 c3 11 be
       -0.22558056 0.15161408 -0.15295264 -0.14234763
0000a0 f6 31 a3 3e 8d 9e ee 3d 9e df 88 3d d7 fc 1a be
       0.31874055 0.11651335 0.066832766 -0.15135513
0000b0 0c 40 94 3d 4d be a8 3e 09 f2 19 3f 40 26 52 3e
       0.072387785 0.32957688 0.6013494 0.20522404
0000c0 e4 b4 8d be ba dc 2b bf 02 95 ca 3c d9 56 2e bd
       -0.2767707 -0.67133677 0.024729256 -0.042563293
0000d0 2b 07 20 bd 14 67 a1 be 09 aa 4a bd 75 10 d6 3c
       -0.039069336 -0.31523955 -0.049478564 0.026130894
0000e0 4a 9b 90 3e 03 11 aa be 49 a0 ab be 10 9b e5 3d
       0.28243476 -0.33216104 -0.33520725 0.112112164
0000f0 9c 47 3c bd 83 e4 65 bd 66 3a 19 3e e6 30 78 be
       -0.04596673 -0.05612613 0.14963683 -0.24237403
000100 75 5c 87 3e 18 8a 64 be 2b 7f b9 3d 37 fd e5 3d
       0.26437727 -0.22318304 0.090574585 0.112299375
000110 32 3e ef be 1f b3 84 be 48 ab ca 3d a8 6b ad be
       -0.4672714 -0.2591791 0.098959506 -0.33871198
000120 bc 39 00 be 12 12 81 3d b5 a1 0d 3e 67 77 75 be
       -0.12522024 0.06302275 0.13831218 -0.2397133
000130 94 05 97 3e 7f e0 7a 3e 30 21 a5 3e 7d 5a 87 3e
       0.29496443 0.24499701 0.32251883 0.26436225
000140 21 41 ff bd 4f 4d 83 be 94 69 01 3e 52 1c 92 bd
       -0.12463594 -0.2564492 0.12637931 -0.07134308
000150 33 f6 56 be 97 75 c7 3b 49 b6 d5 3d e4 db ce 3e
       -0.20992355 0.006087016 0.10435159 0.40402138
000160 74 1e 07 bf 09 4d e7 be 47 79 04 3d 3a 93 f7 bd
       -0.5278084 -0.4517596 0.03234222 -0.12088628
000170 33 9e 99 3e 4d f4 29 be a2 13 c1 3e 47 9f 96 bc
       0.3000351 -0.165971 0.3771029 -0.018386496
000180 6a a9 42 3e b0 c8 b1 3e 16 66 38 be 9b 44 b7 be
       0.19009939 0.34723425 -0.18007693 -0.3579453
000190 a4 01 2b 3d d7 41 a7 be 6a ed bf 3e e0 31 11 be
       0.04174961 -0.3266742 0.3748582 -0.14179182
0001a0 e5 4c 95 3e 40 34 c3 3d 42 18 35 be 72 02 99 3d
       0.29160228 0.0953145 -0.17685035 0.074711695
0001b0 6d 01 30 3f e8 76 4b 3e b6 a9 bc be 74 61 35 be
       0.68752176 0.19869578 -0.3684823 -0.17712957
0001c0 92 87 1e 3f 94 99 07 3e 80 dd 12 be ca 7c 48 bc
       0.61925614 0.13242179 -0.14342308 -0.012236783
0001d0 9b 88 6f 3e 24 9e 77 bc b5 df c7 be dc 19 d2 be
       0.23391955 -0.015113387 -0.39037862 -0.41035354
0001e0 e5 db f2 be 47 4e b2 be 1f 76 ba be a7 4b 0f 3e
       -0.4743339 -0.34825346 -0.36418244 0.13993703
0001f0 8e 46 3c bd 6c d3 bf bd ce 14 7f be 6f 2b b8 3d
       -0.045965724 -0.093664974 -0.2491028 0.08992659
000200 0b 27 e0 be 77 ce d6 bd 95 97 1e be 0e cb 35 3e
       -0.43779787 -0.10488599 -0.15487511 0.1775324
000210 4d cd 8f bc 4e 05 aa 3e a8 2e 47 3e d0 06 ce 3d
       -0.01755395 0.33207172 0.19451392 0.10059893
000220 b8 3c 68 3e 20 27 19 3e 10 c2 bf 3d b9 f6 9f 3e
       0.22679412 0.14956331 0.09363186 0.31242922
000230 20 39 59 bc ef a9 ac 3e b0 11 68 be a0 20 01 3f
       -0.013258249 0.337234 -0.22662997 0.50440407
000240 60 84 92 be 3b 42 8c 3e e6 d3 44 3d eb 9e c7 3e
       -0.2861662 0.2739428 0.048053645 0.38988432
000250 f4 93 81 3d 85 26 3f 3e be 21 18 be ad a5 50 bc
       0.06327048 0.18667038 -0.14856622 -0.012734813
000260 36 fe b8 be 80 40 aa 3e b6 90 3d 3e d5 9e 0a 3f
       -0.36131448 0.33252335 0.18512234 0.5414861
000270 f6 3f 2e 3d 35 1f 88 be e7 19 60 be 71 4d 7f 3d
       0.042541467 -0.2658631 -0.21884881 0.062329713
000280 05 a6 c2 be 76 ad 67 3e a1 aa ab 3d 07 a6 fb bd
       -0.38017288 0.22624764 0.08382154 -0.122875266
000290 a7 b8 08 3d f6 33 fb ba 40 90 70 bd 7e d1 9f 3e
       0.033379223 -0.0019165266 -0.058731318 0.31214517
0002a0 97 60 0b bf 9e a0 a2 be 41 3a 28 be 7e c2 a5 be
       -0.5444426 -0.31763166 -0.16428472 -0.32374948
0002b0 22 5d 12 3d 86 a2 c2 3d b0 e3 14 be 27 4d bb 3d
       0.03573335 0.09503655 -0.14539981 0.09145575
0002c0 68 8f 81 3e 22 f1 2c 3e 9e 63 a5 3e 12 98 03 3e
       0.25304723 0.1688886 0.32302564 0.12850979
0002d0 c5 64 bd 3d 86 e9 10 3f 62 61 e5 be f5 fd 2d be
       0.09247736 0.5660633 -0.4480086 -0.16991408
0002e0 e2 ea 83 3d 77 06 3c 3c 07 c7 44 be 46 2a e0 3c
       0.06441285 0.011476151 -0.19216548 0.027363908
0002f0 23 68 f1 3d ac 82 9b 3d be 25 d7 be ef 68 29 be
       0.11787441 0.07593283 -0.42020983 -0.16543935
000300 83 cf 9a 3d 79 b4 87 3c 29 14 d8 be 2b 77 16 bd
       0.07559111 0.016565548 -0.4220288 -0.03673474
000310 f8 96 99 3e fb 97 75 bd fd b1 f6 bd a0 e4 31 3c
       0.29997993 -0.059959393 -0.12045667 0.010857731
000320 ee 7f f6 3e 92 fc 83 3e 51 fb e0 3d d7 3e 3b be
       0.48144478 0.25778633 0.10985435 -0.1828569
000330 37 97 74 be 88 d9 00 bd c9 1f 66 bd 82 82 0e 3e
       -0.23885809 -0.031457454 -0.056182656 0.13916972
000340 e9 36 2c bd 15 b1 96 3d 0c 82 9a bd de f6 ac 3d
       -0.042044554 0.073579945 -0.07544336 0.08445524
000350 d2 93 a4 3e 3e 73 13 3f 87 7e 21 3e d4 d6 3f 3d
       0.32144028 0.5759772 0.15770923 0.046835735
000360 d7 1b 92 bd 15 77 a1 bd ab c6 9f 3e 2d e2 10 bf
       -0.07134216 -0.07884041 0.3120626 -0.56595117
000370 05 3d 2f 3d 34 e5 89 3e 71 d5 a5 be af c6 ad 3c
       0.042782802 0.2693268 -0.32389405 0.021212904
000380 a1 c2 89 3e 06 d3 43 be 1f f7 d7 3e 8a 8b b5 3d
       0.26906303 -0.19123468 0.42180726 0.088645056
000390 05 9d b9 bd fe d5 a3 3e ac 19 f3 bd 40 7d 8d bd
       -0.09063152 0.319992 -0.11870131 -0.06908655
0003a0 53 49 23 bd f5 6d 66 be 92 f8 4a bc 0f a7 64 3d
       -0.03986485 -0.22502883 -0.012388365 0.055823382
0003b0 b1 e4 8f 3e 0f 64 7c 3e 89 7f 59 3e 99 f7 91 be
       0.28104165 0.24647544 0.21240057 -0.28509215
0003c0 d1 70 91 be 25 f4 69 bd 64 64 25 3e 7e d7 33 3d
       -0.28406385 -0.0571176 0.16151577 0.04390668
0003d0 da 6c 15 bd 42 d9 3a be b7 0b 31 3e 34 a0 5f 3e
       -0.036480762 -0.1824694 0.17289625 0.21838456
0003e0 50 4b a6 3e 65 ce e0 3d f9 35 21 be a4 63 0c be
       0.32479334 0.10976867 -0.15743245 -0.13709885
0003f0 cf 6b 0b 3e 32 3e d0 3d c7 52 8f 3e 79 89 66 3e
       0.13615344 0.10168113 0.27992842 0.22513379

graph_embed_generation.fc_metadata.bias f4 [32]
000000 b1 7c 6a 3d ab c3 1c b9 a1 c3 58 be ae e4 da bd
       0.05724782 -0.00014950211 -0.21168377 -0.106881484
000010 ad 87 86 be 2a cc 22 3d 2d 71 18 3e 88 30 fa 3d
       -0.26275387 0.039745487 0.14886923 0.12216288
000020 6e d2 46 3e 1f 89 b1 3d 64 db 07 3e 14 ef be 3e
       0.1941621 0.08668732 0.13267285 0.37291777
000030 84 d7 ad bd 2a f4 6d bd 8c 49 88 3e 10 3a fa 3d
       -0.08488372 -0.05809418 0.26618612 0.12218106
000040 93 65 e9 bd f7 4d 9e be 05 79 84 3d c9 90 4a be
       -0.11396327 -0.30918857 0.06468395 -0.19781794
000050 6c 67 96 3e 95 0b 01 be 6c f7 19 3e c1 63 99 3d
       0.2937578 -0.12602074 0.1503579 0.0748973
000060 4d 61 02 be 9b 11 14 be 88 7c 0f be 07 fa da 3d
       -0.1273243 -0.14459841 -0.14012349 0.1069222
000070 e0 da 4b 3d c1 5e 90 be ad be eb bd d7 55 66 3e
       0.049769282 -0.28197291 -0.11510978 0.22493683

graph_embed_generation.mlp.0.weight f4 [32, 96]
000000 0f ba 19 3e cb f4 7c be d0 bf a5 be f1 54 24 3d
       0.15012382 -0.24702756 -0.32372904 0.04012007
000010 c6 67 a3 bc fb 29 6e 3d e0 dd 35 bd b2 d2 fb bc
       -0.019946944 0.058145504 -0.04440105 -0.030740116
000020 81 5f e0 3d d8 86 00 bf 13 f9 90 bd 89 20 0e be
       0.10955716 -0.50205755 -0.07078757 -0.13879599
000030 93 a1 a1 3d cb 48 23 3e 0c 3b 4a 3d c3 ba 0b 3e
       0.07892146 0.15945737 0.049372718 0.13645463
000040 5c e1 5a bd bd b1 81 3d 8e a8 94 3d eb 57 ef bd
       -0.053437576 0.06332729 0.07258712 -0.11686691
000050 63 4b c1 3e 54 86 d9 bd 01 f9 7a bc 9c 28 b7 3e
       0.37752828 -0.10621324 -0.015318156 0.3577317
000060 5e b9 0e 3d b1 b4 fa 3d f4 9b 92 3e fa 69 40 3d
       0.03484475 0.122414954 0.28634608 0.046976067
000070 69 ee a2 bd 87 f4 d9 bd c8 b7 87 3d 95 0c e7 bd
       -0.079556294 -0.10642343 0.0662685 -0.11281697
000080 58 16 af 3c b7 54 88 bd 3c 38 d0 3d a3 cd 51 be
       0.021372959 -0.06656783 0.10166976 -0.204886
000090 40 96 5e bd a4 ef 1a be 25 e0 d4 bd bb 07 97 3d
       -0.05434251 -0.15130478 -0.10394315 0.07374521
0000a0 0f 79 84 3d 75 39 32 be cc b0 5d 3d d2 bd c5 bc
       0.064684026 -0.1740473 0.054123685 -0.024138365
0000b0 a4 3f bb 3d 97 78 67 3d 10 ad f9 bd c0 80 be bd
       0.09142998 0.056511488 -0.12191212 -0.09301901
0000c0 b7 06 cb bd 6b 9f da 3d d3 97 eb bd c0 42 f5 3c
       -0.0991339 0.10674938 -0.115035675 0.029939055
0000d0 68 83 7b bd 82 79 1a bd 01 61 1c 3d 69 3d 29 bd
       -0.061404616 -0.037713535 0.038178448 -0.04131833
0000e0 53 ee aa be 5c 49 a0 be 09 ce 67 3e f8 92 30 3e
       -0.33384952 -0.3130597 0.2263719 0.17243564
0000f0 a6 86 99 be 41 c4 e1 bd 32 e9 39 3e 05 4c 48 bd
       -0.2998554 -0.110237606 0.18155363 -0.048900623
000100 e3 fb ff 3d 59 f8 35 3e ea 6d 98 bd 4d 60 54 3d
       0.124992155 0.17770518 -0.074428394 0.051849652
000110 b6 58 86 3d a4 ce ea 3b ed 18 3b 3e 9f 53 4a bd
       0.06559889 0.0071657468 0.18271227 -0.049396154
000120 d9 f1 13 bc 24 9d 8b be 1d 75 ce bd 6a 81 df 3d
       -0.009029829 -0.27268326 -0.10080931 0.10913356
000130 0e 07 dd bd 9a f9 6b bd c0 a9 11 be 6e 16 ff bc
       -0.10792361 -0.057611085 -0.1422491 -0.031138625
000140 96 dd 33 be e2 3d 59 bd 10 26 97 bd 23 ff 3e 3d
       -0.17564997 -0.05303753 -0.07380307 0.046630036
000150 8e a9 ef 3d 12 3e a4 3e 29 a2 25 bd af 70 44 3e
       0.11702262 0.32078606 -0.04043785 0.1918361
000160 1b b6 bf bd ea 9b 4d 3e 62 9b 9c 3d 22 1e 11 bd
       -0.09360906 0.20079008 0.076468244 -0.035429128
000170 a4 64 00 3e 55 6b a0 bd 78 66 42 be 65 42 4c 3e
       0.12538391 -0.07832972 -0.18984401 0.19947203
000180 58 22 1e be c8 e9 8b 3e af 8d 5b 3e 96 ed 8d be
       -0.15442789 0.27326798 0.21440767 -0.27720326
000190 04 59 81 bc 50 5f 39 bd 36 20 01 be d5 04 59 be
       -0.015789516 -0.045256913 -0.12609944 -0.2119325
0001a0 99 f8 80 be 81 d8 1a 3e 27 83 e4 3d ef b1 9a 3d
       -0.25189665 0.15121652 0.11157828 0.075534694
0001b0 cb 29 ed bd 76 53 54 3e 6f a7 30 be 69 5b 31 be
       -0.11580237 0.20734963 -0.17251371 -0.17320026
0001c0 39 4e 6c 3a ab 88 c6 be a6 4c a6 be 76 e4 2c 3e
       0.00090143416 -0.38776144 -0.32480353 0.16884026
0001d0 52 eb 77 3e 1c d3 1a 3e 8a 1d c9 bc a2 94 7f be
       0.24210861 0.15119594 -0.024550218 -0.24959043
0001e0 50 d1 6e 3e 61 85 a3 be d0 24 d9 3c d1 51 af 3e
       0.23322034 -0.31937698 0.026506811 0.34242108
0001f0 15 48 39 3d 14 68 f9 3d 81 ba 8a be c9 9b 2a 3e
       0.04523476 0.121780545 -0.27095416 0.1666099
000200 15 36 80 bc d0 3c 3c 3e af 10 b0 bd 42 62 22 3d
       -0.015650788 0.18382573 -0.08596932 0.039644487
000210 59 d1 68 3e 02 b7 d5 3d 08 9b a5 bd 5e 9d 3b be
       0.2273611 0.104352966 -0.080862105 -0.1832175
000220 90 d3 d6 3d e3 42 bb bd 3c 60 03 be ed 6e 83 3d
       0.10489571 -0.09143617 -0.12829679 0.06417642
000230 92 11 6b be bb 89 2e 3d 2b 93 32 be 9b 6b 02 be
       -0.22955921 0.04261182 -0.17438953 -0.1273636
000240 ab 3e cd 3c 70 3d 35 bd ec 26 9a bc 46 3b 74 be
       0.025054296 -0.044248044 -0.018817388 -0.23850736
000250 a5 f8 9c 3e 55 4f 2e be d5 a9 1b be f2 0d 3b 3e
       0.3065845 -0.1702245 -0.15201505 0.18267038
000260 a3 04 0e be 94 c9 81 3c 73 97 66 3e d1 c2 61 bc
       -0.13868956 0.01584319 0.22518711 -0.013779358
000270 4b eb 0f 3e be b6 97 be cf be 98 bd ee 89 bd 3b
       0.14054601 -0.2963161 -0.07458269 0.0057842648
000280 66 6a 84 be 6e 50 f3 bd 01 5a 04 be 65 8f 71 be
       -0.25862426 -0.11880575 -0.12924959 -0.23589857
000290 c4 d5 96 bd d3 6d f2 bd 78 f7 00 bd 7a f9 ce bd
       -0.07364991 -0.118373536 -0.031486005 -0.10106178
0002a0 f3 46 71 3e e0 10 73 3e cb 56 47 3e 51 00 53 3c
       0.23562221 0.23736906 0.19466703 0.012878493
0002b0 07 7f cf bd c4 e3 8a 3d 95 d1 0f be ce 47 54 be
       -0.101316504 0.06781724 -0.14044793 -0.20730516
0002c0 97 32 34 be 35 8e b9 3d 06 11 55 bd c8 a7 72 3d
       -0.17597423 0.09060327 -0.052018188 0.05924204
0002d0 7b 25 ea bd fa 7b 1c 3e f4 3f 75 be 09 98 b6 3d
       -0.1143293 0.15281668 -0.23950177 0.08915717
0002e0 a7 74 9e 3d a3 f9 51 3d 66 6d 8e be 47 c8 73 3e
       0.077370934 0.051263463 -0.2781784 0.23806868
0002f0 4c 7e d3 3d f2 98 f0 3d b3 13 8f 3d 38 46 5c 3d
       0.103268236 0.11747922 0.06986179 0.053777903
000300 d0 03 11 bc d8 5c d4 bc d1 f8 02 be 00 c1 91 bd
       -0.008851007 -0.025923178 -0.12790228 -0.0711689
000310 b1 5a 61 3e ad ba d6 3d 71 aa 84 3e 28 43 41 be
       0.22007252 0.10484824 0.25911286 -0.18873274
000320 d4 47 3e 3e c8 1c 8b bd 7d 0c 4b be 06 cc ff bd
       0.18582088 -0.06792599 -0.19828983 -0.12490086
000330 f1 30 0a 3d 40 d0 10 3e 08 05 a6 3c e1 48 8d 3d
       0.03373808 0.14141941 0.020266071 0.06898666
000340 25 42 b6 3c e7 fb 32 3e 60 8c 5e 3d 72 06 9e bd
       0.022248337 0.17478906 0.05433309 -0.07716073
000350 f8 df 2d be dd d4 05 3e ef a6 bb be b9 8f a7 bb
       -0.16979969 0.13069482 -0.36650798 -0.0051135686
000360 a8 11 8b be ed 3b 03 3e 71 5d b0 3e 34 f6 d2 be
       -0.27161908 0.12815829 0.3444629 -0.41203463
000370 a3 da 46 bc bd 26 96 3d 4e 98 a0 3c 81 01 c3 3d
       -0.012137088 0.073316075 0.019603875 0.09521771
000380 da fd d0 3d 6f 60 17 be dd 2c 38 3d 9c 86 11 be
       0.10204668 -0.1478288 0.04496466 -0.14211506
000390 a0 4a a4 3d d7 9a 05 3e b2 2f 17 3e 23 b6 2b be
       0.08022046 0.13047348 0.14764288 -0.16768698
0003a0 ec 50 bd bd b5 45 a0 be 5e ad 4a be 18 ce b0 be
       -0.0924395 -0.31303182 -0.19792697 -0.34532237
0003b0 a9 07 78 bd 34 6c 37 be 06 b9 a6 bd da 4c cc 3d
       -0.06055418 -0.1791237 -0.08140759 0.09975596
0003c0 9c 08 3d be b4 6b 09 3e 92 5b 03 3e f7 cd b6 3d
       -0.18460315 0.13419992 0.128279 0.089260034
0003d0 67 46 28 3e 3f e0 8e 3e f3 cb 3c 3d bd 20 bf 3d
       0.16433106 0.2790546 0.04609294 0.09332416
0003e0 00 a6 b0 bd ca 41 7e be ff da e5 3d 14 a0 ca 3d
       -0.08625412 -0.24829784 0.11223411 0.09893814
0003f0 5a 10 5f bd 0b 7e 47 3d 6a d9 07 bd 0d 4b ce 3d
       -0.054458953 0.04870419 -0.033166327 0.100729086

graph_embed_generation.mlp.0.bias f4 [32]
000000 1f c8 d5 3d 29 11 48 bd 18 b2 9a bd ad ea a7 bd
       0.10438561 -0.04884449 -0.075535 -0.08199058
000010 06 21 29 3e e9 9f c1 bd f9 c8 05 be b2 d1 87 bd
       0.16516504 -0.094543286 -0.13064946 -0.06631793
000020 f4 41 1f 3d 3c 71 38 3d 0d f1 90 3d 66 a0 95 bd
       0.038881257 0.045029864 0.07077227 -0.07305984
000030 9c 7e 4d bd ae af f1 3d 68 8b 87 3c 4c 4e 84 bd
       -0.050169572 0.11801086 0.016545966 -0.064602464
000040 fa 03 bc 3c cd 84 e4 3d c4 53 98 3d 4b 04 f2 bd
       0.022951115 0.11158142 0.07437852 -0.11817225
000050 12 1a 4d 3d f7 6a 59 bd 7f 35 c9 3c 32 97 70 bd
       0.05007369 -0.053080525 0.024561642 -0.05873794
000060 93 0d 8d bd 3f be cc 3d 26 93 e4 3d 3a 01 cd bd
       -0.06887355 0.09997224 0.11160879 -0.100099996
000070 16 36 1f 3c d8 df b5 3d 46 91 30 bd eb 5c 1a bd
       0.009717485 0.088805854 -0.043107294 -0.03768627
