results/checkpoints/smartmap_ONE_HOP_4x4.pth (torch, 61410 bytes, 26 tensors)

graph_embed_generation.gat_dfg.att_src f4 [1, 4, 32]
00000000: f31f 02be add7 2c3c 91bd debd f612 36bd
00000010: 935e 8ebd 858e 8e3d 645d 0cbe 4c42 693e
00000020: 1773 34bd aba6 afbd 5ac8 833c d4e4 33be
00000030: d520 213e 22d1 493d 57f9 fabd 070f 5f3d
00000040: a907 17be e739 34be f72d a73e 04dc 0d3d
00000050: b734 813e 1e8e fb3d d94c a6bd 314c c93d
00000060: 3eb9 d93d ff25 823d 148f c2bc 6912 afbb
00000070: a64b 91be 9d8d fdbd 7e50 4cbe 99f1 4e3a
00000080: 7bf5 063c 059a 403e 0f43 a4bd 260b 43bc
00000090: 5a55 dd3d 9ba6 123e afa0 a8bd 8dea 8d3e
000000a0: 5fff dbbd 4d82 cfbd f26a 1f3e 3cce ea3c
000000b0: 0454 4dbe 82f4 af3d b909 c03e 0ae3 33be
000000c0: a975 773e 9475 fc3c 195c 7abe 5b79 903e
000000d0: cc6c 2ebe 32c2 303e 8850 aa3e 6c91 cabd
000000e0: aa5d aabd a1c5 10be 4c4a c0be b9c2 003e
000000f0: a11a 633e d200 f2bd 6931 963d 6626 0dbe
00000100: 1009 523e 459c 29bd e051 05bb 31ad b93d
00000110: 27d5 b43d 665c c93d ff15 3f3e 1722 9abd
00000120: ef7c 953d e783 1d3d 2353 5a3d bef4 febc
00000130: a2d2 b0be 54c1 413e 3755 fa3d 2555 533d
00000140: 7cb2 673d ac19 963c 2daf d43d 24a9 cfbd
00000150: a120 91bc d630 b9bd db4b 163d baf4 873d
00000160: e12c d8bd 616e 1f3d 3269 4e3d 0b43 18be
00000170: 38b4 13be 59fc cdbd ad3f 643e 7402 2cbe
00000180: d795 493e 79e0 833e a651 bc3d 0bb6 39bd
00000190: 6b7f 673e c398 33bd a6dd 98be 7dd7 de3d
000001a0: 5279 9c3c 012c 2ebe 2167 1f3e e110 0bbe
000001b0: 6474 b7bd 58d2 31be f9bd 113e 1f4c bebd
000001c0: d824 8a3d 1c43 b4bc 730a 373e c1e9 7e3d
000001d0: f6e3 fc3c 5a2a 0c3c b39e 80bd 92aa 073e
000001e0: 5330 16bc d3b0 8b3d 720d 163e 3d62 8d3b
000001f0: 1ac5 253c 4207 41be e02e a83e ab06 06bd
-0.127075 0.010549468 -0.10876001 -0.044451676 -0.06951632 0.06960777 -0.137075 0.22779197
-0.04405507 -0.08576711 0.016086746 -0.1756776 0.1573518 0.04927171 -0.12254589 0.05445769
-0.14749016 -0.17600213 0.32652256 0.03463365 0.2523553 0.12282966 -0.08120126 0.098289855
0.10631035 0.063549034 -0.023749866 -0.005342771 -0.28378028 -0.12380526 -0.1995258 0.0007894277
0.008237238 0.18808754 -0.08020603 -0.011904513 0.10807295 0.14321367 -0.08233773 0.2771801
-0.107420675 -0.10132275 0.1556814 0.028662793 -0.2005158 0.08591558 0.37507418 -0.17567077
0.24165978 0.030817784 -0.24449195 0.28217587 -0.1703369 0.1726158 0.33264565 -0.09891018
-0.08318646 -0.1413789 -0.37556684 0.12574281 0.22178127 -0.11816563 0.07333643 -0.13784179
0.2051127 -0.041408796 -0.002034299 0.09066237 0.08829718 0.09832077 0.18660735 -0.07526033
0.0729922 0.03845587 0.05330194 -0.031122562 -0.345357 0.18921405 0.12223285 0.051594872
0.0565667 0.018322788 0.10384975 -0.10139683 -0.017715754 -0.09042518 0.036693435 0.06638475
-0.10555435 0.038923625 0.05039329 -0.14869325 -0.14424217 -0.10057897 0.22289915 -0.16797811
0.19686066 0.25757197 0.09195261 -0.045339625 0.226072 -0.043846857 -0.29856604 0.10880945
0.019100819 -0.17008974 0.15566684 -0.13580658 -0.089577466 -0.17365396 0.14232625 -0.09291863
0.06745309 -0.022004656 0.1787508 0.062234644 0.030870419 0.008555019 -0.062802695 0.13248661
-0.009166795 0.06820836 0.14653566 0.0043146894 0.010117793 -0.18850425 0.32848263 -0.032721203

graph_embed_generation.gat_dfg.att_dst f4 [1, 4, 32]
00000000: 671f 9a3d 7fc4 3a3e 4ff6 16bd 53df a63d
00000010: 7f2d 8fbd cad4 1d3e 37ef 093e a227 4ebe
00000020: 5309 d23d cac7 773e 3bbc ad3d b15d 3ebe
00000030: 48f5 583d 7025 ac3d 52c7 b53d 0c6a 8abe
00000040: ad64 063d f54a c1bc 9d0a 5c3c 3485 bb3d
00000050: f029 f13d 9854 bebd 4f98 c3bc f1db 103e
00000060: a111 0abe be3e 9fbd 2b77 15be d7e0 87bc
00000070: a2b6 b43c 6b83 1c3d 1cf5 683a b72e 023e
00000080: 5409 d03d dcd6 84bd d3cb b83c 7213 333d
00000090: 0dcc 6cbe d0ab 003e dcc1 4d3c db1b f33d
000000a0: 5b64 c0bd 358f 7ebe 2352 0e3d 2d3e 4ebe
000000b0: f595 55be 04de 42bb d503 c63d 5b99 e1bd
000000c0: 3e8f 00be 0b74 70bd b0b1 61be dbca a43d
000000d0: e5bf cb3d b99a 583e 7955 a53c 2ae0 2e3d
000000e0: 2718 06be 244a eb3d 7935 48be 4bb6 ff3d
000000f0: be50 01be d6d6 0c3e 72d2 4e3e 4c72 90bd
00000100: 5e4f 8bbd 5084 f03d 5e61 ec3a b14a 3f3d
00000110: 2fd8 8d3d 1fc9 64bc 0b4b 11bd 9484 f63d
00000120: 858f 52be fc24 0bbe 31a8 863d 2d93 81bc
00000130: da68 e9bc 6e26 163e 4480 25be 0fd3 313e
00000140: b767 883e 1547 4b3d 94d6 80be cea5 50be
00000150: f0f6 9d3d 1c4f 143d 6c39 0a3e b5ce 91bd
00000160: fb82 f93d 7a64 3e3d e0c0 8ebd b2fc a9bb
00000170: 727a b83d 420b 5e3e 35e4 dfbc 27ec 933b
00000180: 6eb8 d73d 9748 a33c 08b2 5abe fe6e 333e
00000190: 8f19 433c 0237 b73d 45b5 98bb 3ac8 47be
000001a0: 9960 57bd a8ca 97bd a247 e93c 6357 eabd
000001b0: f85c f23d 6dd1 263e 242a febd 64e0 623e
000001c0: 0491 27be 5add 86be 37b3 e83d 0e3c 633c
000001d0: f22a 0f3d f748 2f3e 71d8 a4be de27 4a3e
000001e0: 537b 593e e001 6c3e 4a59 363e 3c0b afbd
000001f0: 2f57 d53d d4c2 b4bd 925b 7dbd 25db 8cbc
0.07525521 0.1823902 -0.036855992 0.081480645 -0.069910996 0.15413204 0.1347016 -0.20132306
0.10255685 0.24197307 0.08483168 -0.18590428 0.052968293 0.08405578 0.08875908 -0.27034032
0.032810856 -0.023595313 0.013430265 0.09156266 0.11775577 -0.09293479 -0.023876337 0.14146401
-0.13483287 -0.07775639 -0.1459624 -0.016586704 0.022059742 0.038211267 0.0008886622 0.12713133
0.10158029 -0.06486294 0.022558128 0.043719716 -0.23124714 0.12565541 0.012558427 0.118705474
-0.09394141 -0.24859317 0.0347463 -0.20140906 -0.20857985 -0.0029734382 0.096687 -0.11015578
-0.12554643 -0.058704417 -0.22040439 0.08046504 0.0994871 0.21152772 0.020182358 0.04269425
-0.13095151 0.114887506 -0.19551648 0.124859415 -0.12628457 0.13753828 0.20197466 -0.070530504
-0.068022475 0.117439866 0.0018034389 0.04670209 0.069259994 -0.013963967 -0.035471957 0.12037006
-0.20562561 -0.13588327 0.06575049 -0.01581725 -0.02849238 0.14663097 -0.1616221 0.17365669
0.26641628 0.049628336 -0.2516371 -0.2037575 0.07713115 0.036208257 0.13498467 -0.07119504
0.12183186 0.04648254 -0.06970382 -0.0051875943 0.090077296 0.21683982 -0.027330497 0.0045142355
0.10533224 0.019932074 -0.21356976 0.17522809 0.011907949 0.08946039 -0.004660281 -0.19509974
-0.052582357 -0.074117005 0.02847654 -0.11442449 0.11834139 0.16290827 -0.124103814 0.2215591
-0.16363913 -0.26340753 0.113623075 0.013869299 0.034953065 0.17117678 -0.32196382 0.1974177
0.2123845 0.2304759 0.17807499 -0.08547065 0.104170196 -0.08826223 -0.061854906 -0.01719434

graph_embed_generation.gat_dfg.bias f4 [32]
00000000: 55ce 6bbd de4c e23c 40e4 cd3c d530 03bd
00000010: 1fee 3abd a0e2 29bd ce68 fbbc 9c0a 6abd
00000020: 04b8 d3bc 104c e73d 5bc4 afbd 738c 413d
00000030: eb14 3abd 9336 0cbd 1d09 06bd 74a0 71bd
00000040: ab62 dc3c 29b9 66bd 853c c8bc d405 653b
00000050: e90b bb3d 7975 903c d152 c83d db96 63bd
00000060: 19ff 9c3d 9d28 3fbd ca5d aa3c 31a7 2a3d
00000070: a480 3a3d 27b3 763d 14b2 a33d 6db9 963d
-0.05756982 0.027624544 0.025133252 -0.03202899 -0.045637246 -0.041475892 -0.030689623 -0.057139024
-0.025844581 0.11293805 -0.08582374 0.047253083 -0.045430105 -0.034231734 -0.032723535 -0.05899091
0.026902517 -0.056328926 -0.02444292 0.00349461 0.09133131 0.01763414 0.09781421 -0.05556379
0.076658435 -0.04666959 0.020796675 0.041663352 0.045532838 0.060229447 0.0799295 0.07359586

graph_embed_generation.gat_dfg.lin.weight f4 [128, 9]
00000000: 0fab aa3d 0474 9a3e 8e6e 97bd 7835 433e
00000010: 3128 c53c ca1b 21be fd57 67be da8c afbc
00000020: 12f8 38be 62f3 d13c 33d1 e6bd 1179 ab3e
00000030: d807 1a3e c23b abbd 51fd ddbc a501 093e
00000040: c181 d83d 612c 8bbb bca2 c5be 78c2 5dbd
00000050: 6bbd 433e b894 5dbe 47cb 153e 3683 2cbe
00000060: 7c0c 10be 0cb2 173d 2fee eb3d 96d2 783e
00000070: 16ad 453e 86cb 28bd 6b1b 6c3d fa98 0dbe
00000080: 89d0 83be 3869 64bc a5c1 0b3e ca78 96be
00000090: 07be 073e d56f 053d 6032 003e 7428 cd3c
000000a0: 816b b03d a38d 43bd b470 25be 070b 88bd
000000b0: 8197 13be ed04 2c3e 83d7 2b3e a328 cebd
000000c0: aa3a 97bd 8716 963c c908 8e3d dfb3 223d
000000d0: d31d 8ebe 3e02 8fbe e217 d83e c574 c43d
000000e0: 242f 1e3e 59c1 a1bc fee6 c2bd 8613 eabd
000000f0: da09 dcbd 891b 8ebd 12e2 3b3e aebb 7b3e
00000100: 2210 023e 1ffa a3bd 6165 43bd f739 763d
00000110: a949 8a3e b524 1f3d f3e9 cdbd 2ef1 6bbe
00000120: 131f 0c3e 5458 7a3e 33d6 92bd 91ec 38be
00000130: c157 a4bd b1f5 1e3e e70e 753e 07a5 cabd
00000140: f653 463e d577 15bc 9c3b 69be 0a72 64be
00000150: 261a 53be f0a6 473e b44d 10be 0cc4 0abe
00000160: 5be5 953d fc21 9c3e b499 193e ecfc b03c
00000170: f861 203e 28e6 73be 9517 cd3d b680 083e
00000180: ebf1 1abe 41fe 0b3c 3945 413e da97 ebbd
00000190: f83d 80be bb1b f6bc b174 003e 8d7e 97bc
000001a0: 8d91 78bd b81e 29bd f211 8abd 2fad 3ebd
000001b0: 601e 943e 7477 8c3d f2fb 05be 0a5b 42bd
000001c0: dda1 29be 9846 993e c8a3 a6bd 7ec2 83be
000001d0: 821b 43bb 6071 363d 4950 653d d2a2 41bd
000001e0: e327 08be 1126 1b3e 7862 8bbc d72c 9a3e
000001f0: 49f1 13be cd03 093d e8f5 283d b820 39bb
00000200: 66e1 3b3d 5608 6c3e 09f4 733c 6447 ca3d
00000210: 1f7c 00be e1dc 303c a139 29bd bf33 223d
00000220: 078d 873c 805b 02be ece0 4cbe d196 213e
00000230: 827e 6b3d e77f 26bd 6440 d2bd 501c 26be
00000240: a543 b5bd c6a7 79be f2ec 8e3d 1aa2 e93d
00000250: baed 53bc fda2 f53b 628e 02be 8982 3f3e
00000260: 820a 23be 227b 603e 6989 e43d 4a51 693d
00000270: d2dc 71bc ed4a 66be 88e7 de3d eab7 083e
00000280: 8d54 3e3e 9cf0 19bd 1825 863e 94a9 6f3d
00000290: 51b0 7b3a 6327 bfbc f450 573d 2069 f13b
000002a0: 1b34 01be 7f33 13be 5f68 5c3d 70bc 053d
000002b0: 91f4 50bd 6d83 ffbb acf3 54bd 6b28 e23c
000002c0: 349f 10bd 63f9 513d 6fc1 d7bd 9f97 403d
000002d0: adee 86be 5676 ee3d e421 af3c ebb2 b93c
000002e0: 8753 943d 5085 37bd f694 953d 099d e13d
000002f0: ea21 113c 2448 b0bb 4d8d e5bc 7620 ad3d
00000300: 8db8 2bbe 54d7 03bd f0ec eebc 2057 ad3e
00000310: 23ba bcbd 8410 71bc 682f 82bc 0986 e4bd
00000320: feaf b3bd 260f 143e 38f4 5cbc d134 113d
00000330: a036 acbd 5668 913d aedc 4d3e 4280 3d3e
00000340: 3311 943e 5e46 66bd 598f 6f3d e122 5e3e
00000350: 206b 923d a439 61bd 3be8 99be 19eb 40bd
00000360: ee29 003e 8f54 20be 9716 4ebe c0d9 13be
00000370: f97a a13d 0753 ebbd c42e 8abd 5b6e 063d
00000380: 7900 9cbd 5833 193e e8f4 953e e695 133e
00000390: 5e6b d13d cb3e 3abe e4ed 233d 095a f8bd
000003a0: b693 28be b5df 01be 2c03 a6bd 5483 603d
000003b0: bd98 c0bc a41f ed3d d9b0 023e b8b1 c63d
000003c0: b1e9 d83c 5730 103d f6c2 103e 3b4d 90bd
000003d0: cbb0 86be 7153 da3d 2a8f af3c e659 4d3e
000003e0: 08b3 4dbd 932e 56bd 2a73 9a3c b2c4 a2bd
000003f0: a872 e1bc 51b0 4bbe 51a3 8d3d 7c28 d93d
0.08333408 0.30166638 -0.073941335 0.19063365 0.024067016 -0.15733257 -0.22592159 -0.021429468
-0.18063381 0.02562875 -0.1127037 0.33490804 0.15042055 -0.08361007 -0.02709833 0.13379534
0.105716236 -0.0042472337 -0.3860072 -0.054140538 0.19115226 -0.21638763 0.14628325 -0.16846928
-0.14067262 0.037035033 0.11520039 0.24299082 0.19304308 -0.04120972 0.057643335 -0.13827887
-0.25745037 -0.013941102 0.13648088 -0.2938903 0.13256083 0.032577354 0.12519217 0.025043704
0.08614255 -0.047742497 -0.16156274 -0.06642728 -0.14413263 0.16798754 0.1678143 -0.100663446
-0.07384236 0.018321289 0.069352694 0.03972232 -0.2775713 -0.27931398 0.4220572 0.095925845
0.1544767 -0.019745516 -0.095167145 -0.11429505 -0.107440665 -0.06938846 0.18347958 0.24583313
0.12701467 -0.08006691 -0.047704104 0.060113873 0.27009323 0.038853366 -0.10054388 -0.23041221
0.13683729 0.24447757 -0.071697615 -0.18058993 -0.0802455 0.15523411 0.23931466 -0.09894758
0.19367966 -0.009122808 -0.22776645 -0.22309127 -0.20615444 0.19497275 -0.14092141 -0.13551348
0.07319137 0.30494678 0.1500004 0.021604978 0.15662372 -0.23818266 0.100142635 0.1333035
-0.15131347 0.008544506 0.18874063 -0.11503573 -0.25047278 -0.03004252 0.12544514 -0.018492961
-0.060685683 -0.04128906 -0.06741704 -0.04655188 0.28929424 0.068587214 -0.13084391 -0.047450103
-0.16565652 0.2993667 -0.081367075 -0.25734323 -0.0029771035 0.044541717 0.05598477 -0.04727442
-0.13296466 0.1515124 -0.017014727 0.30112335 -0.14447512 0.03345089 0.04125014 -0.0028248262
0.045869254 0.23050055 0.0148897255 0.09876898 -0.12547348 0.010794849 -0.041314725 0.03960013
0.01654674 -0.12730217 -0.20007676 0.15780188 0.057493694 -0.04064932 -0.10266188 -0.16221738
-0.08850793 -0.24380407 0.069787875 0.114078715 -0.012935096 0.0074962364 -0.12749627 0.18702139
-0.15921977 0.21921971 0.111590214 0.05696229 -0.01476212 -0.2248952 0.10884005 0.13351408
0.18586941 -0.03758298 0.26200175 0.05851133 0.00096011633 -0.02333421 0.052567437 0.007367268
-0.12617533 -0.14375113 0.053810474 0.03265041 -0.051014487 -0.0077976496 -0.051990196 0.027607163
-0.035308078 0.051263224 -0.105349414 0.047019597 -0.2635397 0.116436645 0.021378465 0.022668323
0.07242494 -0.04480487 0.07303803 0.1101628 0.008858183 -0.0053796936 -0.028021479 0.08453457
-0.1676962 -0.032187775 -0.029165715 0.33855534 -0.0921519 -0.01471341 -0.015891746 -0.11158378
-0.08773802 0.14458904 -0.013485961 0.03545076 -0.084088564 0.070999786 0.20103714 0.18505958
0.28919372 -0.05621945 0.058486316 0.21692993 0.07149339 -0.05498661 -0.3005999 -0.047099207
0.12515995 -0.15657257 -0.20125805 -0.14438534 0.07884783 -0.114904456 -0.06747201 0.032820087
-0.07617278 0.14960992 0.2928841 0.1441265 0.10225557 -0.18188016 0.040021792 -0.12126548
-0.16462597 -0.12682994 -0.08106074 0.054812744 -0.023510331 0.115783006 0.12762775 0.09701866
0.02647862 0.03520235 0.14136872 -0.070459805 -0.26306757 0.106604464 0.02143057 0.20053825
-0.050219566 -0.05229051 0.018853743 -0.07947673 -0.027520493 -0.19891478 0.06915916 0.10603425

graph_embed_generation.gat_cgra.att_src f4 [1, 4, 32]
00000000: 518b 753d 358b 1abe 9700 eb3d 21ff 363d
00000010: 3c85 65be f1f6 8d3d 1c13 c03d 8444 51bd
00000020: a448 9d3d dfef 08be c3f3 9c3e 6888 c6bc
00000030: 18a6 b13e dc93 853d 4398 03be 57a5 ff3b
00000040: 4750 c4bd 9999 363c 5b24 f4bd b3e4 1b3e
00000050: d9ce 95bd 344e e03d eacb 4b3c 033f 9d3c
00000060: 7b9a da3d 0b2e 11bd 0c59 c93c 53d6 de3d
00000070: 1075 283b d685 153e 04fc a5bd 1f89 183e
00000080: 443c e9bd 61eb 98be 0ccb 0cbe 5fb7 403e
00000090: 5cc5 343d 79f4 173e 1956 a8bd 5518 1a3e
000000a0: 9a2c 96bd a873 143e 1a4e 8fbd 8e0c 843d
000000b0: 99f5 b8bd 8c89 023e 2868 673d 76f8 a33d
000000c0: 5840 09bd ec33 75bd 1070 2d3e ef14 793e
000000d0: 602b 083e 8a38 0dbe fae0 37be e53a 26be
000000e0: 6557 b1be b1ed 9e3d a9f9 8c3d 99d8 4a3d
000000f0: 9709 b0bc 28f2 06be 373b 443e 62e8 08be
00000100: df6a 3d3d 4c84 2fbd eaa4 3cbe 40be cdbd
00000110: 9fe6 2fbe 05e3 98be a271 39bd ae88 163e
00000120: 5e54 033e fb9d f73d f798 133e 9814 d13c
00000130: 11da 083d 03e4 a63d db17 f43c 580a e73c
00000140: bcc0 8a3e eb2d 233e 06d1 e4bc e3c7 3f3d
00000150: 4587 fa3d fbf1 cdbd 2256 b2bd 6b86 3ebd
00000160: 9a96 cc3d 2b46 a1bd 02d1 69bd 390f 983e
00000170: d444 cfbd 093f 493d 3113 afbd 4063 51be
00000180: 4b6d 643d d79a 36bd b5aa 33be 45a9 0abe
00000190: ec2a 8bbe 3415 06bd d66d 943d fb57 80bd
000001a0: b66c 87be 8b02 433d 979e 5b3d 947c 82be
000001b0: 90e2 3b3d f23a 29be 593a 1f3e a8e9 a4bc
000001c0: 83be b83d aab6 57be 85fd 213e 0b88 0dbd
000001d0: d1c6 81bd 4e94 833d 9b2c e23b 35f4 543c
000001e0: 20c9 883d 5f17 b4bc 6160 043d a267 9f3d
000001f0: 0781 80be c8a6 50be 6951 7c3d 79ff 40be
0.059947316 -0.15092166 0.11474722 0.044676904 -0.22414106 0.06931866 0.09378645 -0.051090732
0.07679871 -0.13372754 0.30654725 -0.024234965 0.34697032 0.065223426 -0.12851052 0.0078016925
-0.09585624 0.011145019 -0.11920997 0.1522396 -0.07314844 0.10952416 0.012438754 0.019195085
0.10673996 -0.0354443 0.024578594 0.10880723 0.002570454 0.14601836 -0.08104709 0.14896058
-0.11388448 -0.2986708 -0.13749331 0.1881995 0.04413353 0.14839353 -0.08219547 0.15048344
-0.07332726 0.14497244 -0.069973186 0.06447707 -0.09031219 0.12747782 0.056495816 0.080063745
-0.03350863 -0.05986397 0.1693728 0.24324392 0.13297796 -0.13791099 -0.17956915 -0.16233404
-0.3463699 0.0776018 0.068835564 0.04952297 -0.021488948 -0.13178313 0.19163214 -0.13369897
0.0462445 -0.042850778 -0.18422285 -0.10046053 -0.17177819 -0.29860702 -0.045274384 0.14700577
0.12825152 0.12090679 0.1441382 0.025522515 0.03341109 0.081489585 0.029796531 0.028203174
0.2710017 0.15935485 -0.027931701 0.046821486 0.12232832 -0.1005592 -0.08707835 -0.04651491
0.099896625 -0.078747116 -0.05708409 0.29699114 -0.1012055 0.04913238 -0.08548582 -0.20448017
0.055768292 -0.04458126 -0.17545588 -0.13541134 -0.27181184 -0.032735065 0.07247512 -0.06266781
-0.26450127 0.047609847 0.05361804 -0.2548567 0.045870364 -0.16526392 0.15549602 -0.020130947
0.09020712 -0.21065775 0.15819366 -0.03455357 -0.06336749 0.06424771 0.00690229 0.012997677
0.066789865 -0.0219838 0.032318477 0.07783438 -0.2509844 -0.20376122 0.061601076 -0.18847455

graph_embed_generation.gat_cgra.att_dst f4 [1, 4, 32]
00000000: 068a 0abe e5f7 7ebe 6f9c 943c 1d29 e73b
00000010: bec3 373e 91ae 06bd db11 79be 0c98 663b
00000020: 9cf7 6cbe ecb8 1cbe bc8d 0e3e edb2 78bd
00000030: c892 ce3e dd9b c6bd 6faa f43d 3e4a 65bd
00000040: ff40 00bc 192c 44be 95be d13d 2ab8 b43d
00000050: 9329 1abe 597a 3cbd 84a3 8ebe f357 cd3c
00000060: c465 59bd 4ba3 0e3e ee53 2abd ffe0 b4bd
00000070: 4ca9 5b3e 7023 4ebd 04e0 c0bd 857c c23d
00000080: 614f d2bd 1929 aa3d c333 003e f5ad d0bd
00000090: fca4 83bd 980a d23c 8f16 9abd a543 843e
000000a0: 7786 4cbe 8c27 86be 9027 083e 0045 bfbb
000000b0: 9ff3 4cbd 706e be3d 1ede 88bd cb68 273d
000000c0: 8cb8 86bd 9e8c 76be 7bc0 ebbb d617 233e
000000d0: ef65 8d3d 6f8b 143e 4e1b d9bd 1b44 a0bd
000000e0: 7d02 51bd 4945 91bc 6985 8e3d 5d2a fd3d
000000f0: 3b48 253e 64ba 683e 3096 e6bc 3730 0cbd
00000100: a0a4 3ebe 42c2 763c 0187 943c 292d 043d
00000110: 7045 b83d f1c5 7b3c 7a54 1dbd 0e85 6c3e
00000120: a2e4 533d ea2b 203e 04db 963c 76e7 24bd
00000130: d721 963c 0dc7 c43d 3c74 cabd c074 eb3c
00000140: 4448 fdbd f9c5 7cbe a81a ed3c b297 a1bd
00000150: 760c 7fbc 2ac2 24be 69f6 973d 7e8a 263e
00000160: 82f5 9cbb 082a 8b3e b5d0 d63d 43f4 3bbe
00000170: 8831 1c3e 950c 0bbe 603c 23be c892 20bc
00000180: 098e 96bc 197b 9ebc c257 8c3e ddd8 85bd
00000190: 2c22 2cbe ad95 03be f0ae 3a3c 34dd b4bd
000001a0: 9727 ffbd 0ba3 3a3d 4a43 dd3c 88ad 083d
000001b0: ae33 423e e6eb 89bd 9ccd 373e 3db4 1e3e
000001c0: 8145 c8bd 01f6 57be 1b34 1ebe b010 3ebd
000001d0: f597 503e d673 593b 368b 0a3e fc5d b43d
000001e0: f045 b03c 5304 c2bd 40ac d2bc edff 06be
000001f0: 38cb a4bd d39e d43d d981 16bd dd0a 243d
-0.13529214 -0.24899252 0.018141 0.0070544616 0.17945763 -0.032881323 -0.24323218 0.0035185842
-0.2314133 -0.15304917 0.13921255 -0.060717512 0.4034636 -0.09697697 0.1194657 -0.055979006
-0.007827996 -0.19157447 0.10241429 0.08824189 -0.15054922 -0.046015117 -0.27859128 0.025066352
-0.053075567 0.13929479 -0.041583948 -0.08831977 0.214513 -0.050326765 -0.094177276 0.094964065
-0.102690466 0.0830862 0.12519746 -0.1018943 -0.06427953 0.025639817 -0.07523834 0.2583286
-0.1997317 -0.26202047 0.13296342 -0.005837083 -0.050037023 0.09298408 -0.066829905 0.040871423
-0.06578168 -0.24077079 -0.0071945763 0.15927061 0.06904208 0.14506315 -0.10600911 -0.0782549
-0.051027764 -0.017733233 0.0695904 0.12361596 0.16140835 0.22727352 -0.028147787 -0.03422567
-0.18617487 0.015060963 0.018130781 0.03226963 0.08997619 0.015367017 -0.03841064 0.23097631
0.051731713 0.15641752 0.018414982 -0.0402598 0.018326683 0.096082784 -0.09885451 0.028742194
-0.12367299 -0.24684896 0.028943375 -0.07890262 -0.015566936 -0.16089693 0.07420046 0.16263768
-0.004790009 0.27180505 0.104890265 -0.18354897 0.1525327 -0.13579018 -0.15941 -0.00980062
-0.018378275 -0.019345807 0.27410704 -0.06535504 -0.1680991 -0.12850066 0.011394247 -0.08831254
-0.12458723 0.045565646 0.027009625 0.033368617 0.18965027 -0.06734447 0.17949528 0.15498443
-0.09778882 -0.21089937 -0.15449564 -0.046402633 0.20370467 0.0033180616 0.13529667 0.088069886
0.021517724 -0.09473481 -0.0257169 -0.13183565 -0.080465734 0.10381856 -0.036744926 0.040049423

graph_embed_generation.gat_cgra.bias f4 [32]
00000000: f875 45bc 9d39 7f3c 22a0 783c c73b f13c
00000010: e58a 9dbd 3003 913c 292f 5cbc 6899 7fb8
00000020: be13 86bd 6729 e73a 8dcf c23d 56ca 79bd
00000030: 17f3 e63c 651b 94bd 44b1 0abd a623 ae3c
00000040: bed1 a0bd e618 a8bd a07c b33d bc30 b8bc
00000050: 02b4 df3c 5efb ab3c a26c 863c 5947 613d
00000060: ab5c 823d 178a 663d e3dd 3cbd f969 aabc
00000070: 990c 003d 811d 2abb a01c 6ebc b4d7 1b3b
-0.012052052 0.015577701 0.015174897 0.02944745 -0.07692508 0.017701715 -0.013438978 -6.093961e-05
-0.06546734 0.001763624 0.095122434 -0.06098398 0.028192086 -0.072317876 -0.03386046 0.021257233
-0.07852505 -0.08207874 0.08764005 -0.022484176 0.027307514 0.020993885 0.016409222 0.054999683
0.06365331 0.056284036 -0.046110045 -0.020802485 0.031262014 -0.0025957527 -0.014533192 0.0023779692

graph_embed_generation.gat_cgra.lin.weight f4 [128, 7]
00000000: 33a2 933d abcf e73d cc04 2f3d dde8 2b3d
00000010: 04cf d7bc a008 333e c2b6 3ebc 80ec a6bc
00000020: f7d8 50be 9989 c23d 28b1 f1bd 8c54 3e3e
00000030: 8880 51be 8d6f f6bd 5e82 4b3d 408b 903d
00000040: 8b20 63bd 36ed 83bd 0f6a 17bb cd75 55bd
00000050: 65de 5fbc fa7b e8bd 88f8 f3bd 173d 5cbd
00000060: 4e73 d5bd ab5f 133e f649 4f3e 4102 cd3b
00000070: 07be a13b 6af5 37be ff0d 12be 6ad9 93be
00000080: 5e99 13be 95db a2be 9843 2abd 61e7 833e
00000090: b74f d7bc ef12 83bc 1f31 eebc 3981 6bbd
000000a0: 4576 6a3c 38f8 3ebe 1a8e 303e 5832 473d
000000b0: e3a2 9c3c c6b1 cfbd b329 873e 4251 da3e
000000c0: 03bf 2dbe 9b08 6e3d 5b2f cfbd 58fc 143e
000000d0: ad8f 34bc 0e4a 4e3e 998a a23d 7e83 2b3d
000000e0: a9be 2e3e 5e95 f2bd 7044 2fbd 4b8c 01be
000000f0: 43c6 0a3d 2289 0abe a373 273c 3b56 393a
00000100: b678 e93d 2ad3 2f3e af9c 523d 224a 97bd
00000110: 3c4c 21bd 1c76 babd 6917 d93d 7195 a4bc
00000120: 60cc 59bc ec6e 943e 7195 353d ef29 263d
00000130: 536c 6ebc 1f47 81be c60b 54bd dad5 aa3c
00000140: 043a fabd af0c 6abd e8e8 12be 4be3 6a3e
00000150: 2b7a 663e 0ac9 c03d 2c06 00be 673c 013c
00000160: d590 003d ecc7 debc 9d2e 503b e561 1ebe
00000170: 8a74 b03c 2b67 1e3e 2452 a5be a4a2 6dbe
00000180: 609e 1d3e a64c 563e 506e d13d a16c 5cbd
00000190: ca76 2f3e 1a11 6cbe 93e6 523d 1dec 23be
000001a0: 0409 7dbe 5004 91bd 5df8 5abe ff75 68be
000001b0: 9dda 0e3d 6de7 d3bd f747 273b eb6d b7bd
000001c0: b93c 3bbe bd98 46bd 029b 06be 9e8a e73b
000001d0: 658e 2abe edde df3d fcc2 253d b5f2 e7bc
000001e0: 771f cebd 3384 f7bd e10a 8ebd 4bc1 b5be
000001f0: 8d57 e23c 270a ba3e 74a5 31be 841c 143e
00000200: 9a7e d33d 71ca 72bd ab70 31bd 1b5b d53d
00000210: 26ce 4ebe 3d47 f23c d148 51be 9546 acbc
00000220: f090 e13c 2b4f d6bd a722 9f3c 8958 2e3e
00000230: 8f18 d13d 08d8 c5bc c339 24be 1a34 2d3e
00000240: 31d1 9dbd 9a72 e53c 6248 45be b767 a63e
00000250: 4db5 a43e e922 16be c7e5 19be ca31 aa3d
00000260: 9d3c af3d 7e25 cf3c 23a4 79bd abbe 9cbd
00000270: 064b 9abc 1819 54be e8fd 3bbe 6323 fa3c
00000280: 80f9 0fbe f266 7a3d 38d2 863e e64d 3d3e
00000290: 7f4d 2abd 161b a73e f1a8 62bd 8af7 a2bd
000002a0: b5c0 83bc 768f 103e 99bc 1e3e ad3e d63b
000002b0: a92f 893d 054b 3c3d a8e5 a0bd 6dfa 08bd
000002c0: 3e6e 0c39 6eaf 5f3b 263a ba3d 418d 893d
000002d0: ed6d 393e 37de d7bd a7de 013e c72e 7f3d
000002e0: e9a0 cabd cbae 483d 6377 0f3d 0da7 3cbe
000002f0: e8b4 d1bd 3f46 7dbd 863b 10bc 6350 cdbb
00000300: 268f ec3d c560 c9bc aada 0ebe 5c53 783d
00000310: e4b9 02bd be2f 843d a391 6e3d 4b23 823e
00000320: 2c55 643e 5a24 8f3d b8f3 b5bd ca0c 49bd
00000330: 94d3 5ebd 0800 583d 2ca7 34bd 3517 cb3d
00000340: 4ba7 5abe f236 4abe eaf6 c03d b52d a7bd
00000350: 3509 a1bd 9e0d 47bd 4f7a c9bd c9b1 3dbe
00000360: 3cbb 343e 80e8 16be 885a 5ebe 1c0d d9bd
00000370: a0f4 cabd 21f0 16bd d783 d63d 15b7 9fbe
00000380: be2c 383e 3c72 c5bd ef35 383d 8eb7 0bbd
00000390: 36c5 393b 2570 3abc 71c4 183e d634 84bd
000003a0: 104c 413e 41a5 e83d 04cc b33d feb5 2bbd
000003b0: 09cc 13bd 592c 57be 4854 073e 699d e03d
000003c0: 9252 03bd 1c0b 983d 394e 3ebd f9a7 143e
000003d0: bf56 4fbe cb0b 383e e8b8 bdbd 880d efbd
000003e0: 1a52 213e 61f6 bd3c 7825 dc3a 3044 a93d
000003f0: b0a0 36bd e79c 72be d77c 403d 94fe acbc
0.072086714 0.113189064 0.042729184 0.041970123 -0.02634383 0.17483759 -0.011640253 -0.020376444
-0.20395266 0.09498901 -0.11801368 0.1858694 -0.20459187 -0.120329954 0.049684875 0.0705781
-0.055450957 -0.06441729 -0.0023103987 -0.052114297 -0.013663863 -0.11351772 -0.11912638 -0.053769197
-0.10422383 0.14391963 0.20243058 0.006256372 0.004935983 -0.17964712 -0.14263152 -0.2887681
-0.14413974 -0.31808153 -0.04156837 0.25762466 -0.026283128 -0.01600024 -0.029076157 -0.057496283
0.014310424 -0.18649375 0.17241707 0.048631996 0.01912064 -0.101413295 0.26399 0.4264012
-0.16967396 0.058113676 -0.10116454 0.14549387 -0.011020583 0.20145437 0.07936592 0.041873448
0.17064919 -0.11844896 -0.042789876 -0.12651174 0.033880483 -0.13528875 0.010220441 0.0007070039
0.11399977 0.17170396 0.051418956 -0.073871866 -0.039379343 -0.09104559 0.10600168 -0.02009079
-0.013293356 0.28990877 0.04433197 0.040567335 -0.014552194 -0.25249574 -0.05176904 0.020853925
-0.12218097 -0.057141002 -0.14346659 0.22938268 0.22507541 0.09413345 -0.12502354 0.007887936
0.031388123 -0.02719494 0.0031766065 -0.15467031 0.021539945 0.15469043 -0.3228923 -0.23206574
0.15392447 0.20927677 0.102261186 -0.053814534 0.17135158 -0.23053399 0.051489424 -0.16008039
-0.2471047 -0.07080901 -0.21383806 -0.22701262 0.034876455 -0.10346875 0.0025525072 -0.08956512
-0.18284883 -0.048485506 -0.13145068 0.007066085 -0.16655882 0.109311916 0.040469155 -0.028313974
-0.10064595 -0.12085762 -0.06935669 -0.35499033 0.027629638 0.3633587 -0.17348272 0.14464003
0.10326882 -0.059275094 -0.04332034 0.104177676 -0.20195827 0.029574985 -0.20437934 -0.02102975
0.027534932 -0.10464319 0.019425703 0.17025961 0.10209762 -0.024150863 -0.1603766 0.16914406
-0.07705916 0.028008748 -0.19265893 0.32501003 0.32169572 -0.14661755 -0.1502906 0.08310278
0.08556483 0.025286432 -0.06094755 -0.076535545 -0.018834602 -0.20712698 -0.18358576 0.030534452
-0.1406002 0.061133333 0.2633226 0.18486747 -0.041577812 0.32637852 -0.055336896 -0.079573706
-0.0160831 0.14117226 0.15501632 0.0065382333 0.066985436 0.04596998 -0.078563035 -0.03344195
0.00013392509 0.0034131664 0.09093122 0.06716395 0.1810834 -0.10540431 0.12682591 0.06230047
-0.098939724 0.04899482 0.035025965 -0.184231 -0.10239583 -0.06183457 -0.008803254 -0.0062656864
0.11550741 -0.024582276 -0.13950601 0.060626373 -0.03191556 0.064544186 0.05824436 0.2541755
0.22298115 0.069893554 -0.08884376 -0.049084462 -0.054400995 0.052734405 -0.04410474 0.09916536
-0.2135288 -0.19747522 0.09422095 -0.08163015 -0.07863084 -0.04859697 -0.09837782 -0.18524851
0.17649549 -0.14737129 -0.21714222 -0.105982035 -0.0990994 -0.0368501 0.10474365 -0.31194368
0.17985818 -0.09640929 0.04497331 -0.0341106 0.0028346307 -0.011379276 0.14918686 -0.0645539
0.18876672 0.11359645 0.08779147 -0.04192161 -0.036083255 -0.21013011 0.13215744 0.109675236
-0.032061167 0.07423994 -0.046461318 0.14517201 -0.20247935 0.17973249 -0.09263784 -0.11672503
0.15753976 0.023188772 0.0016795835 0.08264959 -0.044586837 -0.23692666 0.046994057 -0.021117486

graph_embed_generation.fc_metadata.weight f4 [32, 9]
00000000: 79ce 10bd de64 9e3d 4e7f 96bb 28e9 26be
00000010: 2597 363e f46a 99be 6d8a 6abe 6c6d 97bd
00000020: d53e abbe 90a4 4fbc 4f30 62be 3bf7 e63d
00000030: a699 853e b656 0bbe 54f4 f33e b3f3 f3be
00000040: 8c3f 803d 3fd3 1a3e 52b0 e7be 6e10 9f3e
00000050: a855 ad3d aee9 4d3e 8760 2a3e e173 e7be
00000060: 94d7 9ebe 30ce ccbe 64fa a43e bcf5 9e3d
00000070: 0f1b 71be c922 9abe cb37 703d 37f9 72be
00000080: 944d 883e a893 073e 6376 d4be 770e a03d
00000090: 79cb 85be 0226 9d3d c224 fdbd add5 65be
000000a0: ec9e 663e 9355 593e d05f 263e 6fa8 65bd
000000b0: 071b d13d 876f b33e 3dc3 193f 7165 6d3e
000000c0: fe42 90be 9664 33bf 3ade 0a3e 80b2 8b3d
000000d0: 93dd 923d 0737 94be d44a 20bd 5912 773d
000000e0: 0518 a03e 2b9f 8abe 36a5 82be 3093 953d
000000f0: f8b3 aebd 5c8b c3bd 69fb 373e c6dc 54be
00000100: dbfd 913e b9a8 5ebe b49b 8f3d a5af 363d
00000110: 1343 dbbe b917 61be 663f 0e3e f792 aabe
00000120: c6f2 22be cb33 c83b 591b 2a3e 3bb2 99be
00000130: 9177 133e 4638 2a3e 09b9 793e 3f15 3e3e
00000140: 5d32 c7bd 30fd 7bbe 7aad 0d3e 5f3f a0bd
00000150: a261 27be feea 773d 09d2 203d 13c9 ad3e
00000160: 870b 18bf 1527 ebbe cfa4 4d3d 87e6 9ebd
00000170: e819 7c3e 62a3 06be 1318 e83e 6dab e6bd
00000180: 5a02 c53d 9ed4 813e 7254 70be bb2f b9be
00000190: c2ba 913d cc00 a6be 6bc5 cf3e 03a5 82bd
000001a0: 8d13 653e d401 de3c 3a65 7bbe 865f 9f3d
000001b0: 5e0b 363f 3c0b 5c3e eeda c9be 0d76 1dbe
000001c0: d9d1 2d3f 22bc cc3d d28f 34be f807 38bd
000001d0: 0129 563e 7576 b93a fc1e b9be a84a c2be
000001e0: f11c debe ad44 8dbe c439 e7be dd6c 5a3d
000001f0: eb11 08be 1116 7fbd c39c 62be 7950 d93d
00000200: 1e34 f3be 6bcf 23bd 9f5c dcbd 80b4 413e
00000210: 3e81 ccbb 5e1b b03e 9921 223e 7ee8 013e
00000220: fcff 4a3e de23 643d 8504 673d 90a9 8b3e
00000230: 2ded 9f3d 97ba db3e 76e3 0abe c283 d23e
00000240: 83ed 7dbe 1f85 9b3e d84c 61bd 83ea cc3e
00000250: f504 913d fd14 a33e 9270 8dbc 0d46 f33d
00000260: 8519 eebe 5812 aa3e bf2b 2a3e be11 0b3f
00000270: ba04 a83c f5f1 a7be b1ad 0bbe c1b7 143e
00000280: f292 98be 45f1 683e f32b d43d ffaf 15be
00000290: 9fa8 4d3c 3cb9 193c 1ee7 b0bd 7414 a43e
000002a0: bc9a 09bf 55e5 9ebe 83e3 3dbe 8292 9fbe
000002b0: 6bc2 723d 72d1 ea3d c44a dcbd e4d4 273e
000002c0: 1307 3c3e 6067 cb3d d0e3 813e 8cbe 173e
000002d0: 06dd b53d 5b5c 193f c29f e7be 6e0e 27be
000002e0: 8583 7b3d ab8f 24be aeb7 babe e544 14be
000002f0: b451 ea3d a14a 863d e3db d8be 8f88 26be
00000300: 528a 133d 32c7 b9bc 8d06 afbe 9289 343d
00000310: 2f3f c33e ed62 69bd cc58 f6bd 5a30 983b
00000320: 1f8f eb3e 85b8 723e 71ca 763d 0434 94bd
00000330: 5889 03be 365f a23d 63a2 a0bd b9f4 1b3e
00000340: ca90 52bd 3a4d 3e3d 2755 22bd 0267 d23d
00000350: 2c11 693e 9a10 f73e f842 823d 7929 a13c
00000360: e00e 8ebd 83b2 69bd c580 a73e 9c12 0cbf
00000370: c73e 943d a82e 563e 3823 c5be 6838 21bd
00000380: 5274 913e 224a 2ebe ae6f c83e 48e9 833d
00000390: 912d 0abe 43e3 823e fd6b a8bb 1b81 363d
000003a0: 8532 973d 63c3 7fbe 5f86 11bd a413 d23c
000003b0: 0887 813e c137 3e3e 84ef 0f3e f013 2abe
000003c0: 9a05 29be 60fd 7e3d e17a 083e ca58 223d
000003d0: f162 73bd c07b 42be d2e6 083e c87e 0c3e
000003e0: 6c31 993e ddab ab3d a13a 3cbe 1df3 13be
000003f0: 8b9c 043e 26f6 4e3d 2490 813e fd9a 343e
-0.035353158 0.07734083 -0.0045928126 -0.1629988 0.17831095 -0.2996441 -0.22904368 -0.073939174
-0.33446375 -0.012673512 -0.22088741 0.11277624 0.26093787 -0.13607296 0.47647345 -0.47646865
0.062621206 0.15119646 -0.4525171 0.31067222 0.08463603 0.20108673 0.16638385 -0.45205596
-0.31023848 -0.4000106 0.32222283 0.07761714 -0.23545478 -0.30104664 0.05864696 -0.2372788
0.26621687 0.1323992 -0.41496572 0.07815259 -0.261318 0.07673265 -0.123605266 -0.22444792
0.22521561 0.2122405 0.16247487 -0.056068834 0.10210233 0.35046026 0.60063535 0.23183228
-0.2817611 -0.70075357 0.13561335 0.068211555 0.07171168 -0.28948233 -0.03913386 0.060320232
0.31268325 -0.2707456 -0.2551667 0.073034644 -0.0853042 -0.09548065 0.17966999 -0.20787343
0.2851399 -0.2174405 0.0701212 0.0446011 -0.4282461 -0.21981706 0.13891372 -0.3331525
-0.15912923 0.00610969 0.16611995 -0.30018792 0.1440108 0.16623029 0.24386992 0.18562792
-0.09726403 -0.24608302 0.13835707 -0.07824587 -0.16345838 0.06052684 0.039262805 0.3394247
-0.5939259 -0.45928255 0.050206 -0.07758813 0.24619257 -0.13148263 0.45330867 -0.112631656
0.09619589 0.25357527 -0.23469713 -0.36169228 0.07115699 -0.32422483 0.40580305 -0.0637913
0.2237074 0.027100481 -0.24550334 0.077818915 0.71111095 0.2148866 -0.39424843 -0.15377064
0.6789833 0.09996821 -0.17632988 -0.044929475 0.20914079 0.0014149683 -0.36156452 -0.37947583
-0.43381456 -0.27591458 -0.4516126 0.053326476 -0.13288085 -0.062276904 -0.22130112 0.10611052
-0.475007 -0.03999273 -0.107598536 0.18916512 -0.006240993 0.3439588 0.15833129 0.12686345
0.19824213 0.055698268 0.056400795 0.27277803 0.078089096 0.42915794 -0.13563332 0.41116148
-0.24797635 0.30375 -0.055004925 0.40022668 0.070810236 0.3185195 -0.017265592 0.118785955
-0.46503845 0.3321712 0.1661825 0.5432395 0.020510066 -0.32801786 -0.13640477 0.14523222
-0.2979961 0.22748287 0.10359945 -0.14617918 0.012552409 0.009382542 -0.08637832 0.32046854
-0.5375173 -0.3103434 -0.1854382 -0.31166464 0.059267443 0.1146573 -0.10756448 0.16389805
0.18362074 0.099318266 0.2536912 0.14818782 0.088800475 0.5990655 -0.45239073 -0.16314098
0.061404724 -0.1607043 -0.3646826 -0.14479406 0.11441365 0.06557203 -0.4235526 -0.1626303
0.036020584 -0.022677992 -0.34184685 0.04407651 0.38134143 -0.05697911 -0.120286554 0.004644436
0.4600763 0.23703201 0.060251657 -0.07236484 -0.12845361 0.07928316 -0.07843473 0.15230073
-0.051407613 0.046460368 -0.03963199 0.102735534 0.22760457 0.48254853 0.063604295 0.019673096
-0.06936431 -0.057055008 0.3271543 -0.54715896 0.07238536 0.20916235 -0.38503432 -0.039360434
0.28409058 -0.17020467 0.39147705 0.06440979 -0.13493945 0.25564012 -0.0051398263 0.04455672
0.07382683 -0.24976878 -0.035528537 0.025644131 0.25298333 0.18575956 0.14056212 -0.16609168
-0.16506043 0.062253356 0.13328125 0.039635457 -0.05942053 -0.1899252 0.13369301 0.13720238
0.29920518 0.0838239 -0.1838174 -0.14448209 0.12950341 0.050527714 0.25305283 0.17637248

graph_embed_generation.fc_metadata.bias f4 [32]
00000000: 9c20 283d e27d 06be ba10 27be 9686 19be
00000010: 48e7 95be fcc2 5d3c 1a5e f43d aa17 ee3d
00000020: 69e6 2a3e 92b8 bf3d b6b6 3f3e 7bb7 bd3e
00000030: f22c 75bd f6c3 b7bd c132 9b3e 90b0 5d3e
00000040: 2472 34bc 9801 9fbe de74 af3d 91d4 5ebe
00000050: 3785 983e d06a 04be 28e9 303e fa6c d13d
00000060: 2f89 11be 2ab0 f6bd 1312 e5bd 9cfd e93d
00000070: d30a 9e3d a4dd 8ebe 583b 28be 1ace 6b3e
0.041046724 -0.13133958 -0.16314974 -0.14992747 -0.29278016 0.013535257 0.11932011 0.11625607
0.16689457 0.09361376 0.18722042 0.37054047 -0.059857316 -0.089729235 0.3031216 0.21649384
-0.011013541 -0.31055903 0.085672125 -0.21760775 0.29789135 -0.1293137 0.17276442 0.10225864
-0.14212488 -0.120453194 -0.11185088 0.11425325 0.07716908 -0.27903473 -0.16428888 0.2302784

graph_embed_generation.mlp.0.weight f4 [32, 96]
00000000: 7942 fe3d c224 53be 13f0 8abe ec5e 70bc
00000010: 6120 2bbd 0f62 80b9 19cf 15bd ea60 473d
00000020: fae5 aa3d a245 ddbe 0c00 46bd a5b9 b5bd
00000030: 4374 bf3d 95f9 983e dbc8 04bc c7fe d23d
00000040: 2db1 4abd 002f ed3c 79c6 4f3d 23c9 0cbe
00000050: 325f cc3e fe48 94bd e1ea 913b 5e43 a53e
00000060: 4577 893d 682d a73d 2438 4f3e 2ab1 b73d
00000070: 630a efbc d56d 6ebd 73f0 dfbd 0e97 a0bd
00000080: 40cb 7fbc a239 6abd ce04 c03d 5a60 25be
00000090: 09cd 44ba 95e6 27be e7d5 53bd 666e 1e3c
000000a0: aed1 d03d 7ecf 56be 1981 d0bc dd1a 0d3d
000000b0: 523c 483d 2acb 1f3e 35f4 b0bd 15e0 50bd
000000c0: b0e6 0bbc 755d 263e c6fa 15be 641f 913c
000000d0: b5e6 dfbd 67e0 bbbd 2dd8 a23d b4c9 afbd
000000e0: 46a6 a0be 37f9 c9be 6631 553e aea7 1d3e
000000f0: 0c71 9abe 62f0 66bd 1352 043e b476 53bc
00000100: 3754 3f3d 34b4 613e 82fe 4fbd 36ed b53d
00000110: 4762 ca3d 2ed6 9dbc eae3 703e f78c bebd
00000120: d1af c33c 7435 8bbe 8dd8 b4bd 32d6 023e
00000130: 3e9a 12be 6fc8 c3bc c586 dfbd 4855 7cbd
00000140: 71f1 4bbe 617f 99bd df5e 04be 1cb9 bd3d
00000150: 52bc 9f3d 42d9 b33e ddea e3bc fcf6 343e
00000160: a26c 4ebd 2504 2c3e 67e8 203d 0f61 babd
00000170: fb99 bd3d 4210 e9bd 2c09 21be 559f 423e
00000180: 24da d9bd 3766 853e 3b25 3d3e 62aa 7ebe
00000190: 95a9 89bc d794 0fbb 1611 1bbe 4f85 a2be
000001a0: 443d 77be 5680 fa3d 09aa a83d c326 4d3c
000001b0: 597b 00be 23b5 943d 354e 00be ddf1 14be
000001c0: fa4a c13a 8dbe bfbe cc12 a3be afba 6d3e
000001d0: cad8 813e 01ed 183e acb5 bcbc aca4 51be
000001e0: 93e4 563e f4e2 97be 56a6 dd3d f438 a33e
000001f0: 330c 38bb adba b23d 6d74 3dbd d8f0 183e
00000200: 4e2a 0cbd 958b 5c3e de82 46bd f596 243d
00000210: 7feb ca3d bf7d da3d 7b08 98bd 73a0 3fbe
00000220: 67b7 ecbb d701 e3bd e352 19bd 4642 723d
00000230: 5c23 57be 23f8 2b3b 803f 1fbe 33af e9bd
00000240: cf82 a5bc adc3 2bbe 4453 963d 4da3 92be
00000250: 7b43 b73e 3e9c 17be e7c2 0bbe cc4f 5e3e
00000260: 6441 d6bd 21c5 f03d 0c06 3e3e 60e2 3dbd
00000270: 37c7 443e edf6 96be bace a7bd 98d5 ba3c
00000280: caee 65be cad0 06be ef57 f4bd 012a 84be
00000290: 8e47 94bd f282 ffbd 6695 4ebd 77a8 c4bd
000002a0: 4fb1 643e fd57 723e 6a2e 5f3e 2045 6a3c
000002b0: dd1d bebd 38f0 4c3d 0eb7 18be 92b8 41be
000002c0: 1530 1cbe 0bfa b53d c5d8 13bd 1010 5a3d
000002d0: c5d5 dcbd 6967 0f3e 8407 61be 4dbe a73d
000002e0: dc4a 993d c681 8c3d 5d3e 5dbe 6613 7f3e
000002f0: b21e e53d 9f1c 013e 39c0 bd3d efb9 3f3d
00000300: 5991 7dbe ee68 1c3e eb76 6a3d 9336 89be
00000310: 8e95 303d e894 e0bd 6cad ca3d 55b6 72be
00000320: df5f 7b3c 09df 243e a62e aabe a656 dc3d
00000330: 2372 c8bd 6518 a83d a495 30be 1890 a7bd
00000340: f523 093e 383a 7a3d 9103 e3bd 270c bb3b
00000350: 8bb1 933d 113a 3e3e 64fe 13be a81e 49be
00000360: 3b9b 53bd bed4 f1bd 37fd 863e d052 77be
00000370: ad37 3f3e 16ff 923e 8eb9 083d 2eb6 963e
00000380: d224 0b3e 615c e4bd 8502 1a3d cf61 39be
00000390: eedc f5bc e025 f53d b235 eb3d 429e e6bd
000003a0: a8e2 1dbe 77a6 8dbe 7076 2dbd 346c cfbe
000003b0: 7d96 04bb bb37 9abe b361 fcbd 840a 703d
000003c0: 3daf 93be 9c97 df3a 7daf 473e 0cea 863d
000003d0: af3c 6e3e 8347 b43e dff4 6c3c a607 5d3e
000003e0: 8618 cdbd b69b f8bd b4a1 e73d 725d 863d
000003f0: 0215 f93a 1c9b a73c 7b07 6c3b 8cc5 8b3d
0.124150224 -0.2061949 -0.27136287 -0.014671069 -0.041778926 -0.00024487122 -0.036574457 0.04867641
0.08344646 -0.43217188 -0.04833989 -0.088732995 0.09348347 0.29877916 -0.008104528 0.10302501
-0.049485374 0.028953075 0.050726388 -0.13748603 0.39916378 -0.07240485 0.0044530486 0.3227796
0.06712202 0.081629574 0.2023626 0.08969338 -0.029179757 -0.058210213 -0.10934534 -0.078413114
-0.015612423 -0.05718387 0.093759164 -0.16150036 -0.0007507359 -0.16396554 -0.051717665 0.009669876
0.10196243 -0.2097759 -0.025452184 0.034449447 0.04888565 0.15604845 -0.08640329 -0.05099495
-0.008538887 0.16246589 -0.14646444 0.017715164 -0.10932676 -0.09173661 0.079513885 -0.08583394
-0.31376857 -0.39447948 0.20819625 0.15395996 -0.30164373 -0.05638159 0.12921934 -0.012906719
0.046711173 0.22041398 -0.050779827 0.08883135 0.09882026 -0.019267168 0.23524442 -0.09304231
0.023887547 -0.2718922 -0.08830366 0.12777022 -0.14316651 -0.023899285 -0.10914377 -0.061604768
-0.19916321 -0.07494999 -0.12926815 0.092638224 0.07799591 0.35126692 -0.027821952 0.17672342
-0.05039657 0.16798456 0.039284136 -0.09100544 0.09257885 -0.11380054 -0.15726155 0.19006093
-0.1063731 0.26054546 0.18471234 -0.24869683 -0.016804496 -0.0021908784 -0.15143237 -0.3174233
-0.24144465 0.122315094 0.08235557 0.012521449 -0.12547053 0.072611116 -0.12529834 -0.14545389
0.0014747076 -0.37450066 -0.31850278 0.23215745 0.2536071 0.1493416 -0.023035847 -0.20472974
0.20985632 -0.2966534 0.10822742 0.3187939 -0.0028083443 0.08727012 -0.04625361 0.14935625
-0.034220032 0.21537621 -0.04846465 0.040183026 0.099081986 0.106685154 -0.074234925 -0.1871355
-0.0072240117 -0.11084335 -0.037432563 0.059145235 -0.21009582 0.002624043 -0.15551567 -0.1141037
-0.020203976 -0.16773863 0.073401004 -0.28640214 0.3579367 -0.14805695 -0.13648568 0.21710128
-0.10461691 0.11756349 0.18556994 -0.046358466 0.1921662 -0.29485264 -0.08193727 0.022806928
-0.22454372 -0.13165584 -0.119308345 -0.25813296 -0.072402105 -0.12476148 -0.050435446 -0.096024446
0.22333263 0.23666377 0.2179505 0.014298707 -0.0928304 0.050033778 -0.1491358 -0.18918064
-0.15252717 0.088855825 -0.0360954 0.053237975 -0.10782961 0.14004292 -0.21975523 0.08190594
0.074849814 0.0686069 -0.21605821 0.24909744 0.11187495 0.12608574 0.09265179 0.04680818
-0.24762477 0.15274402 0.057242315 -0.2679945 0.043111376 -0.109659016 0.09896359 -0.23702367
0.015342682 0.16100706 -0.33238715 0.107587144 -0.09787395 0.08207778 -0.17244583 -0.081817806
0.13392623 0.061090678 -0.110846646 0.005708236 0.07211598 0.18576838 -0.14452511 -0.196406
-0.05166171 -0.118081555 0.26365063 -0.24152684 0.18673582 0.2871024 0.033380084 0.29435867
0.13588265 -0.111504324 0.03760006 -0.18103717 -0.030012574 0.11970115 0.11484851 -0.11260654
-0.15418494 -0.27666065 -0.04234928 -0.4051224 -0.00202313 -0.30120644 -0.12323322 0.05860378
-0.28844634 0.0017058733 0.19500537 0.0658761 0.23265336 0.3521081 0.014462679 0.21584949
-0.10014443 -0.121390745 0.11310139 0.06560792 0.0019003453 0.020459704 0.00360152 0.068247885

graph_embed_generation.mlp.0.bias f4 [32]
00000000: c7b4 683d 1849 57bd 1e58 a0bc d98c 96bd
00000010: 3d8f c73d 28b8 cdbc eeaa b5bd 4819 87bc
00000020: 43bb a63c 1202 7e3d 104e 063e 9471 c8bd
00000030: 01f3 94bd ebbe d23d eb8a 173d fbbf 47bd
00000040: ed9e 0f3d 8a6f e73d 065f 163c cb97 dfbd
00000050: 628b 9a3d 0cb5 83bd 570e f43c a9b1 a6bd
00000060: 7431 2b3c 4206 2a3e da47 793d 8c03 8fbd
00000070: 2e5b 42bc 6c25 5338 c599 71bd 7e38 11bd
0.056813028 -0.052559942 -0.019573268 -0.07351083 0.097441174 -0.025112227 -0.08870493 -0.016491547
0.020352965 0.062013693 0.13115716 -0.09787288 -0.07272912 0.10290321 0.036997717 -0.04876707
0.035063673 0.11300571 0.009177929 -0.10917624 0.075461164 -0.06431016 0.029791994 -0.08139355
0.010448802 0.1660395 0.06085954 -0.069830984 -0.011862559 5.0341172e-05 -0.058984537 -0.035454266

graph_embed_generation.mlp.1.weight f4 [32, 32]
00000000: 4415 a23e 48b9 883e 8b4d eb3e 8393 553e
00000010: 0ad4 14be 8a99 d43d 731b 01bf 80fc f3be
00000020: 79d3 07be 43ee 733e 397d bbbe 2fb9 263e
00000030: 4606 55be 92a9 993e b0e3 523e f057 343e
00000040: fe7d e6bc 58e9 75be 5131 97be 2237 443e
00000050: 3acc 2a3e 6cce 26bc 8d99 cfbd 77ec 953e
00000060: 83fa b9be 5790 babe 1043 943d 0de8 81be
00000070: 9cf6 41be c2bc e33d c530 0d3b 5e85 7e3e
00000080: be32 623e 7266 24be 639d adbe 93d5 dfbe
00000090: b903 acbd 3a1e 8a3e 95ab d83e f65d 5bbe
000000a0: c3fd eb3d 0f23 bc3e e6f2 07be a115 f1bc
000000b0: 35d4 e5be 907c 1d3e 2915 903e 85a8 05be
000000c0: 1abf 343e c9fc 30be 104e b3bd a363 103d
000000d0: 4d70 90be 3ea7 c6be d710 e0be 6eb9 b1be
000000e0: 586b 05be a746 05ba 2086 35bc b46a fe3d
000000f0: e5b6 533d f0f9 653e e2d8 9c3d 4635 ce3e
00000100: cbc6 5abe 0759 14be 04d6 19be b30a 063e
00000110: b975 57be b01b 063d 7586 1f3e ff3d 04be
00000120: 8bfc 833e d83f 08be bc08 9b3e 3ddb d8bd
00000130: 180e 9dbc 1ebb ff3e 8966 993e a8e7 7a3e
00000140: f349 d6be 7491 4abc d70a bdbc daca c13c
00000150: 87b9 963e a6ba fc3c 1e9b 90be 2f98 a93d
00000160: d386 0dbe 80c1 abbe c0bb c8be 1ff2 0e3f
00000170: 5e57 8bbe 00e1 90be 55f8 b03e 0777 273d
00000180: 0133 833e 1fdc ebbe 8537 4cbe 626c 0fbe
00000190: 793f 8cbd 28c9 013e 0ba7 34be a592 ec3d
000001a0: cee1 cfbe 660d d93d c93e 0cbf 7ce5 1d3f
000001b0: 16f4 323e c8bd bebd 516a ee3c cf72 d7bc
000001c0: 040e 013c 783c 8f3e 3002 be3d c883 e4bd
000001d0: 2595 40be ddc6 563e e36b 72be 196f 483e
000001e0: 347e 123e 186c d6be 4c54 bbbe bcde 473e
000001f0: 24ee 923e e77d 13be a10a f53e d1f3 183e
00000200: 5e13 543d 82a3 7e3e 26ec d33c 89e8 19be
00000210: 388e 053f be21 66bd 2db2 7c3e ced0 8dbe
00000220: 265a 39be 4e75 91bd 7091 56bd a74d 12bf
00000230: e648 b9be 8ef3 7ebe 0e3a 83be 318d a43e
00000240: 7bd5 473e 2fab 173f ea88 68be 019a 32be
00000250: 8102 5abc dd5d b03d 6f05 eebd 6431 0e3e
00000260: 078e 9dbe b632 03be f62c 80be 361e 64be
00000270: f5ae 183d 281c 7bbe 447b 1d3e 1a76 41bd
00000280: 7f97 e63d 956a 193e 671f e53e b981 e83c
00000290: aff1 003e b5f7 82be bc55 583d 262c 2d3e
000002a0: 3571 1ebd 87a1 28be 90b5 063e 8fb4 5d3e
000002b0: 3a61 3fbd f91a a23d fb60 de3c d33d 18be
000002c0: b96d 0e3f 1c95 5f3d d630 ff3d 6a25 763d
000002d0: cf6d 9c3d 4d9f 49bf 0ef0 9cbe 7671 8e3e
000002e0: 3c86 10bd 5cd2 893e 0c6e 093e 2eb5 db3d
000002f0: b3d6 0cbe 9153 40be 86dd d83e 712a b9be
00000300: 9455 94bd 6ffc 253c 02c7 423e 32ed 91bd
00000310: 4daf 66be 00fd acbd da5a 193e 8db4 a33d
00000320: 53c9 893d 8c46 0abe cbf6 013c 67aa 003e
00000330: 2a35 e5bc 5224 383e 33b1 1c3e 791a b4be
00000340: 4db6 8e3e 7794 cd3c 4050 2dbe af99 fbbe
00000350: a2de 343e 0679 7c3e 3ab7 043f 92cd 673d
00000360: 9765 20bf ff66 053f 8421 5cbe 3c37 4f3e
00000370: 5406 ab3e 7963 7cbe 797a 67bd 827b a13e
00000380: b54a 373e fbfa be3e ce9f acbb 6d9f 353f
00000390: d20f 203e 2975 b13d 6304 13bd d441 2ebe
000003a0: c08d 59be 5b28 cc3d d197 1dbe 0309 bfbe
000003b0: c426 4d3e 74d8 4b3d 487d 33bd e8a3 933c
000003c0: 629f 20bc 6651 19bd 5c83 85be a619 3ebe
000003d0: 8d98 07bf b952 17be cf98 193d 4aac f13c
000003e0: 226e 463e fa2b 263e a60c 213e 3bce 293f
000003f0: a41c 633e 6eff 8f3b 72e0 fe3d b969 b23d
0.3165685 0.26703858 0.45957598 0.20857053 -0.14534011 0.10380848 -0.5043251 -0.4765358
-0.13264264 0.23821358 -0.36618975 0.1628158 -0.20803174 0.30012184 0.20594668 0.1761167
-0.02813625 -0.24014795 -0.29529813 0.19161656 0.16679469 -0.010181051 -0.10136709 0.2928197
-0.36323938 -0.36438248 0.07239354 -0.25372353 -0.1894173 0.11119987 0.0021543961 0.24855563
0.22089669 -0.16054705 -0.3390914 -0.43717632 -0.083991475 0.26976186 0.42318407 -0.21422562
0.115230106 0.36745498 -0.13276252 -0.029429259 -0.44888464 0.15379548 0.28141144 -0.13052566
0.17651024 -0.1728393 -0.087551236 0.03525127 -0.2821068 -0.3879947 -0.43762848 -0.34711784
-0.1302923 -0.00050840754 -0.011079341 0.12422696 0.051688094 0.22458625 0.076585546 0.4027502
-0.21364896 -0.14487086 -0.15023047 0.13090019 -0.21041001 0.03274125 0.15578635 -0.12914275
0.25778612 -0.13305604 0.302801 -0.105886914 -0.01917176 0.49947447 0.2996104 0.24502432
-0.41853294 -0.01236378 -0.023076458 0.023656297 0.2943842 0.03085072 -0.28243345 0.0828098
-0.13820963 -0.33546066 -0.39205742 0.558382 -0.27215093 -0.2829666 0.34564462 0.040884998
0.2562485 -0.46066377 -0.19943054 -0.14006189 -0.06848044 0.12674391 -0.17641847 0.11551408
-0.40601963 0.10598259 -0.547833 0.6167829 0.17475924 -0.09313542 0.02910343 -0.026299862
0.007876877 0.27975821 0.09277761 -0.11157948 -0.18806894 0.20974298 -0.23673968 0.1957363
0.14305955 -0.41879344 -0.3658775 0.1951856 0.28697312 -0.14403497 0.47859672 0.14936759
0.051776282 0.24867061 0.02586944 -0.15030111 0.52170134 -0.056184523 0.24677344 -0.27698368
-0.18100795 -0.07102452 -0.052384794 -0.5714974 -0.3618843 -0.24897596 -0.2563023 0.3213897
0.1951503 0.5924558 -0.22708479 -0.1744156 -0.013306261 0.08611653 -0.1162213 0.13886029
-0.3077242 -0.12812313 -0.25034302 -0.2227715 0.037276227 -0.2452246 0.15379053 -0.04723177
0.11259364 0.14982064 0.4475052 0.02838217 0.12592195 -0.2557961 0.052816138 0.16911373
-0.03868218 -0.16467868 0.13155198 0.21650909 -0.04672358 0.07915301 0.027145853 -0.14867334
0.55636173 0.05458556 0.124604866 0.060094275 0.07638132 -0.787587 -0.30651897 0.2782094
-0.035284266 0.26918304 0.13420886 0.10727917 -0.13753776 -0.18781878 0.4235651 -0.36165193
-0.07242885 0.010130986 0.19021228 -0.071253195 -0.2252781 -0.084466934 0.14976063 0.07993422
0.06727853 -0.13503474 0.007932375 0.12565003 -0.027979452 0.17982605 0.15301971 -0.35176447
0.2787346 0.025095208 -0.16925144 -0.4914069 0.17663053 0.24655542 0.5184208 0.05659253
-0.62655014 0.52110285 -0.2149716 0.20235914 0.33403265 -0.24647321 -0.056513283 0.3153954
0.17899592 0.37300858 -0.0052680736 0.7094639 0.15631035 0.08664925 -0.035892855 -0.17017299
-0.2124548 0.09968635 -0.15389945 -0.37311563 0.20034319 0.049766973 -0.04382065 0.018022493
-0.009803625 -0.037431143 -0.26076782 -0.18564472 -0.5296715 -0.1477765 0.037499245 0.0295011
0.1937795 0.16227713 0.15727481 0.6633031 0.22178894 0.0043944633 0.12445153 0.08711571

graph_embed_generation.mlp.1.bias f4 [32]
00000000: 690e ec3d 1fc4 0bbe e025 113e a034 1fbe
00000010: 6575 e93d cd72 37be 8c88 6b3e 35eb 55bd
00000020: 5755 9bbd d9e0 4dbe 3466 293d 5e3c 1c3d
00000030: 7740 543e 1a9d 71bc b61d f43d db24 40be
00000040: b43b 8b3d 1835 26be 0961 ef3c 97c7 3f3d
00000050: 2ee7 18be bb83 903d 1029 27be 7fe1 01bd
00000060: 2f1e 66bc d54c 7ebd dfc5 213e 5c39 4ebe
00000070: 22de 59bc c572 fbbd 9d8c 6639 a7e4 a8bd
0.11526186 -0.13649033 0.14174604 -0.15547419 0.11399344 -0.17914887 0.23001307 -0.052226264
-0.07584637 -0.20105304 0.041357234 0.038143508 0.20727716 -0.014746929 0.119197294 -0.18764059
0.06798497 -0.16231191 0.029221075 0.046821203 -0.14931938 0.070563756 -0.16324258 -0.03170919
-0.014045282 -0.06208499 0.15798138 -0.20139068 -0.0132975895 -0.1227775 0.00021986892 -0.08246737
