results/checkpoints/smartmap_OH_TOR_DIAG_8x8.pth (torch, 61538 bytes, 26 tensors)

graph_embed_generation.gat_dfg.att_src f4 [1, 4, 32]
0	0xbe5f56ca	-0.21810451
1	0x3dd304ec	0.10303673
2	0xbe08def7	-0.13366304
3	0xbdba5dfa	-0.09099956
4	0xbdb10cb4	-0.08645001
5	0x3d2ad62a	0.04170815
6	0xbe0078d6	-0.12546095
7	0x3e5c84e9	0.21535076
8	0xbdd2a9d8	-0.102863014
9	0xbd8439be	-0.06456326
10	0x3c919bb0	0.017774433
11	0xbd77ab51	-0.060466114
12	0x3e3275f1	0.17427804
13	0xbd90fcd2	-0.07079472
14	0x3d1b1c01	0.037868503
15	0x3cd2f359	0.025750803
16	0xbdc0ee32	-0.09420432
17	0xbe6cb385	-0.23115356
18	0x3eb1d2c9	0.3473113
19	0x3db65f3f	0.089048855
20	0x3e17488e	0.14773771
21	0x3dc99e2b	0.09844621
22	0xbd1cf9e0	-0.038324237
23	0x3d9d90d9	0.07693643
24	0x3e07e723	0.13271765
25	0x3c00aa6c	0.007853132
26	0xbb446e23	-0.0029972873
27	0x3dc987ac	0.098403305
28	0xbe384462	-0.17994836
29	0xbd08e2dd	-0.03341948
30	0xbe6b40d9	-0.22973956
31	0xbd2561d9	-0.040376518
32	0xbe3c55d9	-0.18392123
33	0x3d2cdd9a	0.042203523
34	0xbe46bc55	-0.1940778
35	0x3d87b800	0.06626892
36	0x3e76f816	0.24118075
37	0x3e3972b8	0.18110168
38	0x3d056bf7	0.032573666
39	0x3ebb15e3	0.36540136
40	0x3b1dbc5d	0.0024068572
41	0xbd6b5fbb	-0.057464343
42	0x3c93ab5a	0.018026043
43	0x3dcc1902	0.09965707
44	0xbdf7719a	-0.12082215
45	0xbd5a84f8	-0.053349465
46	0x3e0168f6	0.12637696
47	0xbe19650a	-0.1497995
48	0x3e3fad72	0.18718508
49	0x3ba65ebc	0.005077211
50	0xbda22d72	-0.07918824
51	0x3ea84080	0.3286171
52	0xbde17611	-0.110088475
53	0x3d5840db	0.052796226
54	0x3e832d6d	0.25620595
55	0xbe89b832	-0.26898342
56	0xbe800063	-0.25000295
57	0xbccafa4c	-0.024777554
58	0xbf27cf24	-0.65550447
59	0x3da887e2	0.082290426
60	0x3da14169	0.07873804
61	0xbe82a384	-0.25515378
62	0x3e4431b8	0.19159591
63	0xbdea2754	-0.114332825
64	0x3db55356	0.08853786
65	0xbd04924f	-0.032366093
66	0x3ca757a2	0.020427529
67	0x3da68036	0.08129923
68	0x3ce2ed1e	0.027700957
69	0x3dbd10a2	0.09231688
70	0x3d2f205e	0.042755477
71	0xbe0607d1	-0.13088919
72	0xbd8311d4	-0.06399885
73	0xbdc1cdcd	-0.094630815
74	0xbdc29fcc	-0.09503135
75	0x3e2bdd33	0.167836
76	0xbe488a5e	-0.19584033
77	0x3cbc2ce1	0.022970619
78	0x3d1005c1	0.035161737
79	0x3da15b7b	0.07878777
80	0x3d0a614f	0.033784207
81	0x3c9e4b23	0.019322937
82	0x3e05ece3	0.13078646
83	0xbe00e5d5	-0.12587674
84	0x3dab88d1	0.08375705
85	0xbd2421c7	-0.040071275
86	0x3e3d168d	0.18465634
87	0x3dd3f753	0.10349908
88	0xbd96c1fc	-0.07361218
89	0xbb24cea2	-0.0025147577
90	0x3e295331	0.16535641
91	0xbe1109bf	-0.14163874
92	0xbe281beb	-0.164169
93	0xbdddc0f2	-0.10827817
94	0x3e260656	0.16213354
95	0xbdbc807b	-0.09204193
96	0x3da6cacd	0.0814415
97	0x3d188c9a	0.037243463
98	0xbdcbb61d	-0.09946845
99	0x3e19d78f	0.15023635
100	0x3e65c6e0	0.22439146
101	0x3d926790	0.07148659
102	0xbdddccfa	-0.10830112
103	0xbc9d3534	-0.019190408
104	0xbc73c9d2	-0.014879661
105	0xbe9bcc37	-0.3042924
106	0x3db9958f	0.09061729
107	0x3d3da6a8	0.046301514
108	0xbe0a8461	-0.13527061
109	0xbdf63240	-0.12021303
110	0x3e0f3023	0.13983206
111	0xbce61071	-0.028084012
112	0xbe370446	-0.17872724
113	0xbda99de3	-0.082820676
114	0x3e968bd4	0.29403555
115	0xbe2ffcf1	-0.17186333
116	0xbd8d2d2f	-0.06893384
117	0x3c2726c6	0.010202115
118	0xbd85f3ab	-0.065406166
119	0x3dddc5b9	0.10828728
120	0xbe5a7b49	-0.21336092
121	0x3e3676e4	0.1781879
122	0xbca93bcd	-0.020658398
123	0xbd36a46a	-0.04459039
124	0x3e40cedd	0.18828912
125	0xbde2c8bb	-0.110734425
126	0x3ecbbe24	0.39793503
127	0xbe0ff433	-0.14057998

graph_embed_generation.gat_dfg.att_dst f4 [1, 4, 32]
0	0x3d471ba0	0.04861033
1	0x3e715f33	0.23571472
2	0xbd9dff3b	-0.07714697
3	0x3df06228	0.11737472
4	0xbd62fd68	-0.05541745
5	0x3e338a53	0.17533235
6	0x3e0b7e6a	0.13622442
7	0xbe13d326	-0.14436015
8	0x3da00644	0.07813695
9	0x3e6113f3	0.21980266
10	0x3d729613	0.059225153
11	0xbe437f40	-0.19091511
12	0x3de99581	0.11405469
13	0x3d9063d5	0.070502914
14	0x3d0225b3	0.031774234
15	0xbe7ec881	-0.24881174
16	0x3d76a169	0.060212526
17	0x3b542065	0.0032367941
18	0x3d3a47ec	0.045478746
19	0x3d901750	0.070356965
20	0x3d89e696	0.06733434
21	0xbca2a66b	-0.019854745
22	0xbd754bcb	-0.059886735
23	0x3e0a50d9	0.13507403
24	0xbd15b413	-0.036548685
25	0xbdddf372	-0.10837449
26	0xbe14f59e	-0.1454682
27	0xb9399f62	-0.0001770235
28	0xbd6114ab	-0.05495135
29	0x3d266996	0.04062804
30	0x3b104eca	0.0022019618
31	0x3df11dd6	0.11773269
32	0x3e566ab9	0.20939149
33	0x3c210ee2	0.0098302085
34	0x3de06948	0.10957581
35	0xbd0413ed	-0.032245565
36	0xbeac5b39	-0.33663347
37	0x3d587a6a	0.05285112
38	0xbd92eb55	-0.07173792
39	0x3da34c42	0.079735294
40	0xbe35b4a2	-0.17744687
41	0xbd8cca38	-0.06874508
42	0x3e039c11	0.12852503
43	0xbe89af9a	-0.26891786
44	0xbe8bf94a	-0.2733863
45	0xbd6222ee	-0.055209093
46	0x3dde80c1	0.108644016
47	0xbda815a4	-0.082072526
48	0xbe356e4a	-0.17717853
49	0xbd6074b1	-0.054798786
50	0xbe9accba	-0.3023432
51	0x3ad58762	0.0016290958
52	0x3e6e9a72	0.23301104
53	0x3db866a4	0.09003952
54	0xbde03e6a	-0.109494045
55	0xbdacaec9	-0.08431775
56	0xbcc32a85	-0.023823986
57	0x3d11ceef	0.035597738
58	0xbe935572	-0.28776127
59	0x3e43c355	0.19117482
60	0xbd8a49de	-0.0675237
61	0x3e5be38d	0.21473522
62	0x3e8f01ee	0.2793116
63	0x3d6bdb53	0.05758221
64	0xbc5f455f	-0.013627379
65	0xbd9dd5e5	-0.07706813
66	0x3e24f739	0.16109933
67	0x3df8a6ee	0.12141214
68	0x3e1aefb4	0.15130502
69	0x3cda68ff	0.026661394
70	0x3d564d7a	0.05231998
71	0x3e023492	0.12715366
72	0xbdf6ec2c	-0.12056765
73	0xbe2fe183	-0.1717587
74	0x3d2617f9	0.040550206
75	0xbc3316f5	-0.010930766
76	0xbbaae0c2	-0.0052147815
77	0x3e2d7874	0.1694048
78	0xbdc049a5	-0.093890466
79	0x3e61395f	0.21994542
80	0x3e769509	0.2408029
81	0x3d005ae7	0.03133669
82	0xbe5d33be	-0.2160177
83	0xbe2b7abd	-0.1674604
84	0x3df31dc0	0.11870909
85	0xbdccbf83	-0.099974655
86	0x3ddbd3c7	0.10733753
87	0xbe1cd71d	-0.15316434
88	0x3c9a89c3	0.018864518
89	0x3e02f168	0.12787402
90	0xbd324671	-0.04352421
91	0xbdb6c2e1	-0.08923889
92	0x3d83b3bc	0.06430766
93	0x3e059dbf	0.13048457
94	0xbde7a20c	-0.11310205
95	0xbdd0cf13	-0.10195746
96	0x3dbb5b3b	0.0914826
97	0xbcddccff	-0.027075289
98	0xbe70a755	-0.23501332
99	0x3e3a94dd	0.1822085
100	0x3cc01540	0.023447633
101	0x3da2080d	0.07911692
102	0x3d52eff6	0.051498376
103	0xbe5abf08	-0.21361935
104	0xbdb76feb	-0.089568935
105	0xbdcecbaa	-0.100974396
106	0x3d7a7434	0.061145976
107	0x3c876590	0.016527921
108	0x3d4669f9	0.048440907
109	0x3e13431b	0.14381067
110	0xbe3b6d5b	-0.18303435
111	0x3e6e4687	0.23269092
112	0xbd9c817a	-0.07641883
113	0xbe87d7da	-0.2653187
114	0x3df624ca	0.12018736
115	0xbd829595	-0.06376187
116	0x3d93a21e	0.07208656
117	0x3e769875	0.24081595
118	0xbe69058f	-0.22756027
119	0x3debc807	0.115127616
120	0x3e5772dc	0.21039909
121	0x3e159c5f	0.14610432
122	0x3ddf7c77	0.10912412
123	0xbcf52cad	-0.02992853
124	0x3e4bc2c1	0.19898511
125	0x3c89ea04	0.01683522
126	0x3d96a9ba	0.073565915
127	0x3cc53d5a	0.024077106

graph_embed_generation.gat_dfg.bias f4 [32]
0	0x3d8b360c	0.06797418
1	0x3d44e78d	0.048072387
2	0x3d500b88	0.050792247
3	0xbd9cf728	-0.07664329
4	0x3c1bac37	0.009501508
5	0xbdb62ceb	-0.08895286
6	0xbd62b12c	-0.055344746
7	0x3c80647e	0.015672918
8	0xbdac4516	-0.084116146
9	0x3d96a9ce	0.073566064
10	0x3d7ccb09	0.061717067
11	0x3da4fc6b	0.080559574
12	0xbd6ce2a2	-0.05783332
13	0x3d6c7c36	0.057735644
14	0xbd8f40bc	-0.06994769
15	0x3db7ffe5	0.08984355
16	0x3d47d921	0.048791055
17	0xbd784499	-0.060612295
18	0xbd4c38bc	-0.049858794
19	0x3de5a902	0.11213876
20	0x3d8d57f0	0.06901538
21	0x3d90147a	0.070351556
22	0x3db1a99c	0.086749285
23	0xbd26a10d	-0.040680934
24	0x3df4e39e	0.11957477
25	0xbd5efd93	-0.054441046
26	0xbdf948c1	-0.1217208
27	0x3d3961a2	0.045259126
28	0x3dd51c51	0.104057916
29	0x3dece531	0.11567152
30	0x3c5389e0	0.01291129
31	0x3d8619eb	0.06547912

graph_embed_generation.gat_dfg.lin.weight f4 [128, 9]
0	0xbdc1d189	-0.09463794
1	0x3e438f85	0.19097717
2	0xbe0c9aeb	-0.13730972
3	0xbc988a3e	-0.018620607
4	0xbd6d464f	-0.05792838
5	0xbe1fd9d8	-0.15610445
6	0xbe6588a8	-0.22415411
7	0x3e1bb6c2	0.15206435
8	0xbe07c3e8	-0.13258326
9	0x3cf33669	0.02968903
10	0xbdc7a610	-0.09748471
11	0x3e8fb2d2	0.28066117
12	0x3ca8ecdd	0.020620758
13	0xbe0700a3	-0.13183837
14	0xbcdc4050	-0.026886135
15	0x3e07ee23	0.13274436
16	0x3e035a58	0.12827432
17	0xbb614c52	-0.0034377766
18	0xbec7cafe	-0.39022058
19	0xbc5a4627	-0.01332239
20	0x3e144df3	0.1448286
21	0xbed341c3	-0.4126111
22	0x3d4a26f8	0.04935357
23	0xbe2b294c	-0.16714972
24	0xbe0eebc2	-0.13957122
25	0x3d298400	0.04138565
26	0x3d99812c	0.07495341
27	0x3e4dc607	0.20095073
28	0x3e1268db	0.14297812
29	0x3ca7928b	0.02045562
30	0x3e2afc77	0.1669787
31	0xbdc4411f	-0.09582733
32	0xbe82c741	-0.25542644
33	0xbc629e49	-0.013831683
34	0x3dd93c82	0.10607244
35	0xbe9ecc07	-0.31015036
36	0xbc6e61c6	-0.014549678
37	0xbd440652	-0.04785759
38	0x3e0358ee	0.12826893
39	0xbc979589	-0.018503921
40	0x3d2b83d5	0.04187377
41	0xbd420501	-0.047368053
42	0xbe242502	-0.16029742
43	0x3d31685c	0.043312415
44	0xbda956c5	-0.08268503
45	0x3e1b3b65	0.15159376
46	0x3de529af	0.11189591
47	0xbd15d954	-0.036584213
48	0x3d5cc203	0.05389596
49	0x3d80059a	0.062510684
50	0x3d8ceb86	0.0688086
51	0x3d216d22	0.039410718
52	0xbe9fe1b4	-0.31226885
53	0xbe8aee15	-0.27134767
54	0x3ed3bb73	0.4135395
55	0x3d97a893	0.074052
56	0x3e4cfca0	0.20018244
57	0x3d958a05	0.07301716
58	0xbd48ec30	-0.04905337
59	0xbde83d71	-0.11339844
60	0xbdda4fd5	-0.10659758
61	0xbd9603ac	-0.07324919
62	0x3e399360	0.18122625
63	0x3e1c91fa	0.1529006
64	0xbccd0cdf	-0.025030551
65	0xbe478902	-0.19485858
66	0x3d30b1a1	0.04313815
67	0x3dc7411c	0.097292155
68	0x3e8933c7	0.26797315
69	0x3d1de5cc	0.03854923
70	0xbdb74750	-0.08949149
71	0xbe02d022	-0.12774709
72	0x3dc7b021	0.09750391
73	0x3e3e4f24	0.18584877
74	0x3bf4f1a8	0.0074750967
75	0xbe09433f	-0.13404559
76	0xbdb5bc2f	-0.08873784
77	0x3e1db720	0.15401888
78	0x3e732265	0.23743589
79	0xbe0542c9	-0.13013758
80	0x3e23cc20	0.15995836
81	0xbd6b0688	-0.057379276
82	0xbe6c0418	-0.23048437
83	0xbe5c2d5f	-0.21501683
84	0xbefb757b	-0.49113068
85	0x3d2e4b61	0.042552356
86	0xbe0f2ca6	-0.13981876
87	0xbe09adba	-0.13445178
88	0x3ca33ebf	0.01992738
89	0x3e615839	0.2200631
90	0x3c93bca9	0.018034296
91	0xbda6de4c	-0.081478685
92	0x3cd550fd	0.026039595
93	0xbeb65ec5	-0.35619178
94	0x3d770b4f	0.06031352
95	0x3e076e74	0.13225728
96	0xbe19bb5a	-0.15012875
97	0x3e2a6521	0.1664014
98	0x3e6911ae	0.2276065
99	0xbdb969cc	-0.09053382
100	0xbe2b8b44	-0.16752344
101	0xbd369c8a	-0.04458288
102	0x3c557568	0.01302848
103	0xbd30e629	-0.043188248
104	0xbd769d9b	-0.060208898
105	0xbd27c9c8	-0.040963918
106	0xbcb30b66	-0.021856021
107	0xbd845ccb	-0.06463011
108	0x3e97b0d5	0.296271
109	0x3cac8795	0.021060744
110	0xbdd4c769	-0.10389597
111	0x3e4a5b36	0.19761357
112	0xbd47c181	-0.048768524
113	0x3e981386	0.29702395
114	0xbda55536	-0.08072893
115	0xbe7afe72	-0.24511126
116	0x3d3792bb	0.044817667
117	0xbdd65448	-0.10465294
118	0xbd3ddfde	-0.046356075
119	0xbdae2c59	-0.085045524
120	0xbebd5361	-0.36977676
121	0xbd4c76d5	-0.049918015
122	0xbc8a4afc	-0.016881458
123	0x3e98f717	0.29876015
124	0xbcc7b7ab	-0.024379572
125	0x3d9cb6c9	0.07652051
126	0x3c3a8d7f	0.011386274
127	0xbd685022	-0.056717046
128	0x3dc2546f	0.09488761
129	0x3ea5768a	0.32317
130	0x3d8315fc	0.064006776
131	0x3dc8b22e	0.0979961
132	0xbdfef6be	-0.12449406
133	0xbc8e1ffe	-0.01734924
134	0xbd1e0420	-0.038578153
135	0xbdedeb37	-0.11617129
136	0xbdd66787	-0.10468965
137	0xbe79c263	-0.24390559
138	0xbe945952	-0.28974396
139	0x3e01b138	0.1266526
140	0x3d69a629	0.05704323
141	0xbd253140	-0.04033017
142	0x3d1715e4	0.03688611
143	0xbdecaf7d	-0.11556909
144	0xbdbd41a0	-0.092410326
145	0xbe4652be	-0.19367501
146	0x3c5021df	0.012703388
147	0xbdb004dc	-0.08594677
148	0xbd87fb94	-0.066397816
149	0x3bf3b5a6	0.0074374257
150	0xbe018712	-0.12649181
151	0x3e1d613d	0.15369125
152	0xbe58e549	-0.21181215
153	0x3e3a193c	0.18173689
154	0x3dcc9bd6	0.09990661
155	0x3de236b8	0.11045593
156	0x3d72dd65	0.05929317
157	0xbe13237e	-0.14369008
158	0x3ddd282d	0.107986785
159	0x3e07a58e	0.13246748
160	0x3e6a173a	0.22860423
161	0xbcb372be	-0.0219053
162	0x3e8c862d	0.27446118
163	0x3c320242	0.010864796
164	0x3cdc477a	0.026889551
165	0x3e6e6a1f	0.2328267
166	0x3e2b7282	0.167429
167	0x3bef8459	0.0073094782
168	0xbe002e56	-0.12517676
169	0xbe297c1e	-0.16551253
170	0x3db6a594	0.089183
171	0x3ca74fad	0.020423735
172	0xbd556ae5	-0.052103896
173	0xbdea67ca	-0.114455774
174	0xbd83c7c1	-0.064345844
175	0x3dbb1708	0.09135252
176	0xbd0f7dad	-0.035031963
177	0x3d505453	0.050861668
178	0xbd3a125c	-0.045427665
179	0x3df0d35b	0.11759063
180	0xbe6d7363	-0.23188548
181	0x3de1f511	0.11033071
182	0x3d2ccaae	0.042185478
183	0x3b8a526c	0.0042212512
184	0x3d58b158	0.052903503
185	0xbd361457	-0.04445299
186	0x3d946986	0.072466895
187	0x3e1d454f	0.1535847
188	0x3ced2aff	0.028951166
189	0x3cc95a61	0.024579229
190	0xbbb29dcd	-0.00545094
191	0x3c87eb01	0.01659155
192	0xbe496c8d	-0.19670315
193	0xbd9150ed	-0.070955135
194	0xbced0da8	-0.028937176
195	0x3eabfb82	0.33590323
196	0xbd8dfc7f	-0.069329254
197	0x3d4124d3	0.04715426
198	0xbd1556c8	-0.036459714
199	0xbdb61f5f	-0.08892702
200	0xbd9b1c31	-0.075737365
201	0xbcd0e145	-0.025498042
202	0xbdae1a2a	-0.08501084
203	0x3d101141	0.035172705
204	0xbdaadd4f	-0.083429925
205	0x3daf7f07	0.085691504
206	0x3e14b035	0.14520343
207	0x3e584e93	0.21123724
208	0x3e8e43f8	0.2778623
209	0xbd36bf0f	-0.0446158
210	0x3e929bf0	0.28634596
211	0x3eb0d8ee	0.34540504
212	0x3d9144d6	0.070932075
213	0xbd5f7744	-0.0545571
214	0xbe942ead	-0.2894186
215	0x3bca3542	0.0061708996
216	0x3e28053d	0.16408248
217	0xbde8315f	-0.11337542
218	0xbe92ca67	-0.28670046
219	0xbe5530be	-0.20819375
220	0x3d4ec173	0.050477456
221	0xbde97af4	-0.114004046
222	0xbd89194c	-0.06694278
223	0x3d6cff22	0.0578605
224	0xbd8c1ed1	-0.06841815
225	0x3e1e0c77	0.15434442
226	0x3e84e391	0.2595487
227	0x3e3d0870	0.1846025
228	0x3e9586e5	0.2920448
229	0xbdc09220	-0.09402871
230	0x3d22a4b7	0.039707866
231	0xbdf66775	-0.120314516
232	0xbe1604d9	-0.14650287
233	0xbdac73d7	-0.08420532
234	0x3af22d22	0.0018476585
235	0x3de77691	0.113019116
236	0x3dabfc03	0.08397677
237	0x3e081cf5	0.13292296
238	0x3daeac75	0.08528987
239	0x3dc52392	0.09625925
240	0x3cd73674	0.026271082
241	0xbe0a67a1	-0.13516094
242	0x3c791838	0.015203528
243	0xbdab5ac0	-0.083669186
244	0xbe7b4b31	-0.24540402
245	0x3d94bbb5	0.07262365
246	0xbe07b8d8	-0.13254106
247	0x3e020edf	0.12700985
248	0xbd4c1627	-0.049825814
249	0xbd54829e	-0.05188238
250	0xb97286cb	-0.00023129133
251	0xbde5a223	-0.11212566
252	0xbc831263	-0.015999978
253	0xbde310fb	-0.11087223
254	0x3d39ad87	0.045331504
255	0xbe0eb948	-0.13937867

graph_embed_generation.gat_cgra.att_src f4 [1, 4, 32]
0	0x3d54304b	0.05180387
1	0xbe0179c6	-0.12644109
2	0x3d0fd696	0.035116754
3	0x3d1c5cc7	0.038174417
4	0xbe1dda4f	-0.1541531
5	0x3df0275b	0.117262565
6	0x3e0b1686	0.13582811
7	0xbd09f398	-0.033679575
8	0x3dd05b09	0.101736136
9	0xbdb1d0ad	-0.0868238
10	0x3e407538	0.18794715
11	0xbda7c910	-0.081926465
12	0x3ea7bd33	0.32761535
13	0xbb94d54e	-0.0045420295
14	0xbd8b43b0	-0.0680002
15	0xbd1d5d35	-0.038418967
16	0xbe023bee	-0.12718174
17	0xbd6a2eed	-0.05717366
18	0xbdd1d04e	-0.10244809
19	0x3d5622b1	0.052279178
20	0x3c4bf38d	0.012448204
21	0x3defd0d4	0.11709753
22	0x3d160d38	0.0366337
23	0x3e0e47a1	0.13894512
24	0x3e109c00	0.1412201
25	0xbc49a001	-0.012306214
26	0x3db08660	0.0861938
27	0x3d3758a6	0.044762276
28	0x3d560d3b	0.05225871
29	0x3e2d6f8c	0.16937083
30	0xbdf094e2	-0.11747147
31	0x3e0afeba	0.13573733
32	0xbe130e68	-0.14360964
33	0xbe892637	-0.26786968
34	0xbdea1f5b	-0.11431762
35	0x3e3ee53f	0.18642138
36	0x3cc52b94	0.024068631
37	0x3e1040c7	0.1408721
38	0xbe0317cc	-0.12802047
39	0x3e2ee3e0	0.17079115
40	0xbdb16ff0	-0.086639285
41	0x3ddb502a	0.107086495
42	0xbd1fbbd1	-0.038997475
43	0x3d4a1275	0.04933401
44	0xbdada040	-0.08477831
45	0x3dcdf394	0.100562245
46	0x3d7116ec	0.05885975
47	0x3d7045f3	0.05866046
48	0xbd889b37	-0.0667023
49	0xbda8bab3	-0.08238735
50	0x3e3f4b5a	0.18681088
51	0x3e4a9ba5	0.19785936
52	0x3e21cb90	0.15800309
53	0xbdcdf464	-0.100563794
54	0xbe1d078d	-0.15334912
55	0xbe02497e	-0.12723348
56	0xbea14369	-0.31496742
57	0x3dd7ef5d	0.10543702
58	0x3ceb830c	0.028749011
59	0x3c60e11f	0.013725548
60	0x3c986d40	0.018606782
61	0xbe06056f	-0.1308801
62	0x3e2aa9f7	0.16666399
63	0xbdbfd721	-0.093672045
64	0xbc285a2d	-0.010275406
65	0xbd1fb868	-0.038994223
66	0xbdf7cadf	-0.120992415
67	0xbda5d248	-0.080967486
68	0xbe5a48fb	-0.21316902
69	0xbe6f862d	-0.23391028
70	0x3c9bba09	0.019009607
71	0x3dafe68e	0.08588897
72	0x3dc72a8d	0.09724913
73	0x3deb2572	0.114817515
74	0x3e2cc26f	0.16871046
75	0x3d1e2769	0.038611803
76	0x3b0fe2ec	0.0021955324
77	0x3d481b8b	0.048854392
78	0x3dbf1364	0.0932987
79	0x3db4ef87	0.08834749
80	0x3e7c41fc	0.24634546
81	0x3e1aa2d5	0.15101178
82	0x3cc0e6fb	0.02354764
83	0x3cb42e92	0.021994863
84	0x3dce9a5d	0.10088036
85	0xbda37c25	-0.07982663
86	0xbcae0823	-0.021244114
87	0xbbe085e8	-0.0068519004
88	0x3df3046a	0.11866076
89	0xbdd80ec7	-0.105496936
90	0xbcc7238c	-0.024308942
91	0x3eaf6c52	0.3426233
92	0xbc8c8c3a	-0.017156709
93	0x3dbd42ee	0.092412814
94	0xbe108c87	-0.14116107
95	0xbe218c4b	-0.15776174
96	0x3c05acfb	0.008158918
97	0xbe07c76d	-0.13259669
98	0xbe3fded0	-0.1873734
99	0xbdf78fd2	-0.120879784
100	0xbe6b2fe9	-0.22967495
101	0x3d3092dc	0.043108806
102	0x3e098379	0.13429059
103	0xbb3c3ab4	-0.0028721513
104	0xbe87ca64	-0.265216
105	0xbd73de20	-0.059538007
106	0x3c7a1b9d	0.015265373
107	0xbea434f0	-0.32071638
108	0x3e34cfa5	0.17657335
109	0xbdfa0963	-0.122088216
110	0x3e339a35	0.17539294
111	0xbcef3c4e	-0.02920356
112	0x3e1b1d31	0.15147854
113	0xbd53270e	-0.051550917
114	0x3db0a174	0.08624545
115	0xbb08d13a	-0.0020876662
116	0x3d65f481	0.05614138
117	0x3d8cb516	0.06870477
118	0xbd9c1971	-0.0762204
119	0xbccb0f60	-0.024787605
120	0x3e0b3ed5	0.13598187
121	0xbcd190f7	-0.02558182
122	0x3df8f38c	0.12155828
123	0x3dd4bf08	0.10387999
124	0xbe67123f	-0.22565554
125	0xbe3e0a42	-0.185586
126	0x3e1630ff	0.14667128
127	0xbe7c8372	-0.24659517

graph_embed_generation.gat_cgra.att_dst f4 [1, 4, 32]
0	0xbdd0f9c3	-0.10203888
1	0xbe958d6e	-0.29209465
2	0xba0b92fb	-0.0005324331
3	0xbd022f3a	-0.03178332
4	0x3dd42380	0.103583336
5	0x3b74259b	0.003725386
6	0xbe4d6f5a	-0.20062009
7	0x3cd845b8	0.026400432
8	0xbe4fbd81	-0.20287134
9	0xbe05e95e	-0.13077304
10	0x3d785513	0.060628008
11	0xbd65108e	-0.05592399
12	0x3edea662	0.43486315
13	0xbce9cb7e	-0.028539415
14	0x3e167d68	0.14696276
15	0xbdbbefc8	-0.09176594
16	0xbd28c183	-0.041200172
17	0xbe198835	-0.14993365
18	0x3d8901d5	0.066898026
19	0x3d785ca0	0.06063521
20	0xbe52ecbb	-0.20598118
21	0xbc37a289	-0.011208185
22	0xbea175e6	-0.31535262
23	0x3d9f44b7	0.07776778
24	0x3d0c6987	0.034280326
25	0x3dd4604c	0.1036993
26	0x3a12cd64	0.00056000636
27	0xbe09845a	-0.13429394
28	0x3e734d10	0.23759866
29	0xbdad3c1c	-0.084587306
30	0xbdb9548e	-0.09049331
31	0x3d74d548	0.059773713
32	0xbe2dc5fa	-0.16970053
33	0xbc2375d4	-0.009976823
34	0xbc26769b	-0.010160114
35	0xbe0a3738	-0.13497627
36	0x3d1db196	0.038499437
37	0x3c59cda4	0.013293657
38	0xbe0f34da	-0.13985005
39	0x3e20ccf4	0.15703183
40	0xbdaadffa	-0.083435014
41	0xbddf4775	-0.10902301
42	0x3d97d213	0.07413115
43	0x3d63023d	0.055422056
44	0xbe38c225	-0.1804281
45	0x3e5d206f	0.21594404
46	0x3c2fde6f	0.010734185
47	0x3dc0a6e4	0.09406832
48	0xbe0ad3e3	-0.13557391
49	0xbe95fe90	-0.29295778
50	0xbdec184a	-0.1152807
51	0x3deb2fcd	0.11483727
52	0xbd4c5b72	-0.049891897
53	0xbb9acfa2	-0.004724459
54	0xbe32cdf4	-0.17461377
55	0xbd28de86	-0.04122784
56	0xbcf8be3c	-0.030364148
57	0xbde65389	-0.11246402
58	0x3ca324f7	0.019915087
59	0x3d1b22a9	0.03787485
60	0x3e0186d6	0.12649092
61	0x3d293762	0.041312583
62	0x3d64f91b	0.055901628
63	0x3d164765	0.03668918
64	0xbe414351	-0.18873335
65	0x3d8f2409	0.06989295
66	0x3da492f8	0.080358446
67	0x3d88555d	0.06656907
68	0x3db57f5e	0.08862184
69	0x3d503cd5	0.050839264
70	0x3d277a7c	0.040888295
71	0x3e246575	0.16054328
72	0x3df4fb75	0.11962024
73	0x3de50d9d	0.11184237
74	0xbd853ac2	-0.06505348
75	0x3d4a6b0e	0.0494185
76	0x3d2564c4	0.0403793
77	0x3e3203db	0.17384283
78	0xbcb22055	-0.021743933
79	0x3dd14546	0.10218291
80	0xbd1b0f57	-0.037856426
81	0xbe153c8e	-0.14573881
82	0x3be5dc08	0.007014755
83	0xbd769f1a	-0.060210325
84	0xbd84b2de	-0.06479429
85	0xbe47f0be	-0.1952543
86	0x3e13e13e	0.14441392
87	0x3e1d90e6	0.15387306
88	0x3cac45de	0.021029409
89	0x3e2bf2c9	0.16791834
90	0x3dda940f	0.10672771
91	0xbdd18d5c	-0.1023204
92	0x3d7887f0	0.060676515
93	0xbd9776b2	-0.07395686
94	0xbe6ad47b	-0.22932617
95	0x3c098f08	0.008395918
96	0xbd9e92c7	-0.07742839
97	0xbdaab6e3	-0.08335664
98	0x3e807d32	0.25095516
99	0x3b63ba7e	0.003474861
100	0xbdaadca0	-0.08342862
101	0xbd83c27a	-0.06433578
102	0x3d88568e	0.06657134
103	0xbca5be7f	-0.020232437
104	0xbe12594e	-0.1429188
105	0xbc79cc59	-0.015246474
106	0xbd83f5e6	-0.06443386
107	0x3c7f52a1	0.015583665
108	0x3e495c99	0.1966423
109	0xbc0bc446	-0.008530682
110	0x3e3b2a55	0.18277867
111	0x3e29f2bb	0.165965
112	0xbbf05540	-0.0073343813
113	0xbe2f9a95	-0.17148812
114	0xbdca7a7e	-0.09886645
115	0xbd14a710	-0.036292136
116	0x3e8aac1c	0.27084434
117	0xba63765c	-0.0008677
118	0x3dd23c72	0.10265435
119	0x3cb4b2b8	0.022057876
120	0x3da84438	0.08216137
121	0xbe170cd5	-0.14750989
122	0xbc23c01e	-0.009994535
123	0xbdb8befc	-0.090208024
124	0xbdd8412b	-0.10559305
125	0x3e18fb51	0.1493962
126	0x3cf8c02e	0.030365076
127	0xbcba235c	-0.022721939

graph_embed_generation.gat_cgra.bias f4 [32]
0	0xbd3713f0	-0.04469675
1	0x3d0838aa	0.033257164
2	0x3d8f58e8	0.069993794
3	0x3cda22ce	0.026627924
4	0xbd9519b8	-0.07280296
5	0xbd83fb7f	-0.064444534
6	0xbd0982e0	-0.033572078
7	0xbc8d3dbb	-0.01724135
8	0xbc5c99a5	-0.013464366
9	0x3c01e08c	0.007927071
10	0x3dd9ab0c	0.10628328
11	0x3d38a66a	0.04508058
12	0xbd5ccf57	-0.053908672
13	0xbd95bebe	-0.07311772
14	0x3dc00b5b	0.09377166
15	0xbbcf52b3	-0.006326997
16	0x3b0917e8	0.002091879
17	0xbd77d17f	-0.060502525
18	0x3d70c31e	0.05877983
19	0xbd6337c3	-0.0554731
20	0xbd0ee05a	-0.034881927
21	0x3cce6909	0.025196569
22	0x3d5da235	0.05410977
23	0xbce84f92	-0.028358255
24	0x3c8b3c40	0.016996503
25	0x3d5b899e	0.05359804
26	0xbd502033	-0.050811958
27	0xbd394f5a	-0.04524169
28	0x3d3a637f	0.045505043
29	0x3d6fb0bf	0.058518168
30	0xbd38caf9	-0.045115445
31	0x3d071ea0	0.03298819

graph_embed_generation.gat_cgra.lin.weight f4 [128, 7]
0	0x3d20f87d	0.039299477
1	0x3da7553d	0.08170555
2	0x3c414878	0.011797063
3	0x3c220163	0.009888026
4	0xbd6d1e13	-0.05789001
5	0x3e111e0a	0.14171615
6	0x3d34d83b	0.044151526
7	0xbab20a9b	-0.0013583483
8	0xbe3ad377	-0.1824473
9	0x3de9c745	0.11414961
10	0xbdc6a86f	-0.09700095
11	0x3e5169b2	0.20450476
12	0xbe3b4a02	-0.1828995
13	0xbe155bfc	-0.1458587
14	0x3db559a5	0.08854989
15	0x3e06222c	0.13098973
16	0x3bc302ef	0.0059512774
17	0xbc314c3a	-0.0108213965
18	0x3d5013f6	0.050800286
19	0x3ab5bab3	0.0013864845
20	0xbe04c977	-0.12967478
21	0xbe030077	-0.12793146
22	0xbdebd140	-0.11514521
23	0xbd4e098e	-0.05030208
24	0xbdda50ce	-0.106599435
25	0x3e0ef376	0.1396006
26	0x3e4a6565	0.19765241
27	0xbdf46efa	-0.119352296
28	0xbceb2065	-0.02870197
29	0xbe2e0b8f	-0.16996597
30	0xbe086ede	-0.13323542
31	0xbe903963	-0.28168783
32	0xbe0d83a2	-0.13819745
33	0xbe9f1e99	-0.31078032
34	0xbd998ccc	-0.07497558
35	0x3e4274f4	0.18989927
36	0xbde786d7	-0.113050155
37	0xbdd2a369	-0.10285074
38	0xbde37da0	-0.111079454
39	0xbe0e9f7b	-0.13928024
40	0xbd8b550a	-0.06803329
41	0x3d88b234	0.066746145
42	0x3e22f7ac	0.15914792
43	0x3ccb160b	0.024790784
44	0xbb931bd9	-0.0044894037
45	0xbdf5977b	-0.11991783
46	0x3e786e63	0.24260859
47	0x3eceb9db	0.4037617
48	0x3da13d5e	0.07873033
49	0x3d22faa8	0.039789826
50	0xbdee29ef	-0.11629092
51	0x3e0381a8	0.12842429
52	0xbce1d92f	-0.027569382
53	0x3e3ba347	0.18324004
54	0x3d7e6534	0.062108234
55	0x3cae0fbb	0.021247735
56	0x3e5c9a27	0.2154318
57	0xbd5cc10c	-0.05389504
58	0x3cad719a	0.021172334
59	0xbd8e7ddc	-0.069575995
60	0x3db76d22	0.08956362
61	0xbda050b8	-0.07827896
62	0xbcdfa0e7	-0.027298404
63	0x3c208597	0.009797475
64	0x3de2541e	0.110512
65	0x3e2bca9e	0.16776511
66	0x3d6192d6	0.055071674
67	0xbd8dcc92	-0.06923784
68	0xbd0f6d04	-0.035016075
69	0xbe623d73	-0.22093754
70	0x3e05439e	0.13014075
71	0x3c21206e	0.009834392
72	0x3c87cef1	0.01657817
73	0x3e9f583f	0.31122014
74	0x3d8a5d0a	0.06756027
75	0x3d82b5a4	0.063823014
76	0xbe4ae0a9	-0.19812264
77	0xbe3a3feb	-0.18188445
78	0x3d6200bb	0.055176478
79	0x3e02469a	0.12722245
80	0xbc9fb4fb	-0.019495478
81	0x3d38773d	0.04503559
82	0xbd26574f	-0.040610608
83	0x3e24fee2	0.16112855
84	0x3e4f5a50	0.20249295
85	0x3bc30e42	0.0059526274
86	0xbe589252	-0.21149567
87	0xbd9bc268	-0.076054394
88	0xbd58045a	-0.052738525
89	0xbde30bb9	-0.1108622
90	0x3e083f70	0.1330545
91	0xbe2695de	-0.16268107
92	0x3c822eba	0.015891422
93	0x3e178d06	0.1479989
94	0xbea74439	-0.32669237
95	0xbe724054	-0.23657352
96	0x3e15e708	0.14638913
97	0x3ebbeec5	0.36705604
98	0x3e69343c	0.22773832
99	0x3d88b104	0.06674388
100	0x3e948e51	0.2901483
101	0xbdcc0d2c	-0.0996345
102	0x3e3881b9	0.18018235
103	0xbcf38c0a	-0.029729862
104	0xbeb1eefc	-0.34752643
105	0xbdc18d8c	-0.09450826
106	0xbe7a0e9f	-0.2441964
107	0xbe83b915	-0.25727144
108	0x3bdc70ba	0.0067273052
109	0xbe05a8f6	-0.13052735
110	0xbccf9ba7	-0.025342776
111	0xbcc9cf3b	-0.024634948
112	0xbde09873	-0.109665774
113	0x3d097430	0.03355807
114	0xbd47b7bc	-0.048759207
115	0x3daf5987	0.08561998
116	0xbdb17442	-0.086647525
117	0x3e3f8d95	0.18706353
118	0xbc94a680	-0.0181458
119	0xbce352e8	-0.027749494
120	0xbdb3a06c	-0.087708324
121	0xbddcb327	-0.10776358
122	0xbd6f39fb	-0.058404904
123	0xbeaf0120	-0.34180546
124	0x3d1aeb3c	0.037821993
125	0x3ec39530	0.3819976
126	0xbe4f62d7	-0.20252548
127	0x3de4bff7	0.11169427
128	0x3d90b05f	0.0706489
129	0xbdb33492	-0.08750261
130	0xbd92c884	-0.071671516
131	0x3d98ec58	0.07466954
132	0xbe6d3ff7	-0.23168932
133	0xbc10be38	-0.008834414
134	0xbe71571d	-0.23568387
135	0xbd5c4340	-0.053775072
136	0xbbf03b00	-0.007331252
137	0xbe0dcc2d	-0.13847418
138	0xbc7bedf9	-0.015376561
139	0x3e4d8fb1	0.20074345
140	0x3d6fa839	0.05851004
141	0xbdb8ac8e	-0.09017287
142	0xbe66bcda	-0.22532979
143	0x3dd9ef3c	0.106413335
144	0xbe0d2b68	-0.1378609
145	0xbd09b093	-0.03361566
146	0x3c7484f3	0.014924276
147	0x3ea9f467	0.33194277
148	0x3ea70772	0.32622868
149	0xbe0dbcd6	-0.13841566
150	0xbe13f1df	-0.14447735
151	0x3db25b9d	0.0870888
152	0x3db75a93	0.089528225
153	0x3df653d6	0.12027709
154	0xbca66899	-0.020313548
155	0xbd136247	-0.035982396
156	0x3cae34c7	0.0212654
157	0xbe29f5e4	-0.16597706
158	0xbe120c60	-0.14262533
159	0x3d8efd8f	0.06981956
160	0xbe3be36a	-0.1834847
161	0x3cc2688f	0.023731498
162	0x3e2bddd7	0.16783844
163	0x3db84ef5	0.08999435
164	0xbdf9fdc1	-0.12206603
165	0x3e78d483	0.24299817
166	0xbe0afae7	-0.13572274
167	0x3e20c3cc	0.1569969
168	0xbd25a1d1	-0.040437523
169	0x3dc1b916	0.094591305
170	0x3dddda7f	0.108326904
171	0xbd1c11eb	-0.038103025
172	0x3cb32ad4	0.021871008
173	0x3a85c18f	0.001020478
174	0xbd633243	-0.055467855
175	0xbd142e65	-0.036177058
176	0xba469a74	-0.0007576116
177	0x3b2393c7	0.0024959908
178	0x3db4fb35	0.088369764
179	0x3d84adb0	0.06478441
180	0x3e361560	0.17781591
181	0xbe11d9ef	-0.14243291
182	0x3e081c70	0.13292098
183	0x3d5ea654	0.05435784
184	0xbdd84f90	-0.1056205
185	0x3d36ba2e	0.04461115
186	0x3cfbe8e9	0.030750709
187	0xbe3f45d0	-0.18678975
188	0x3bf47519	0.007460248
189	0xbdaf5680	-0.085614204
190	0xbd099cc6	-0.033596776
191	0xbcfe9af6	-0.03107975
192	0x3db7f6f4	0.089826494
193	0xbd496256	-0.049166046
194	0xbe271a18	-0.16318548
195	0x3db91fa6	0.090392396
196	0xbc87378c	-0.016505979
197	0x3d9ed52b	0.07755502
198	0x3d920804	0.07130435
199	0x3e8783fd	0.26467887
200	0x3e6f541e	0.23371932
201	0x3da797d7	0.08183258
202	0xbe1b6324	-0.15174538
203	0x3a1a82c9	0.00058941223
204	0x3be00636	0.006836678
205	0x3de7b147	0.1131311
206	0x3c9143b9	0.017732488
207	0x3e23b703	0.15987782
208	0xbe19f95a	-0.15036526
209	0xbe0419dd	-0.12900491
210	0x3d27cb4c	0.040965363
211	0xbddf90d4	-0.10916296
212	0xbdd977fc	-0.10618588
213	0xbda21ed0	-0.07916033
214	0xbe03a0ee	-0.12854359
215	0xbe5be5ad	-0.21474333
216	0x3e354138	0.1770066
217	0xbdb791f1	-0.08963383
218	0xbe439ee6	-0.19103584
219	0xbda55e2d	-0.08074603
220	0xbd8cd4c5	-0.0687652
221	0xbbe585c3	-0.007004471
222	0x3e08ae0f	0.13347648
223	0xbe01da4f	-0.12680934
224	0x3e1b5242	0.15168098
225	0xbdc450aa	-0.09585698
226	0x3d35eeaf	0.04441708
227	0xbcdc49b3	-0.026890611
228	0x3c1ffeaf	0.009765311
229	0xbb8e1f6c	-0.004337242
230	0x3e6c145d	0.23054643
231	0xbd1b939d	-0.037982572
232	0x3e658988	0.22415745
233	0x3e192b72	0.1495798
234	0x3dfe4e9f	0.124173395
235	0xbb9424fa	-0.0045210095
236	0x3aa6bd4f	0.0012721213
237	0xbe6417c1	-0.22274686
238	0x3e3ebb01	0.18626024
239	0x3e2df3be	0.16987512
240	0x3cef9738	0.029246911
241	0x3e0c2051	0.13684203
242	0x3c8bf5c2	0.01708496
243	0x3e54314b	0.20721929
244	0xbe6a918c	-0.22907084
245	0x3e51f744	0.2050448
246	0xbdb25767	-0.08708077
247	0xbde34941	-0.110979564
248	0x3e0f6f78	0.14007366
249	0x3bddf7d8	0.00677393
250	0xbc6ea847	-0.014566488
251	0xbda7df83	-0.08196928
252	0xbd80054a	-0.06251009
253	0xbe77fac4	-0.24216753
254	0x3d21de1a	0.039518453
255	0xbcebbe37	-0.028777225

graph_embed_generation.fc_metadata.weight f4 [32, 9]
0	0xbd17b317	-0.037036028
1	0x3d9bfda4	0.076167375
2	0x3c94a80e	0.018146541
3	0xbe3a9fec	-0.18225068
4	0x3e894882	0.26813132
5	0xbeeffe42	-0.4687367
6	0xbecc2281	-0.39870074
7	0xbe7aad9b	-0.24480288
8	0xbe9e47df	-0.30914208
9	0x3d16d28b	0.036821883
10	0xbe6629f4	-0.22476941
11	0xbd54106a	-0.051773466
12	0x3e988b78	0.29793906
13	0xbe3910cc	-0.18072814
14	0x3f1d42d8	0.6143012
15	0xbea99127	-0.33118555
16	0x3e5092f0	0.20368552
17	0xbc5fb8d2	-0.013654904
18	0xbee27d13	-0.4423605
19	0x3e9c25ef	0.3049769
20	0x3e19d008	0.15020764
21	0x3e1dd3b1	0.15412785
22	0x3e493960	0.19650793
23	0xbf1d760b	-0.61508244
24	0xbef2def3	-0.47435722
25	0xbf103d02	-0.5634309
26	0x3ec59916	0.38593358
27	0x3de10a2b	0.109882675
28	0xbe458f0c	-0.1929285
29	0xbece881a	-0.40338212
30	0x3df4bcc0	0.11950064
31	0xbe96ec50	-0.29477167
32	0x3ec20487	0.3789408
33	0x3e7c11ba	0.24616137
34	0xbe980318	-0.2968986
35	0xbcde6821	-0.027149262
36	0xbe507008	-0.20355237
37	0x3e19d0c7	0.15021048
38	0xbdfc6111	-0.123232014
39	0xbe5ba079	-0.21447934
40	0x3e4b3f9a	0.19848481
41	0xbcb33902	-0.02187777
42	0xbd91ebf6	-0.07125084
43	0xbe93800d	-0.28808632
44	0x3dce3e67	0.10070496
45	0x3e9f5ca0	0.31125355
46	0x3f1270e0	0.57203484
47	0x3e61bb7d	0.22044177
48	0xbeb543a7	-0.35403177
49	0xbf2c7560	-0.673666
50	0xbd3c4f36	-0.04597398
51	0xbde71b8e	-0.112845525
52	0xbddfffc4	-0.10937455
53	0xbe97f572	-0.29679447
54	0xbb96b908	-0.004599694
55	0x3d653e00	0.05596733
56	0x3e68862e	0.22707435
57	0xbe6e09f7	-0.23245989
58	0xbe58d650	-0.21175504
59	0x3d356d85	0.0442939
60	0xbde701d6	-0.11279647
61	0xbdfbb1c6	-0.12289767
62	0x3dc2c490	0.095101476
63	0xbe83858e	-0.25687832
64	0x3e8462d6	0.25856656
65	0xbe0e55ed	-0.13899966
66	0xbb52ed2a	-0.0032184818
67	0x3dada2ea	0.08478339
68	0xbf25c848	-0.6475873
69	0xbee1b035	-0.44079748
70	0xbdadd46b	-0.08487781
71	0xbe81f16d	-0.25379506
72	0xbe08595a	-0.13315335
73	0x3cdb7363	0.02678842
74	0x3e067c1f	0.13133286
75	0xbeafbf8a	-0.3432582
76	0x3e3ce20f	0.1844561
77	0xbc14fbcb	-0.009093235
78	0x3d8b24f9	0.06794161
79	0x3c264d5e	0.010150282
80	0xbe0519af	-0.12998079
81	0xbe78bfed	-0.24291964
82	0x3e0fe8ae	0.14053604
83	0xbdc94e86	-0.0982943
84	0xbe20ef23	-0.15716223
85	0xbccfbdaa	-0.025358994
86	0x3e423b58	0.1896795
87	0x3ef996a9	0.48747757
88	0xbee08958	-0.43854785
89	0xbef3e248	-0.47633576
90	0x3d245586	0.040120624
91	0xbdd204ac	-0.10254797
92	0x3e8c2652	0.27372986
93	0xbdc0634c	-0.093939394
94	0x3eb70f10	0.3575368
95	0x3de50947	0.1118341
96	0x3ea356b3	0.31902084
97	0x3ef34a2d	0.4751753
98	0xbe5048a7	-0.20340215
99	0xbe90f38c	-0.28310812
100	0x3e0cae24	0.13738304
101	0xbeb6df14	-0.3571707
102	0x3efb20ef	0.49048564
103	0xbde8f9d3	-0.11375775
104	0x3eb021d7	0.34400818
105	0x3e188533	0.14894561
106	0xbdf8e0e5	-0.1215227
107	0x3d2ae536	0.0417225
108	0x3f1d1bed	0.61370736
109	0x3e0612c4	0.13093096
110	0xbea334f5	-0.3187634
111	0xbe40a932	-0.18814543
112	0x3f307286	0.6892475
113	0x3e2c104c	0.16803092
114	0xbdd94cf6	-0.10610382
115	0x3cc6d195	0.024269858
116	0x3e8f4f24	0.27990067
117	0x3b1c3089	0.002383264
118	0xbeb7f27c	-0.35927188
119	0xbed457cb	-0.4147323
120	0xbed366c6	-0.41289347
121	0xbeaca4d5	-0.33719507
122	0xbea63282	-0.3246041
123	0x3e349ab3	0.17637138
124	0xbc092ff0	-0.008373246
125	0xbdccd279	-0.10001082
126	0xbe75c771	-0.24001862
127	0x3da0f741	0.0785966
128	0xbef03aba	-0.46919805
129	0xbdba5964	-0.09099081
130	0xbe67946c	-0.22615212
131	0x3ea64a27	0.3247845
132	0x3e060c35	0.13090594
133	0x3ef4eb45	0.47835746
134	0x3e22fff3	0.1591795
135	0x3dabc679	0.08387465
136	0x3e49cff3	0.19708233
137	0x3e36077d	0.17776294
138	0x3d875fd6	0.06610076
139	0x3eb4b2df	0.35292718
140	0x3d520795	0.051276762
141	0x3ecc97e9	0.39959648
142	0xbe249fe2	-0.16076615
143	0x3f07ca2f	0.5304288
144	0xbe7f311a	-0.24921075
145	0x3e9e6988	0.3093989
146	0x3da49ce1	0.08037735
147	0x3ecf262d	0.40458813
148	0x3db849e3	0.08998468
149	0x3ed4805f	0.4150419
150	0x3da7b02e	0.081879005
151	0x3e5e1388	0.21687138
152	0xbea72385	-0.32644287
153	0x3e9456ef	0.28972575
154	0x3e02b13a	0.12762919
155	0x3f15ab79	0.5846477
156	0xbc20ad62	-0.009806963
157	0xbe8bc17f	-0.27296063
158	0xbe5cee34	-0.21575242
159	0x3d8268e7	0.06367665
160	0xbec08d34	-0.3760773
161	0x3e8aef09	0.27135494
162	0x3d80a66f	0.06281745
163	0xbe15a89f	-0.14615105
164	0x3bc13636	0.005896355
165	0xbd98b687	-0.07456689
166	0xbdd5860f	-0.1042596
167	0x3e4f403f	0.20239352
168	0xbf261c55	-0.6488698
169	0xbed8d288	-0.42348123
170	0xbe431d03	-0.19054036
171	0xbe98751e	-0.29776853
172	0x3d625667	0.05525818
173	0x3d7fac10	0.06241995
174	0xbdc4a01b	-0.0960085
175	0x3db94143	0.09045651
176	0x3e9e01c9	0.30860737
177	0x3e665c0f	0.22496055
178	0x3ec19b1c	0.37813652
179	0x3dc3f9ca	0.09569128
180	0x3d160cdb	0.036633354
181	0x3f115a63	0.56778544
182	0xbebeca99	-0.37263945
183	0xbe5e9da8	-0.21739829
184	0x3e087644	0.13326365
185	0xbe995fb0	-0.29955816
186	0xbf007bc9	-0.5018888
187	0xbe914a90	-0.283772
188	0x3e424779	0.18972577
189	0x3de1da51	0.11027969
190	0xbede7ed9	-0.43456152
191	0xbe39e7a6	-0.18154773
192	0x3cf3644e	0.029710915
193	0xbd30eb29	-0.043193016
194	0xbe998fc8	-0.2999251
195	0x3da9ee04	0.08297351
196	0x3ed5ceef	0.4175944
197	0xbd9d21d1	-0.076724656
198	0xbdd0f012	-0.1020204
199	0x3c6ae7ec	0.014337521
200	0x3ee8f354	0.45498145
201	0x3e4e12ea	0.20124403
202	0x3e0d78c1	0.13815595
203	0xbe945fab	-0.2897924
204	0xbeb0dd09	-0.34543636
205	0xbe0eabef	-0.13932775
206	0xbda26bf2	-0.07930745
207	0x3e0da216	0.13831362
208	0xbd5cada7	-0.053876545
209	0xbc5bca04	-0.0134148635
210	0xbcc664de	-0.02421802
211	0x3d8cd26e	0.06876074
212	0x3ef40edd	0.4766759
213	0x3f3ac93b	0.72963303
214	0x3ea0c01c	0.31396568
215	0xbd23cf01	-0.039992336
216	0xbd709966	-0.058740042
217	0xbda39229	-0.07986862
218	0x3e9c5c83	0.3053933
219	0xbf06a77f	-0.5259933
220	0xbcb42cd0	-0.021994025
221	0x3ed2e2a9	0.41188553
222	0xbe35ece7	-0.17766152
223	0x3e29460a	0.16530624
224	0x3e867b83	0.26266107
225	0xbe52dba4	-0.20591599
226	0x3ec98f77	0.39367267
227	0x3dd9bc7d	0.106316544
228	0xbe2f292a	-0.17105547
229	0x3ea42949	0.32062748
230	0xbe6ae457	-0.22938667
231	0xbe386799	-0.1800827
232	0xbe1aaa4c	-0.15104026
233	0xbe5258d7	-0.20541702
234	0xbc89dc54	-0.016828693
235	0x3cbe9fa7	0.023269488
236	0x3e940cbd	0.2891597
237	0x3e3fa396	0.18714747
238	0x3e622943	0.22086053
239	0xbed4c419	-0.4155586
240	0xbed43e01	-0.41453555
241	0xbe4186ba	-0.1889905
242	0x3e2e778e	0.17037794
243	0x3ca119b9	0.019665586
244	0xbd9da46f	-0.07697379
245	0xbe19db79	-0.15025128
246	0x3d8b8c97	0.06813925
247	0x3e326aa9	0.174235
248	0x3e275ffa	0.16345206
249	0xbd4dc304	-0.05023481
250	0xbea1acce	-0.31577152
251	0xbdd75ee1	-0.105161436
252	0x3d895395	0.06705395
253	0x3b2a8d11	0.0026024024
254	0x3e8d3c3c	0.27585018
255	0x3dc87671	0.09788216

graph_embed_generation.fc_metadata.bias f4 [32]
0	0x3c93a259	0.01802175
1	0x3d089ce2	0.03335274
2	0xbe699478	-0.22810543
3	0xbd347aa1	-0.04406226
4	0xbe946d89	-0.2898982
5	0x3cbc73a0	0.023004353
6	0x3e4e6385	0.20155151
7	0x3d1e233a	0.038607813
8	0x3e4bd93f	0.19907092
9	0x3de888a1	0.11354185
10	0x3e200ab6	0.15629086
11	0x3ece6668	0.40312505
12	0xbe06f187	-0.13178073
13	0xbd501af8	-0.05080697
14	0x3e98e939	0.29865435
15	0x3dbd0314	0.09229103
16	0xbe15620c	-0.14588183
17	0xbeb52292	-0.35377938
18	0x3dbb8381	0.09155942
19	0xbe2882ab	-0.16456096
20	0x3e609c2c	0.21934575
21	0xbddd6a44	-0.10811284
22	0x3e310ceb	0.17290084
23	0x3e24d446	0.16096601
24	0xbdf9736a	-0.121802166
25	0xbe25cdc8	-0.1619178
26	0xbe18b224	-0.14911705
27	0x3d99f441	0.07517291
28	0x3d54304b	0.05180387
29	0xbec83a0d	-0.3910679
30	0xbde2ac68	-0.1106804
31	0x3e4e3920	0.20138979

graph_embed_generation.mlp.0.weight f4 [32, 96]
0	0x3cb65584	0.022257574
1	0xbe6e470f	-0.23269294
2	0xbe954466	-0.29153746
3	0x3d3ce6be	0.04611849
4	0xbd9951ab	-0.0748628
5	0x3d5842a4	0.05279793
6	0xbd59bc23	-0.053157937
7	0xbca70efd	-0.02039289
8	0x3d85f3f7	0.06540673
9	0xbf002fae	-0.50072753
10	0xbe70ac02	-0.23503116
11	0xbb885d74	-0.004161531
12	0x3da1f13e	0.079073414
13	0x3e0dfeb2	0.1386669
14	0xbcdef179	-0.027214753
15	0x3c9a3dcb	0.018828293
16	0xbd1b98f1	-0.037987653
17	0x3d0889e0	0.033334613
18	0x3dae3f5f	0.08508181
19	0xbe33c34f	-0.17554973
20	0x3edce1be	0.43140978
21	0xbd864368	-0.065558255
22	0x3d327590	0.043569148
23	0x3eba1d28	0.3635037
24	0x3c7566a5	0.014978086
25	0x3e066056	0.13122687
26	0x3ea1fc71	0.3163791
27	0x3d882e42	0.06649448
28	0xbdd4d00d	-0.10391245
29	0xbdf45167	-0.11929589
30	0xbd12cb19	-0.03583822
31	0xbdda1621	-0.10648752
32	0x3beec178	0.007286247
33	0xbdadbbdd	-0.08483098
34	0xbd0b2fbd	-0.033981074
35	0xbe449000	-0.19195557
36	0xbd25d7b4	-0.040488914
37	0xbe0dd373	-0.13850193
38	0xbd64007e	-0.055664532
39	0x3d290313	0.041262697
40	0x3da97ddf	0.08275961
41	0xbe2927c1	-0.16519071
42	0xbe0ff0e5	-0.14056738
43	0xba7535dd	-0.00093540346
44	0x3daeb2e9	0.08530218
45	0x3e179273	0.1480196
46	0xbe22d72e	-0.15902397
47	0xbd8d28c8	-0.06892544
48	0xbdc1605a	-0.09442206
49	0x3e1ecb5d	0.15507264
50	0xbdfab16c	-0.12240872
51	0x3d5c19e8	0.053735644
52	0xbdb3704c	-0.08761653
53	0xbd6d88cc	-0.057991788
54	0x3d3f5857	0.046715107
55	0x3be599af	0.007006846
56	0xbea295b0	-0.31754827
57	0xbeca35b1	-0.39494088
58	0x3e69de40	0.22838688
59	0x3e3ff276	0.18744835
60	0xbeb0d08a	-0.34534103
61	0xbdf2ae69	-0.11849672
62	0x3e2cc722	0.16872838
63	0xbd118924	-0.035531178
64	0x3e019a98	0.12656629
65	0x3e4af211	0.19818904
66	0xbd7980e9	-0.060913954
67	0x3da32267	0.07965546
68	0x3d9d7268	0.07687837
69	0xbc726a86	-0.014795905
70	0x3e47596c	0.19467705
71	0xbd8a07fb	-0.067398034
72	0x3a5a6343	0.0008330831
73	0xbe84a48b	-0.25906786
74	0xbd6cff9a	-0.05786095
75	0x3dc9fc89	0.098626204
76	0xbdf2a84d	-0.11848507
77	0xbc872ab4	-0.016499855
78	0xbe0ab70d	-0.13546391
79	0xbd801926	-0.06254797
80	0xbe664eb4	-0.2249096
81	0xbd95569e	-0.072919115
82	0xbd66013a	-0.056153513
83	0x3d7070f8	0.058701485
84	0x3dbfcdb5	0.093654074
85	0x3eb417e1	0.35174468
86	0xbd3df812	-0.046379156
87	0x3e32a512	0.17445782
88	0xbd6a2ff0	-0.057174623
89	0x3e2d8d1f	0.16948365
90	0x3d8bc31b	0.06824323
91	0xbd669beb	-0.05630104
92	0x3ddd5ac8	0.10808331
93	0xbdcb4544	-0.09925321
94	0xbe4929b1	-0.1964481
95	0x3e1d5dd4	0.15367824
96	0x3cd00028	0.0253907
97	0x3e7dffe0	0.2480464
98	0x3e2d952e	0.16951439
99	0xbe8985c9	-0.26859882
100	0x3d6c76ce	0.05773049
101	0xbc8a3f1e	-0.0168758
102	0xbddc4b4c	-0.10756549
103	0xbe6388d8	-0.2222017
104	0xbe4421a3	-0.19153456
105	0x3e07586f	0.13217328
106	0x3e8e9b63	0.27852926
107	0xbdb24e4e	-0.08706342
108	0xbdd508cd	-0.10402069
109	0x3e77e68c	0.2420904
110	0xbda3af1a	-0.07992382
111	0xbce09a1b	-0.027417233
112	0xbd04e8be	-0.032448523
113	0xbeb47bef	-0.35250804
114	0xbea3e3c9	-0.32009724
115	0x3e826136	0.2546479
116	0x3e2bb007	0.16766368
117	0x3dffba15	0.12486664
118	0xbdbc3266	-0.091893
119	0xbe5abae2	-0.21360353
120	0x3e626cf3	0.22111873
121	0xbe9b792f	-0.30365893
122	0x3cacdc8e	0.021101262
123	0x3e9cb8ea	0.30609828
124	0x3ce7c2bc	0.028291099
125	0x3dd6d86c	0.10490498
126	0xbe1d4aec	-0.15360612
127	0x3e0eb1da	0.13935032
128	0xbce8d31e	-0.028420981
129	0x3e7181ed	0.23584719
130	0x3d8b8677	0.068127565
131	0x3d5f8934	0.054574206
132	0x3e317e35	0.173333
133	0x3d4ec057	0.0504764
134	0xbdf69a7f	-0.120411865
135	0xbe322b8e	-0.17399427
136	0x3d7d3b1f	0.06182396
137	0xbdf9405b	-0.12170478
138	0x3d2faf79	0.042891953
139	0x3d8c0a93	0.06837954
140	0xbe8111a5	-0.25208774
141	0xbca94722	-0.020663802
142	0xbdbaaeab	-0.091153465
143	0xbe001438	-0.12507713
144	0x3d3ed6b3	0.046591472
145	0xbe03620a	-0.12830368
146	0x3c9c6f6f	0.019096104
147	0xbe999b53	-0.30001315
148	0x3e9746c8	0.2954619
149	0xbe30219e	-0.17200324
150	0xbe05e220	-0.13074541
151	0x3de6a2d9	0.112615295
152	0xbe02d291	-0.12775637
153	0x3dcea325	0.10089711
154	0x3e40bbf6	0.18821701
155	0xbd906756	-0.0705096
156	0x3e659fff	0.22424315
157	0xbe7f7a17	-0.24948917
158	0xbdc1f4b2	-0.094705
159	0x3c9a9353	0.018869078
160	0xbe903aef	-0.28169963
161	0xbde5b1d0	-0.11215556
162	0xbe028f36	-0.12749943
163	0xbe6ac71e	-0.2292752
164	0xbda71fe7	-0.08160382
165	0xbdee432d	-0.116339065
166	0xbca3bf8b	-0.019988796
167	0xbdd71f09	-0.10503966
168	0x3e64ca19	0.22342719
169	0x3e64f6cd	0.22359772
170	0x3e26454e	0.16237375
171	0x3cbd2972	0.023091052
172	0xbde0417b	-0.109499894
173	0x3d7c2ad0	0.061564267
174	0xbe0dd129	-0.1384932
175	0xbe50dd56	-0.20396933
176	0xbe23ab10	-0.15983224
177	0x3dc97632	0.09836997
178	0xbd398cba	-0.045300223
179	0x3d6f0590	0.058354914
180	0xbdf0e0a8	-0.117616
181	0x3e17d860	0.14828634
182	0xbe60d18f	-0.2195494
183	0x3d9cab82	0.076499
184	0x3d913643	0.07090428
185	0x3d3fe343	0.046847593
186	0xbe9241e5	-0.285659
187	0x3e7807e9	0.24221767
188	0x3ddd04f8	0.10791963
189	0x3df3c5bd	0.1190295
190	0x3da59d64	0.080866605
191	0x3d9053e6	0.07047252
192	0xbe1f1030	-0.15533519
193	0xbc6beed4	-0.014400203
194	0xbdb8f18d	-0.09030447
195	0xbd98fdde	-0.07470296
196	0x3e1e8621	0.15480854
197	0x3d97b812	0.074081555
198	0x3e7afedb	0.24511282
199	0xbe3736a6	-0.1789194
200	0x3e0e8578	0.13918102
201	0xbd4eb2a0	-0.05046332
202	0xbea8130d	-0.32827035
203	0x3c9d2a7b	0.019185295
204	0x3cd18b4d	0.02557912
205	0x3dff3a07	0.1246224
206	0xbd870eb8	-0.06594604
207	0xbd890f66	-0.0669239
208	0x3d3e676f	0.04648536
209	0x3e0ead4a	0.13933292
210	0x3d513dd8	0.05108437
211	0xbe070f6c	-0.13189477
212	0xbde6fbab	-0.112784706
213	0x3e26e683	0.1629887
214	0xbe9af043	-0.3026143
215	0xbd26ebb5	-0.04075213
216	0xbe895b9e	-0.2682771
217	0x3df05e7b	0.11736771
218	0x3eae25ed	0.3401331
219	0xbec1c8b4	-0.37848437
220	0x3b4acead	0.0030945942
221	0x3dae2014	0.08502212
222	0xbd95208d	-0.07281599
223	0x3def76ec	0.116926044
224	0x3dd07780	0.10179043
225	0xbe43d477	-0.19124018
226	0xbddd664f	-0.108105294
227	0xbe1536ed	-0.14571734
228	0x3dec5abd	0.115407445
229	0x3e299f4c	0.16564673
230	0x3e40a593	0.18813162
231	0xbe3aba9e	-0.18235251
232	0xbd7d55e0	-0.061849475
233	0xbe9519fb	-0.29121384
234	0xbecb8cdf	-0.39755914
235	0xbeabfe80	-0.33592606
236	0xbd54f488	-0.051991016
237	0xbdc5aabb	-0.09651705
238	0xbe15df1c	-0.1463589
239	0x3ddec337	0.10877078
240	0xbe3e2e36	-0.18572316
241	0x3e571609	0.210045
242	0x3dd049be	0.10170315
243	0x3e0cab79	0.13737287
244	0x3e1e2479	0.154436
245	0x3e8952c3	0.26820955
246	0x3d1c5d02	0.038174637
247	0x3e1d338a	0.15351692
248	0xbdb24d9a	-0.087062076
249	0xbeb09fe6	-0.34496993
250	0x3e0565ce	0.13027117
251	0x3e15a023	0.14611869
252	0xbe054a48	-0.13016617
253	0x3c6808ef	0.014162286
254	0xbcc54cc1	-0.02408445
255	0x3dcb6ebc	0.0993323

graph_embed_generation.mlp.0.bias f4 [32]
0	0x3da8d6ce	0.08244096
1	0xbd590a13	-0.052988123
2	0xbdab039b	-0.08350297
3	0xbdaf0654	-0.08546129
4	0x3e19c1b2	0.15015295
5	0xbda7405c	-0.081665725
6	0xbd86c0fa	-0.06579776
7	0xbd3b34fb	-0.045704823
8	0x3d53bf35	0.05169602
9	0x3dd862cc	0.10565719
10	0x3d9ca04b	0.07647761
11	0xbdb0b0f7	-0.08627503
12	0x3cd2e1ff	0.025742529
13	0x3d98bc04	0.07457736
14	0x3e091ec3	0.13390641
15	0xbdbd2ab2	-0.09236659
16	0x3ce42105	0.027847776
17	0x3e2b1801	0.16708376
18	0x3dab0a9d	0.08351634
19	0xbdd06ab9	-0.10176606
20	0x3bc19bf1	0.0059084822
21	0xbdba064a	-0.09083231
22	0x3d1b13a7	0.03786054
23	0xbda7ffd4	-0.08203092
24	0x3cb54616	0.022128146
25	0x3dc09e9f	0.094052546
26	0xbc7c3306	-0.015393024
27	0xbdda66d3	-0.106641434
28	0xbc7010a1	-0.014652402
29	0x3daab9d6	0.08336227
30	0xbc83dec6	-0.016097438
31	0xbc6abed2	-0.014327722
